…
[Epoch 199, Batch 80] loss: 0.003
epoch:  199
[Epoch 200, Batch 10] loss: 0.004
[Epoch 200, Batch 20] loss: 0.004
[Epoch 200, Batch 30] loss: 0.003
[Epoch 200, Batch 40] loss: 0.003
[Epoch 200, Batch 50] loss: 0.003
[Epoch 200, Batch 60] loss: 0.004
[Epoch 200, Batch 70] loss: 0.004
[Epoch 200, Batch 80] loss: 0.003
==========================================================================================
Layer (type:depth-idx)                   Output Shape              Param #
==========================================================================================
TAPPredictor                             [8, 1]                    --
Sequential: 1-1                        [8, 1]                    --
    Conv1d: 2-1                       [8, 1024, 1280]           4,096
    Tanh: 2-2                         [8, 1024, 1280]           --
    MaxPool1d: 2-3                    [8, 1024, 640]            --
    Conv1d: 2-4                       [8, 512, 640]             1,573,376
    Tanh: 2-5                         [8, 512, 640]             --
    MaxPool1d: 2-6                    [8, 512, 320]             --
    Conv1d: 2-7                       [8, 256, 320]             393,472
    Tanh: 2-8                         [8, 256, 320]             --
    MaxPool1d: 2-9                    [8, 256, 160]             --
    Conv1d: 2-10                      [8, 128, 160]             98,432
    Tanh: 2-11                        [8, 128, 160]             --
    MaxPool1d: 2-12                   [8, 128, 80]              --
    Conv1d: 2-13                      [8, 16, 80]               6,160
    Tanh: 2-14                        [8, 16, 80]               --
    MaxPool1d: 2-15                   [8, 16, 40]               --
    Conv1d: 2-16                      [8, 4, 40]                196
    Tanh: 2-17                        [8, 4, 40]                --
    MaxPool1d: 2-18                   [8, 4, 20]                --
    Flatten: 2-19                     [8, 80]                   --
    Linear: 2-20                      [8, 1]                    81
==========================================================================================
Total params: 2,075,813
Trainable params: 2,075,813
Non-trainable params: 0
Total mult-adds (G): 9.23
==========================================================================================
Input size (MB): 0.04
Forward/backward pass size (MB): 111.50
Params size (MB): 8.30
Estimated Total Size (MB): 119.85
…
