…
[Epoch 199, Batch 80] loss: 0.000
epoch:  199
[Epoch 200, Batch 10] loss: 0.000
[Epoch 200, Batch 20] loss: 0.000
[Epoch 200, Batch 30] loss: 0.000
[Epoch 200, Batch 40] loss: 0.000
[Epoch 200, Batch 50] loss: 0.000
[Epoch 200, Batch 60] loss: 0.000
[Epoch 200, Batch 70] loss: 0.000
[Epoch 200, Batch 80] loss: 0.000
==========================================================================================
Layer (type:depth-idx)                   Output Shape              Param #
==========================================================================================
TAPPredictor                             [8, 1]                    --
Sequential: 1-1                        [8, 1]                    --
    Conv1d: 2-1                       [8, 2048, 1278]           12,288
    Tanh: 2-2                         [8, 2048, 1278]           --
    MaxPool1d: 2-3                    [8, 2048, 1276]           --
    Conv1d: 2-4                       [8, 1024, 1274]           10,486,784
    Tanh: 2-5                         [8, 1024, 1274]           --
    MaxPool1d: 2-6                    [8, 1024, 1272]           --
    Conv1d: 2-7                       [8, 512, 1270]            2,621,952
    Tanh: 2-8                         [8, 512, 1270]            --
    MaxPool1d: 2-9                    [8, 512, 1268]            --
    Conv1d: 2-10                      [8, 256, 1266]            655,616
    Tanh: 2-11                        [8, 256, 1266]            --
    MaxPool1d: 2-12                   [8, 256, 1264]            --
    Conv1d: 2-13                      [8, 128, 1262]            163,968
    Tanh: 2-14                        [8, 128, 1262]            --
    MaxPool1d: 2-15                   [8, 128, 1260]            --
    Conv1d: 2-16                      [8, 16, 1258]             10,256
    Tanh: 2-17                        [8, 16, 1258]             --
    MaxPool1d: 2-18                   [8, 16, 1256]             --
    Conv1d: 2-19                      [8, 4, 1254]              324
    Tanh: 2-20                        [8, 4, 1254]              --
    MaxPool1d: 2-21                   [8, 4, 1252]              --
    Flatten: 2-22                     [8, 5008]                 --
    Linear: 2-23                      [8, 1]                    5,009
==========================================================================================
Total params: 13,956,197
Trainable params: 13,956,197
Non-trainable params: 0
Total mult-adds (G): 142.05
==========================================================================================
Input size (MB): 0.04
Forward/backward pass size (MB): 325.31
Params size (MB): 55.82
Estimated Total Size (MB): 381.17
…
