…
[Epoch 100, Batch 500] loss: 0.850
[Epoch 100, Batch 510] loss: 0.831
[Epoch 100, Batch 520] loss: 0.848
[Epoch 100, Batch 530] loss: 0.844
[Epoch 100, Batch 540] loss: 0.833
[Epoch 100, Batch 550] loss: 0.843
[Epoch 100, Batch 560] loss: 0.841
[Epoch 100, Batch 570] loss: 0.852
[Epoch 100, Batch 580] loss: 0.851
==========================================================================================
Layer (type:depth-idx)                   Output Shape              Param #
==========================================================================================
PGPredictor                              [512, 1]                  --
Sequential: 1-1                        [512, 1]                  --
    Conv1d: 2-1                       [512, 256, 1274]          2,048
    BatchNorm1d: 2-2                  [512, 256, 1274]          512
    Tanh: 2-3                         [512, 256, 1274]          --
    MaxPool1d: 2-4                    [512, 256, 182]           --
    Dropout: 2-5                      [512, 256, 182]           --
    Flatten: 2-6                      [512, 46592]              --
    Linear: 2-7                       [512, 1]                  46,593
==========================================================================================
Total params: 49,153
Trainable params: 49,153
Non-trainable params: 0
Total mult-adds (G): 1.36
==========================================================================================
Input size (MB): 2.62
Forward/backward pass size (MB): 2671.78
Params size (MB): 0.20
Estimated Total Size (MB): 2674.59
==========================================================================================
…
