…
Early stopping triggered!
Time taken:  2682.8373131752014
{'time_elapsed': [2682.8373131752014], 'epoch': [87], 'fold': [0], 'f1_train': [0.9928161714345926], 'auroc_train': [1.0], 'auprc_train': [1.0], 'f1_test': [0.7712620601193464], 'auroc_test': [0.81173294059892], 'auprc_test': [0.9177552122276238]}
==========================================================================================
Layer (type:depth-idx)                   Output Shape              Param #
==========================================================================================
TAPPredictor                             [64, 1]                   --
├─Sequential: 1-1                        [64, 1]                   --
│    └─Conv1d: 2-1                       [64, 1024, 1276]          8,192
│    └─BatchNorm1d: 2-2                  [64, 1024, 1276]          2,048
│    └─Tanh: 2-3                         [64, 1024, 1276]          --
│    └─MaxPool1d: 2-4                    [64, 1024, 1270]          --
│    └─Dropout: 2-5                      [64, 1024, 1270]          --
│    └─Flatten: 2-6                      [64, 1300480]             --
│    └─Linear: 2-7                       [64, 1]                   1,300,481
==========================================================================================
Total params: 1,310,721
Trainable params: 1,310,721
Non-trainable params: 0
Total mult-adds (M): 752.35
==========================================================================================
Input size (MB): 0.33
Forward/backward pass size (MB): 1337.98
Params size (MB): 5.24
Estimated Total Size (MB): 1343.55
…
Time taken:  226.2379081249237
{'time_elapsed': [226.2379081249237], 'epoch': [80], 'fold': [0], 'f1_train': [0.987438205840143], 'auroc_train': [0.999831376276175], 'auprc_train': [0.9999257377764708], 'f1_test': [0.7607703458551531], 'auroc_test': [0.8075601374570447], 'auprc_test': [0.9139482334567645]}
==========================================================================================
Layer (type:depth-idx)                   Output Shape              Param #
==========================================================================================
TAPPredictor                             [64, 1]                   --
├─Sequential: 1-1                        [64, 1]                   --
│    └─Conv1d: 2-1                       [64, 1024, 183]           8,192
│    └─BatchNorm1d: 2-2                  [64, 1024, 183]           2,048
│    └─Tanh: 2-3                         [64, 1024, 183]           --
│    └─MaxPool1d: 2-4                    [64, 1024, 26]            --
│    └─Dropout: 2-5                      [64, 1024, 26]            --
│    └─Flatten: 2-6                      [64, 26624]               --
│    └─Linear: 2-7                       [64, 1]                   26,625
==========================================================================================
Total params: 36,865
Trainable params: 36,865
Non-trainable params: 0
Total mult-adds (M): 97.78
==========================================================================================
Input size (MB): 0.33
Forward/backward pass size (MB): 191.89
Params size (MB): 0.15
Estimated Total Size (MB): 192.37
==========================================================================================
…
