…
Time taken:  790.5744881629944
{'time_elapsed': [790.5744881629944], 'epoch': [56], 'fold': [0], 'f1_train': [0.9265375861795297], 'auroc_train': [0.975978784069657], 'auprc_train': [0.9889947639330708], 'f1_test': [0.7725930260576229], 'auroc_test': [0.8276877761413843], 'auprc_test': [0.9240833908665614]}
==========================================================================================
Layer (type:depth-idx)                   Output Shape              Param #
==========================================================================================
TAPPredictor                             [32, 1]                   --
├─Sequential: 1-1                        [32, 1]                   --
│    └─Conv1d: 2-1                       [32, 512, 1280]           2,048
│    └─BatchNorm1d: 2-2                  [32, 512, 1280]           1,024
│    └─Tanh: 2-3                         [32, 512, 1280]           --
│    └─MaxPool1d: 2-4                    [32, 512, 1278]           --
│    └─Dropout: 2-5                      [32, 512, 1278]           --
│    └─Flatten: 2-6                      [32, 654336]              --
│    └─Linear: 2-7                       [32, 1]                   654,337
==========================================================================================
Total params: 657,409
Trainable params: 657,409
Non-trainable params: 0
Total mult-adds (M): 104.86
==========================================================================================
Input size (MB): 0.16
Forward/backward pass size (MB): 335.54
Params size (MB): 2.63
Estimated Total Size (MB): 338.34
…
Time taken:  357.423846244812
{'time_elapsed': [357.423846244812], 'epoch': [139], 'fold': [0], 'f1_train': [0.8757340304926513], 'auroc_train': [0.9550847717447957], 'auprc_train': [0.9789986740141414], 'f1_test': [0.7494347379239465], 'auroc_test': [0.8166421207658322], 'auprc_test': [0.9204427490110832]}
==========================================================================================
Layer (type:depth-idx)                   Output Shape              Param #
==========================================================================================
TAPPredictor                             [32, 1]                   --
├─Sequential: 1-1                        [32, 1]                   --
│    └─Conv1d: 2-1                       [32, 512, 427]            2,048
│    └─BatchNorm1d: 2-2                  [32, 512, 427]            1,024
│    └─Tanh: 2-3                         [32, 512, 427]            --
│    └─MaxPool1d: 2-4                    [32, 512, 142]            --
│    └─Dropout: 2-5                      [32, 512, 142]            --
│    └─Flatten: 2-6                      [32, 72704]               --
│    └─Linear: 2-7                       [32, 1]                   72,705
==========================================================================================
Total params: 75,777
Trainable params: 75,777
Non-trainable params: 0
Total mult-adds (M): 30.34
==========================================================================================
Input size (MB): 0.16
Forward/backward pass size (MB): 111.94
Params size (MB): 0.30
Estimated Total Size (MB): 112.40
==========================================================================================
…
