…
Early stopping triggered
Early stopping triggered!
Time taken:  1437.2320873737335
{'time_elapsed': [1437.2320873737335], 'epoch': [63], 'fold': [0], 'f1_train': [1.0], 'auroc_train': [1.0], 'auprc_train': [1.0], 'f1_test': [0.7971323289800215], 'auroc_test': [0.8242513500245459], 'auprc_test': [0.9198402204064514]}
==========================================================================================
Layer (type:depth-idx)                   Output Shape              Param #
==========================================================================================
TAPPredictor                             [32, 1]                   --
├─Sequential: 1-1                        [32, 1]                   --
│    └─Conv1d: 2-1                       [32, 1024, 1280]          4,096
│    └─BatchNorm1d: 2-2                  [32, 1024, 1280]          2,048
│    └─Tanh: 2-3                         [32, 1024, 1280]          --
│    └─MaxPool1d: 2-4                    [32, 1024, 1278]          --
│    └─Dropout: 2-5                      [32, 1024, 1278]          --
│    └─Flatten: 2-6                      [32, 1308672]             --
│    └─Linear: 2-7                       [32, 1]                   1,308,673
==========================================================================================
Total params: 1,314,817
Trainable params: 1,314,817
Non-trainable params: 0
Total mult-adds (M): 209.72
==========================================================================================
Input size (MB): 0.16
Forward/backward pass size (MB): 671.09
Params size (MB): 5.26
Estimated Total Size (MB): 676.51
…
Early stopping triggered
Early stopping triggered!
Time taken:  351.14403676986694
{'time_elapsed': [351.14403676986694], 'epoch': [60], 'fold': [0], 'f1_train': [1.0], 'auroc_train': [1.0], 'auprc_train': [1.0], 'f1_test': [0.7648187281552264], 'auroc_test': [0.8082965144820815], 'auprc_test': [0.9096943603331684]}
==========================================================================================
Layer (type:depth-idx)                   Output Shape              Param #
==========================================================================================
TAPPredictor                             [32, 1]                   --
├─Sequential: 1-1                        [32, 1]                   --
│    └─Conv1d: 2-1                       [32, 1024, 427]           4,096
│    └─BatchNorm1d: 2-2                  [32, 1024, 427]           2,048
│    └─Tanh: 2-3                         [32, 1024, 427]           --
│    └─MaxPool1d: 2-4                    [32, 1024, 142]           --
│    └─Dropout: 2-5                      [32, 1024, 142]           --
│    └─Flatten: 2-6                      [32, 145408]              --
│    └─Linear: 2-7                       [32, 1]                   145,409
==========================================================================================
Total params: 151,553
Trainable params: 151,553
Non-trainable params: 0
Total mult-adds (M): 60.69
==========================================================================================
Input size (MB): 0.16
Forward/backward pass size (MB): 223.87
Params size (MB): 0.61
Estimated Total Size (MB): 224.64
…
