…
Time taken:  402.9096200466156
{'time_elapsed': [402.9096200466156], 'epoch': [61], 'fold': [0], 'f1_train': [0.9360844381764387], 'auroc_train': [0.9806695894778796], 'auprc_train': [0.9909713688200299], 'f1_test': [0.7569659388768054], 'auroc_test': [0.8188512518409425], 'auprc_test': [0.9226324137726775]}
==========================================================================================
Layer (type:depth-idx)                   Output Shape              Param #
==========================================================================================
TAPPredictor                             [32, 1]                   --
├─Sequential: 1-1                        [32, 1]                   --
│    └─Conv1d: 2-1                       [32, 256, 1280]           1,024
│    └─BatchNorm1d: 2-2                  [32, 256, 1280]           512
│    └─Tanh: 2-3                         [32, 256, 1280]           --
│    └─MaxPool1d: 2-4                    [32, 256, 1278]           --
│    └─Dropout: 2-5                      [32, 256, 1278]           --
│    └─Flatten: 2-6                      [32, 327168]              --
│    └─Linear: 2-7                       [32, 1]                   327,169
==========================================================================================
Total params: 328,705
Trainable params: 328,705
Non-trainable params: 0
Total mult-adds (M): 52.43
==========================================================================================
Input size (MB): 0.16
Forward/backward pass size (MB): 167.77
Params size (MB): 1.31
Estimated Total Size (MB): 169.25
…
Time taken:  233.05781269073486
{'time_elapsed': [233.05781269073486], 'epoch': [176], 'fold': [0], 'f1_train': [0.875628165327599], 'auroc_train': [0.9529386516233866], 'auprc_train': [0.9779633421863996], 'f1_test': [0.7367608586927249], 'auroc_test': [0.8112420225822288], 'auprc_test': [0.9172073868119853]}
==========================================================================================
Layer (type:depth-idx)                   Output Shape              Param #
==========================================================================================
TAPPredictor                             [32, 1]                   --
├─Sequential: 1-1                        [32, 1]                   --
│    └─Conv1d: 2-1                       [32, 256, 427]            1,024
│    └─BatchNorm1d: 2-2                  [32, 256, 427]            512
│    └─Tanh: 2-3                         [32, 256, 427]            --
│    └─MaxPool1d: 2-4                    [32, 256, 142]            --
│    └─Dropout: 2-5                      [32, 256, 142]            --
│    └─Flatten: 2-6                      [32, 36352]               --
│    └─Linear: 2-7                       [32, 1]                   36,353
==========================================================================================
Total params: 37,889
Trainable params: 37,889
Non-trainable params: 0
Total mult-adds (M): 15.17
==========================================================================================
Input size (MB): 0.16
Forward/backward pass size (MB): 55.97
Params size (MB): 0.15
Estimated Total Size (MB): 56.28
==========================================================================================
…
