…
Time taken:  1227.7138602733612
{'time_elapsed': [1227.7138602733612], 'epoch': [88], 'fold': [0], 'f1_train': [0.8454374886625008], 'auroc_train': [0.9446301008676457], 'auprc_train': [0.9746452173054213], 'f1_test': [0.7375047745919104], 'auroc_test': [0.8271968581246932], 'auprc_test': [0.923723138293514]}
==========================================================================================
Layer (type:depth-idx)                   Output Shape              Param #
==========================================================================================
TAPPredictor                             [64, 1]                   --
├─Sequential: 1-1                        [64, 1]                   --
│    └─Conv1d: 2-1                       [64, 512, 1280]           2,048
│    └─BatchNorm1d: 2-2                  [64, 512, 1280]           1,024
│    └─Tanh: 2-3                         [64, 512, 1280]           --
│    └─MaxPool1d: 2-4                    [64, 512, 1278]           --
│    └─Dropout: 2-5                      [64, 512, 1278]           --
│    └─Flatten: 2-6                      [64, 654336]              --
│    └─Linear: 2-7                       [64, 1]                   654,337
==========================================================================================
Total params: 657,409
Trainable params: 657,409
Non-trainable params: 0
Total mult-adds (M): 209.72
==========================================================================================
Input size (MB): 0.33
Forward/backward pass size (MB): 671.09
Params size (MB): 2.63
Estimated Total Size (MB): 674.05
…
Time taken:  727.3839356899261
{'time_elapsed': [727.3839356899261], 'epoch': [259], 'fold': [0], 'f1_train': [0.8683845856909106], 'auroc_train': [0.9417175092743048], 'auprc_train': [0.9729560298034637], 'f1_test': [0.7617596949267598], 'auroc_test': [0.8159057437407953], 'auprc_test': [0.920107527365121]}
==========================================================================================
Layer (type:depth-idx)                   Output Shape              Param #
==========================================================================================
TAPPredictor                             [64, 1]                   --
├─Sequential: 1-1                        [64, 1]                   --
│    └─Conv1d: 2-1                       [64, 512, 427]            2,048
│    └─BatchNorm1d: 2-2                  [64, 512, 427]            1,024
│    └─Tanh: 2-3                         [64, 512, 427]            --
│    └─MaxPool1d: 2-4                    [64, 512, 142]            --
│    └─Dropout: 2-5                      [64, 512, 142]            --
│    └─Flatten: 2-6                      [64, 72704]               --
│    └─Linear: 2-7                       [64, 1]                   72,705
==========================================================================================
Total params: 75,777
Trainable params: 75,777
Non-trainable params: 0
Total mult-adds (M): 60.69
==========================================================================================
Input size (MB): 0.33
Forward/backward pass size (MB): 223.87
Params size (MB): 0.30
Estimated Total Size (MB): 224.50
==========================================================================================
…
