…
Time taken:  463.14169788360596
{'time_elapsed': [463.14169788360596], 'epoch': [68], 'fold': [0], 'f1_train': [0.915805062452503], 'auroc_train': [0.9801790477358433], 'auprc_train': [0.9906854862735879], 'f1_test': [0.7500864926036699], 'auroc_test': [0.8259695630829652], 'auprc_test': [0.9236823858759472]}
==========================================================================================
Layer (type:depth-idx)                   Output Shape              Param #
==========================================================================================
TAPPredictor                             [32, 1]                   --
├─Sequential: 1-1                        [32, 1]                   --
│    └─Conv1d: 2-1                       [32, 256, 1278]           1,536
│    └─BatchNorm1d: 2-2                  [32, 256, 1278]           512
│    └─Tanh: 2-3                         [32, 256, 1278]           --
│    └─MaxPool1d: 2-4                    [32, 256, 1274]           --
│    └─Dropout: 2-5                      [32, 256, 1274]           --
│    └─Flatten: 2-6                      [32, 326144]              --
│    └─Linear: 2-7                       [32, 1]                   326,145
==========================================================================================
Total params: 328,193
Trainable params: 328,193
Non-trainable params: 0
Total mult-adds (M): 73.27
==========================================================================================
Input size (MB): 0.16
Forward/backward pass size (MB): 167.51
Params size (MB): 1.31
Estimated Total Size (MB): 168.99
…
Time taken:  366.44503831863403
{'time_elapsed': [366.44503831863403], 'epoch': [486], 'fold': [0], 'f1_train': [0.8829232528436363], 'auroc_train': [0.9651102185976638], 'auprc_train': [0.9837846491063241], 'f1_test': [0.7560320485424044], 'auroc_test': [0.8188512518409425], 'auprc_test': [0.9220061238506626]}
==========================================================================================
Layer (type:depth-idx)                   Output Shape              Param #
==========================================================================================
TAPPredictor                             [32, 1]                   --
├─Sequential: 1-1                        [32, 1]                   --
│    └─Conv1d: 2-1                       [32, 256, 256]            1,536
│    └─BatchNorm1d: 2-2                  [32, 256, 256]            512
│    └─Tanh: 2-3                         [32, 256, 256]            --
│    └─MaxPool1d: 2-4                    [32, 256, 51]             --
│    └─Dropout: 2-5                      [32, 256, 51]             --
│    └─Flatten: 2-6                      [32, 13056]               --
│    └─Linear: 2-7                       [32, 1]                   13,057
==========================================================================================
Total params: 15,105
Trainable params: 15,105
Non-trainable params: 0
Total mult-adds (M): 13.02
==========================================================================================
Input size (MB): 0.16
Forward/backward pass size (MB): 33.55
Params size (MB): 0.06
Estimated Total Size (MB): 33.78
==========================================================================================
…
