…
Time taken:  871.4234187602997
{'time_elapsed': [871.4234187602997], 'epoch': [59], 'fold': [0], 'f1_train': [0.9768097478242408], 'auroc_train': [0.9996627525523499], 'auprc_train': [0.9998520153819148], 'f1_test': [0.7765831291011147], 'auroc_test': [0.821060382916053], 'auprc_test': [0.9218918800895921]}
==========================================================================================
Layer (type:depth-idx)                   Output Shape              Param #
==========================================================================================
TAPPredictor                             [64, 1]                   --
├─Sequential: 1-1                        [64, 1]                   --
│    └─Conv1d: 2-1                       [64, 512, 1276]           4,096
│    └─BatchNorm1d: 2-2                  [64, 512, 1276]           1,024
│    └─Tanh: 2-3                         [64, 512, 1276]           --
│    └─MaxPool1d: 2-4                    [64, 512, 1270]           --
│    └─Dropout: 2-5                      [64, 512, 1270]           --
│    └─Flatten: 2-6                      [64, 650240]              --
│    └─Linear: 2-7                       [64, 1]                   650,241
==========================================================================================
Total params: 655,361
Trainable params: 655,361
Non-trainable params: 0
Total mult-adds (M): 376.18
==========================================================================================
Input size (MB): 0.33
Forward/backward pass size (MB): 668.99
Params size (MB): 2.62
Estimated Total Size (MB): 671.94
…
Time taken:  82.800945520401
{'time_elapsed': [82.800945520401], 'epoch': [85], 'fold': [0], 'f1_train': [0.9928046304516892], 'auroc_train': [0.9998467057056137], 'auprc_train': [0.9999326545600539], 'f1_test': [0.7748426784519089], 'auroc_test': [0.8190967108492881], 'auprc_test': [0.921653687148599]}
==========================================================================================
Layer (type:depth-idx)                   Output Shape              Param #
==========================================================================================
TAPPredictor                             [64, 1]                   --
├─Sequential: 1-1                        [64, 1]                   --
│    └─Conv1d: 2-1                       [64, 512, 183]            4,096
│    └─BatchNorm1d: 2-2                  [64, 512, 183]            1,024
│    └─Tanh: 2-3                         [64, 512, 183]            --
│    └─MaxPool1d: 2-4                    [64, 512, 26]             --
│    └─Dropout: 2-5                      [64, 512, 26]             --
│    └─Flatten: 2-6                      [64, 13312]               --
│    └─Linear: 2-7                       [64, 1]                   13,313
==========================================================================================
Total params: 18,433
Trainable params: 18,433
Non-trainable params: 0
Total mult-adds (M): 48.89
==========================================================================================
Input size (MB): 0.33
Forward/backward pass size (MB): 95.95
Params size (MB): 0.07
Estimated Total Size (MB): 96.35
==========================================================================================
…
