…
Time taken:  238.91477465629578
{'time_elapsed': [238.91477465629578], 'epoch': [70], 'fold': [0], 'f1_train': [0.9025362491590778], 'auroc_train': [0.9581813164914001], 'auprc_train': [0.9813035402911959], 'f1_test': [0.7661184054361647], 'auroc_test': [0.8100147275405009], 'auprc_test': [0.9140211865891235]}
==========================================================================================
Layer (type:depth-idx)                   Output Shape              Param #
==========================================================================================
TAPPredictor                             [32, 1]                   --
├─Sequential: 1-1                        [32, 1]                   --
│    └─Conv1d: 2-1                       [32, 128, 1276]           1,024
│    └─BatchNorm1d: 2-2                  [32, 128, 1276]           256
│    └─Tanh: 2-3                         [32, 128, 1276]           --
│    └─MaxPool1d: 2-4                    [32, 128, 1270]           --
│    └─Dropout: 2-5                      [32, 128, 1270]           --
│    └─Flatten: 2-6                      [32, 162560]              --
│    └─Linear: 2-7                       [32, 1]                   162,561
==========================================================================================
Total params: 163,841
Trainable params: 163,841
Non-trainable params: 0
Total mult-adds (M): 47.02
==========================================================================================
Input size (MB): 0.16
Forward/backward pass size (MB): 83.62
Params size (MB): 0.66
Estimated Total Size (MB): 84.44
==========================================================================================
…
epoch:  499 val_f1:  0.7084342413709481 val_auroc:  0.7660775650466373 val_auprc:  0.8814533120710298
EarlyStopping counter: 6 out of 50
epoch:  499
[Epoch 500, Batch 10] loss: 0.269
epoch:  500 val_f1:  0.7090514753972222 val_auroc:  0.7670594010800196 val_auprc:  0.8816763204284566
EarlyStopping counter: 7 out of 50
==========================================================================================
Layer (type:depth-idx)                   Output Shape              Param #
==========================================================================================
TAPPredictor                             [32, 1]                   --
├─Sequential: 1-1                        [32, 1]                   --
│    └─Conv1d: 2-1                       [32, 128, 183]            1,024
│    └─BatchNorm1d: 2-2                  [32, 128, 183]            256
│    └─Tanh: 2-3                         [32, 128, 183]            --
│    └─MaxPool1d: 2-4                    [32, 128, 26]             --
│    └─Dropout: 2-5                      [32, 128, 26]             --
│    └─Flatten: 2-6                      [32, 3328]                --
│    └─Linear: 2-7                       [32, 1]                   3,329
==========================================================================================
Total params: 4,609
Trainable params: 4,609
Non-trainable params: 0
Total mult-adds (M): 6.11
==========================================================================================
Input size (MB): 0.16
Forward/backward pass size (MB): 11.99
Params size (MB): 0.02
Estimated Total Size (MB): 12.18
==========================================================================================
…
