…
Early stopping triggered
Early stopping triggered!
Time taken:  767.0807011127472
{'time_elapsed': [767.0807011127472], 'epoch': [60], 'fold': [0], 'f1_train': [1.0], 'auroc_train': [1.0], 'auprc_train': [1.0], 'f1_test': [0.7777125328082551], 'auroc_test': [0.8296514482081492], 'auprc_test': [0.9240821480625883]}
==========================================================================================
Layer (type:depth-idx)                   Output Shape              Param #
==========================================================================================
TAPPredictor                             [32, 1]                   --
├─Sequential: 1-1                        [32, 1]                   --
│    └─Conv1d: 2-1                       [32, 512, 1280]           2,048
│    └─BatchNorm1d: 2-2                  [32, 512, 1280]           1,024
│    └─Tanh: 2-3                         [32, 512, 1280]           --
│    └─MaxPool1d: 2-4                    [32, 512, 1278]           --
│    └─Dropout: 2-5                      [32, 512, 1278]           --
│    └─Flatten: 2-6                      [32, 654336]              --
│    └─Linear: 2-7                       [32, 1]                   654,337
==========================================================================================
Total params: 657,409
Trainable params: 657,409
Non-trainable params: 0
Total mult-adds (M): 104.86
==========================================================================================
Input size (MB): 0.16
Forward/backward pass size (MB): 335.54
Params size (MB): 2.63
Estimated Total Size (MB): 338.34
…
Early stopping triggered
Early stopping triggered!
Time taken:  149.90898847579956
{'time_elapsed': [149.90898847579956], 'epoch': [51], 'fold': [0], 'f1_train': [1.0], 'auroc_train': [1.0], 'auprc_train': [1.0], 'f1_test': [0.7712620601193464], 'auroc_test': [0.8095238095238096], 'auprc_test': [0.9124923095592864]}
==========================================================================================
Layer (type:depth-idx)                   Output Shape              Param #
==========================================================================================
TAPPredictor                             [32, 1]                   --
├─Sequential: 1-1                        [32, 1]                   --
│    └─Conv1d: 2-1                       [32, 512, 427]            2,048
│    └─BatchNorm1d: 2-2                  [32, 512, 427]            1,024
│    └─Tanh: 2-3                         [32, 512, 427]            --
│    └─MaxPool1d: 2-4                    [32, 512, 142]            --
│    └─Dropout: 2-5                      [32, 512, 142]            --
│    └─Flatten: 2-6                      [32, 72704]               --
│    └─Linear: 2-7                       [32, 1]                   72,705
==========================================================================================
Total params: 75,777
Trainable params: 75,777
Non-trainable params: 0
Total mult-adds (M): 30.34
==========================================================================================
Input size (MB): 0.16
Forward/backward pass size (MB): 111.94
Params size (MB): 0.30
Estimated Total Size (MB): 112.40
==========================================================================================
…
