…
Time taken:  1039.916687488556
{'time_elapsed': [1039.916687488556], 'epoch': [71], 'fold': [0], 'f1_train': [0.9209557678297388], 'auroc_train': [0.982003249839041], 'auprc_train': [0.991569383207528], 'f1_test': [0.748656020238754], 'auroc_test': [0.8208149239077074], 'auprc_test': [0.9208327788518241]}
==========================================================================================
Layer (type:depth-idx)                   Output Shape              Param #
==========================================================================================
TAPPredictor                             [32, 1]                   --
├─Sequential: 1-1                        [32, 1]                   --
│    └─Conv1d: 2-1                       [32, 512, 1278]           3,072
│    └─BatchNorm1d: 2-2                  [32, 512, 1278]           1,024
│    └─Tanh: 2-3                         [32, 512, 1278]           --
│    └─MaxPool1d: 2-4                    [32, 512, 1274]           --
│    └─Dropout: 2-5                      [32, 512, 1274]           --
│    └─Flatten: 2-6                      [32, 652288]              --
│    └─Linear: 2-7                       [32, 1]                   652,289
==========================================================================================
Total params: 656,385
Trainable params: 656,385
Non-trainable params: 0
Total mult-adds (M): 146.54
==========================================================================================
Input size (MB): 0.16
Forward/backward pass size (MB): 335.02
Params size (MB): 2.63
Estimated Total Size (MB): 337.81
…
Time taken:  577.0102932453156
{'time_elapsed': [577.0102932453156], 'epoch': [331], 'fold': [0], 'f1_train': [0.8811295002916216], 'auroc_train': [0.960465401477757], 'auprc_train': [0.982007072624118], 'f1_test': [0.7295632867761842], 'auroc_test': [0.8159057437407953], 'auprc_test': [0.9161190488727502]}
==========================================================================================
Layer (type:depth-idx)                   Output Shape              Param #
==========================================================================================
TAPPredictor                             [32, 1]                   --
├─Sequential: 1-1                        [32, 1]                   --
│    └─Conv1d: 2-1                       [32, 512, 256]            3,072
│    └─BatchNorm1d: 2-2                  [32, 512, 256]            1,024
│    └─Tanh: 2-3                         [32, 512, 256]            --
│    └─MaxPool1d: 2-4                    [32, 512, 51]             --
│    └─Dropout: 2-5                      [32, 512, 51]             --
│    └─Flatten: 2-6                      [32, 26112]               --
│    └─Linear: 2-7                       [32, 1]                   26,113
==========================================================================================
Total params: 30,209
Trainable params: 30,209
Non-trainable params: 0
Total mult-adds (M): 26.03
==========================================================================================
Input size (MB): 0.16
Forward/backward pass size (MB): 67.11
Params size (MB): 0.12
Estimated Total Size (MB): 67.39
==========================================================================================
…
