…
Early stopping triggered
Early stopping triggered!
Time taken:  476.2428698539734
{'time_elapsed': [476.2428698539734], 'epoch': [64], 'fold': [0], 'f1_train': [1.0], 'auroc_train': [1.0], 'auprc_train': [1.0], 'f1_test': [0.7745465218349855], 'auroc_test': [0.8242513500245459], 'auprc_test': [0.9228215014748765]}
==========================================================================================
Layer (type:depth-idx)                   Output Shape              Param #
==========================================================================================
TAPPredictor                             [32, 1]                   --
├─Sequential: 1-1                        [32, 1]                   --
│    └─Conv1d: 2-1                       [32, 256, 1278]           1,536
│    └─BatchNorm1d: 2-2                  [32, 256, 1278]           512
│    └─Tanh: 2-3                         [32, 256, 1278]           --
│    └─MaxPool1d: 2-4                    [32, 256, 1274]           --
│    └─Dropout: 2-5                      [32, 256, 1274]           --
│    └─Flatten: 2-6                      [32, 326144]              --
│    └─Linear: 2-7                       [32, 1]                   326,145
==========================================================================================
Total params: 328,193
Trainable params: 328,193
Non-trainable params: 0
Total mult-adds (M): 73.27
==========================================================================================
Input size (MB): 0.16
Forward/backward pass size (MB): 167.51
Params size (MB): 1.31
Estimated Total Size (MB): 168.99
…
Early stopping triggered
Early stopping triggered!
Time taken:  55.04314970970154
{'time_elapsed': [55.04314970970154], 'epoch': [67], 'fold': [0], 'f1_train': [1.0], 'auroc_train': [1.0], 'auprc_train': [1.0], 'f1_test': [0.7672775806504117], 'auroc_test': [0.8134511536573392], 'auprc_test': [0.9202374684471821]}
==========================================================================================
Layer (type:depth-idx)                   Output Shape              Param #
==========================================================================================
TAPPredictor                             [32, 1]                   --
├─Sequential: 1-1                        [32, 1]                   --
│    └─Conv1d: 2-1                       [32, 256, 256]            1,536
│    └─BatchNorm1d: 2-2                  [32, 256, 256]            512
│    └─Tanh: 2-3                         [32, 256, 256]            --
│    └─MaxPool1d: 2-4                    [32, 256, 51]             --
│    └─Dropout: 2-5                      [32, 256, 51]             --
│    └─Flatten: 2-6                      [32, 13056]               --
│    └─Linear: 2-7                       [32, 1]                   13,057
==========================================================================================
Total params: 15,105
Trainable params: 15,105
Non-trainable params: 0
Total mult-adds (M): 13.02
==========================================================================================
Input size (MB): 0.16
Forward/backward pass size (MB): 33.55
Params size (MB): 0.06
Estimated Total Size (MB): 33.78
==========================================================================================
…
