…
Time taken:  1876.4542882442474
{'time_elapsed': [1876.4542882442474], 'epoch': [66], 'fold': [0], 'f1_train': [0.9256188619854528], 'auroc_train': [0.9817886378269002], 'auprc_train': [0.9913576048091588], 'f1_test': [0.7802930475309426], 'auroc_test': [0.826705940108002], 'auprc_test': [0.9234544219449259]}
==========================================================================================
Layer (type:depth-idx)                   Output Shape              Param #
==========================================================================================
TAPPredictor                             [32, 1]                   --
├─Sequential: 1-1                        [32, 1]                   --
│    └─Conv1d: 2-1                       [32, 1024, 1278]          6,144
│    └─BatchNorm1d: 2-2                  [32, 1024, 1278]          2,048
│    └─Tanh: 2-3                         [32, 1024, 1278]          --
│    └─MaxPool1d: 2-4                    [32, 1024, 1274]          --
│    └─Dropout: 2-5                      [32, 1024, 1274]          --
│    └─Flatten: 2-6                      [32, 1304576]             --
│    └─Linear: 2-7                       [32, 1]                   1,304,577
==========================================================================================
Total params: 1,312,769
Trainable params: 1,312,769
Non-trainable params: 0
Total mult-adds (M): 293.08
==========================================================================================
Input size (MB): 0.16
Forward/backward pass size (MB): 670.04
Params size (MB): 5.25
Estimated Total Size (MB): 675.46
…
Time taken:  676.5415134429932
{'time_elapsed': [676.5415134429932], 'epoch': [221], 'fold': [0], 'f1_train': [0.8861384612154076], 'auroc_train': [0.9577061041788025], 'auprc_train': [0.9807373547174943], 'f1_test': [0.7560320485424044], 'auroc_test': [0.8161512027491409], 'auprc_test': [0.9182305680913329]}
==========================================================================================
Layer (type:depth-idx)                   Output Shape              Param #
==========================================================================================
TAPPredictor                             [32, 1]                   --
├─Sequential: 1-1                        [32, 1]                   --
│    └─Conv1d: 2-1                       [32, 1024, 256]           6,144
│    └─BatchNorm1d: 2-2                  [32, 1024, 256]           2,048
│    └─Tanh: 2-3                         [32, 1024, 256]           --
│    └─MaxPool1d: 2-4                    [32, 1024, 51]            --
│    └─Dropout: 2-5                      [32, 1024, 51]            --
│    └─Flatten: 2-6                      [32, 52224]               --
│    └─Linear: 2-7                       [32, 1]                   52,225
==========================================================================================
Total params: 60,417
Trainable params: 60,417
Non-trainable params: 0
Total mult-adds (M): 52.07
==========================================================================================
Input size (MB): 0.16
Forward/backward pass size (MB): 134.22
Params size (MB): 0.24
Estimated Total Size (MB): 134.62
==========================================================================================
…
