…
Time taken:  198.33660912513733
{'time_elapsed': [198.33660912513733], 'epoch': [63], 'fold': [0], 'f1_train': [0.9271599497988063], 'auroc_train': [0.9775577153018364], 'auprc_train': [0.9896788129988829], 'f1_test': [0.7542604103291037], 'auroc_test': [0.8276877761413843], 'auprc_test': [0.9247606815936195]}
==========================================================================================
Layer (type:depth-idx)                   Output Shape              Param #
==========================================================================================
TAPPredictor                             [32, 1]                   --
├─Sequential: 1-1                        [32, 1]                   --
│    └─Conv1d: 2-1                       [32, 128, 1280]           512
│    └─BatchNorm1d: 2-2                  [32, 128, 1280]           256
│    └─Tanh: 2-3                         [32, 128, 1280]           --
│    └─MaxPool1d: 2-4                    [32, 128, 1278]           --
│    └─Dropout: 2-5                      [32, 128, 1278]           --
│    └─Flatten: 2-6                      [32, 163584]              --
│    └─Linear: 2-7                       [32, 1]                   163,585
==========================================================================================
Total params: 164,353
Trainable params: 164,353
Non-trainable params: 0
Total mult-adds (M): 26.21
==========================================================================================
Input size (MB): 0.16
Forward/backward pass size (MB): 83.89
Params size (MB): 0.66
Estimated Total Size (MB): 84.71
==========================================================================================
…
Time taken:  166.48750042915344
{'time_elapsed': [166.48750042915344], 'epoch': [258], 'fold': [0], 'f1_train': [0.8705369326043186], 'auroc_train': [0.954732194867707], 'auprc_train': [0.9785497694662442], 'f1_test': [0.7494347379239465], 'auroc_test': [0.8092783505154638], 'auprc_test': [0.916487994406919]}
==========================================================================================
Layer (type:depth-idx)                   Output Shape              Param #
==========================================================================================
TAPPredictor                             [32, 1]                   --
├─Sequential: 1-1                        [32, 1]                   --
│    └─Conv1d: 2-1                       [32, 128, 427]            512
│    └─BatchNorm1d: 2-2                  [32, 128, 427]            256
│    └─Tanh: 2-3                         [32, 128, 427]            --
│    └─MaxPool1d: 2-4                    [32, 128, 142]            --
│    └─Dropout: 2-5                      [32, 128, 142]            --
│    └─Flatten: 2-6                      [32, 18176]               --
│    └─Linear: 2-7                       [32, 1]                   18,177
==========================================================================================
Total params: 18,945
Trainable params: 18,945
Non-trainable params: 0
Total mult-adds (M): 7.59
==========================================================================================
Input size (MB): 0.16
Forward/backward pass size (MB): 27.98
Params size (MB): 0.08
Estimated Total Size (MB): 28.22
==========================================================================================
…
