…
Time taken:  801.2457258701324
{'time_elapsed': [801.2457258701324], 'epoch': [103], 'fold': [0], 'f1_train': [0.8826350292528047], 'auroc_train': [0.9488610233927093], 'auprc_train': [0.9769625875072725], 'f1_test': [0.7626195746699344], 'auroc_test': [0.8095238095238095], 'auprc_test': [0.9155793463844086]}
==========================================================================================
Layer (type:depth-idx)                   Output Shape              Param #
==========================================================================================
TAPPredictor                             [64, 1]                   --
├─Sequential: 1-1                        [64, 1]                   --
│    └─Conv1d: 2-1                       [64, 256, 1276]           2,048
│    └─BatchNorm1d: 2-2                  [64, 256, 1276]           512
│    └─Tanh: 2-3                         [64, 256, 1276]           --
│    └─MaxPool1d: 2-4                    [64, 256, 1270]           --
│    └─Dropout: 2-5                      [64, 256, 1270]           --
│    └─Flatten: 2-6                      [64, 325120]              --
│    └─Linear: 2-7                       [64, 1]                   325,121
==========================================================================================
Total params: 327,681
Trainable params: 327,681
Non-trainable params: 0
Total mult-adds (M): 188.09
==========================================================================================
Input size (MB): 0.33
Forward/backward pass size (MB): 334.50
Params size (MB): 1.31
Estimated Total Size (MB): 336.13
…
Validation loss improved to 1.108560
epoch:  498
epoch:  499 val_f1:  0.7166299330477814 val_auroc:  0.781786941580756 val_auprc:  0.8951805871589236
EarlyStopping counter: 1 out of 50
epoch:  499
epoch:  500 val_f1:  0.7229061670449737 val_auroc:  0.7822778595974472 val_auprc:  0.8954872903429896
EarlyStopping counter: 2 out of 50
==========================================================================================
Layer (type:depth-idx)                   Output Shape              Param #
==========================================================================================
TAPPredictor                             [64, 1]                   --
├─Sequential: 1-1                        [64, 1]                   --
│    └─Conv1d: 2-1                       [64, 256, 183]            2,048
│    └─BatchNorm1d: 2-2                  [64, 256, 183]            512
│    └─Tanh: 2-3                         [64, 256, 183]            --
│    └─MaxPool1d: 2-4                    [64, 256, 26]             --
│    └─Dropout: 2-5                      [64, 256, 26]             --
│    └─Flatten: 2-6                      [64, 6656]                --
│    └─Linear: 2-7                       [64, 1]                   6,657
==========================================================================================
Total params: 9,217
Trainable params: 9,217
Non-trainable params: 0
Total mult-adds (M): 24.44
==========================================================================================
Input size (MB): 0.33
Forward/backward pass size (MB): 47.97
Params size (MB): 0.04
Estimated Total Size (MB): 48.34
==========================================================================================
…
