…
Early stopping triggered
Early stopping triggered!
Time taken:  1978.7965412139893
{'time_elapsed': [1978.7965412139893], 'epoch': [74], 'fold': [0], 'f1_train': [1.0], 'auroc_train': [1.0], 'auprc_train': [1.0], 'f1_test': [0.7826417810500232], 'auroc_test': [0.8301423662248404], 'auprc_test': [0.9245988619178016]}
==========================================================================================
Layer (type:depth-idx)                   Output Shape              Param #
==========================================================================================
TAPPredictor                             [64, 1]                   --
├─Sequential: 1-1                        [64, 1]                   --
│    └─Conv1d: 2-1                       [64, 1024, 1280]          4,096
│    └─BatchNorm1d: 2-2                  [64, 1024, 1280]          2,048
│    └─Tanh: 2-3                         [64, 1024, 1280]          --
│    └─MaxPool1d: 2-4                    [64, 1024, 1278]          --
│    └─Dropout: 2-5                      [64, 1024, 1278]          --
│    └─Flatten: 2-6                      [64, 1308672]             --
│    └─Linear: 2-7                       [64, 1]                   1,308,673
==========================================================================================
Total params: 1,314,817
Trainable params: 1,314,817
Non-trainable params: 0
Total mult-adds (M): 419.43
==========================================================================================
Input size (MB): 0.33
Forward/backward pass size (MB): 1342.18
Params size (MB): 5.26
Estimated Total Size (MB): 1347.76
…
Time taken:  459.5421814918518
{'time_elapsed': [459.5421814918518], 'epoch': [66], 'fold': [0], 'f1_train': [0.9821226330865213], 'auroc_train': [0.9999540117116841], 'auprc_train': [0.9999798389917878], 'f1_test': [0.7596459003010357], 'auroc_test': [0.8119783996072655], 'auprc_test': [0.9154523008454221]}
==========================================================================================
Layer (type:depth-idx)                   Output Shape              Param #
==========================================================================================
TAPPredictor                             [64, 1]                   --
├─Sequential: 1-1                        [64, 1]                   --
│    └─Conv1d: 2-1                       [64, 1024, 427]           4,096
│    └─BatchNorm1d: 2-2                  [64, 1024, 427]           2,048
│    └─Tanh: 2-3                         [64, 1024, 427]           --
│    └─MaxPool1d: 2-4                    [64, 1024, 142]           --
│    └─Dropout: 2-5                      [64, 1024, 142]           --
│    └─Flatten: 2-6                      [64, 145408]              --
│    └─Linear: 2-7                       [64, 1]                   145,409
==========================================================================================
Total params: 151,553
Trainable params: 151,553
Non-trainable params: 0
Total mult-adds (M): 121.37
==========================================================================================
Input size (MB): 0.33
Forward/backward pass size (MB): 447.74
Params size (MB): 0.61
Estimated Total Size (MB): 448.68
…
