…
Early stopping triggered
Early stopping triggered!
Time taken:  1518.221018075943
{'time_elapsed': [1518.221018075943], 'epoch': [58], 'fold': [0], 'f1_train': [1.0], 'auroc_train': [1.0], 'auprc_train': [1.0], 'f1_test': [0.7920536597238516], 'auroc_test': [0.8387334315169366], 'auprc_test': [0.9283347334106281]}
==========================================================================================
Layer (type:depth-idx)                   Output Shape              Param #
==========================================================================================
TAPPredictor                             [32, 1]                   --
├─Sequential: 1-1                        [32, 1]                   --
│    └─Conv1d: 2-1                       [32, 1024, 1280]          4,096
│    └─BatchNorm1d: 2-2                  [32, 1024, 1280]          2,048
│    └─Tanh: 2-3                         [32, 1024, 1280]          --
│    └─MaxPool1d: 2-4                    [32, 1024, 1278]          --
│    └─Dropout: 2-5                      [32, 1024, 1278]          --
│    └─Flatten: 2-6                      [32, 1308672]             --
│    └─Linear: 2-7                       [32, 1]                   1,308,673
==========================================================================================
Total params: 1,314,817
Trainable params: 1,314,817
Non-trainable params: 0
Total mult-adds (M): 209.72
==========================================================================================
Input size (MB): 0.16
Forward/backward pass size (MB): 671.09
Params size (MB): 5.26
Estimated Total Size (MB): 676.51
…
Early stopping triggered
Early stopping triggered!
Time taken:  328.38315892219543
{'time_elapsed': [328.38315892219543], 'epoch': [53], 'fold': [0], 'f1_train': [1.0], 'auroc_train': [1.0], 'auprc_train': [1.0], 'f1_test': [0.7712620601193464], 'auroc_test': [0.8114874815905744], 'auprc_test': [0.9123362012727124]}
==========================================================================================
Layer (type:depth-idx)                   Output Shape              Param #
==========================================================================================
TAPPredictor                             [32, 1]                   --
├─Sequential: 1-1                        [32, 1]                   --
│    └─Conv1d: 2-1                       [32, 1024, 427]           4,096
│    └─BatchNorm1d: 2-2                  [32, 1024, 427]           2,048
│    └─Tanh: 2-3                         [32, 1024, 427]           --
│    └─MaxPool1d: 2-4                    [32, 1024, 142]           --
│    └─Dropout: 2-5                      [32, 1024, 142]           --
│    └─Flatten: 2-6                      [32, 145408]              --
│    └─Linear: 2-7                       [32, 1]                   145,409
==========================================================================================
Total params: 151,553
Trainable params: 151,553
Non-trainable params: 0
Total mult-adds (M): 60.69
==========================================================================================
Input size (MB): 0.16
Forward/backward pass size (MB): 223.87
Params size (MB): 0.61
Estimated Total Size (MB): 224.64
…
