…
Early stopping triggered
Early stopping triggered!
Time taken:  223.97014474868774
{'time_elapsed': [223.97014474868774], 'epoch': [65], 'fold': [0], 'f1_train': [1.0], 'auroc_train': [1.0], 'auprc_train': [1.0], 'f1_test': [0.7727225509205256], 'auroc_test': [0.8188512518409425], 'auprc_test': [0.9203937464814732]}
==========================================================================================
Layer (type:depth-idx)                   Output Shape              Param #
==========================================================================================
TAPPredictor                             [32, 1]                   --
├─Sequential: 1-1                        [32, 1]                   --
│    └─Conv1d: 2-1                       [32, 128, 1278]           768
│    └─BatchNorm1d: 2-2                  [32, 128, 1278]           256
│    └─Tanh: 2-3                         [32, 128, 1278]           --
│    └─MaxPool1d: 2-4                    [32, 128, 1274]           --
│    └─Dropout: 2-5                      [32, 128, 1274]           --
│    └─Flatten: 2-6                      [32, 163072]              --
│    └─Linear: 2-7                       [32, 1]                   163,073
==========================================================================================
Total params: 164,097
Trainable params: 164,097
Non-trainable params: 0
Total mult-adds (M): 36.63
==========================================================================================
Input size (MB): 0.16
Forward/backward pass size (MB): 83.76
Params size (MB): 0.66
Estimated Total Size (MB): 84.58
==========================================================================================
…
Early stopping triggered
Early stopping triggered!
Time taken:  26.078633546829224
{'time_elapsed': [26.078633546829224], 'epoch': [64], 'fold': [0], 'f1_train': [1.0], 'auroc_train': [1.0], 'auprc_train': [1.0], 'f1_test': [0.7346891520614657], 'auroc_test': [0.7945508100147275], 'auprc_test': [0.9057576194724402]}
==========================================================================================
Layer (type:depth-idx)                   Output Shape              Param #
==========================================================================================
TAPPredictor                             [32, 1]                   --
├─Sequential: 1-1                        [32, 1]                   --
│    └─Conv1d: 2-1                       [32, 128, 256]            768
│    └─BatchNorm1d: 2-2                  [32, 128, 256]            256
│    └─Tanh: 2-3                         [32, 128, 256]            --
│    └─MaxPool1d: 2-4                    [32, 128, 51]             --
│    └─Dropout: 2-5                      [32, 128, 51]             --
│    └─Flatten: 2-6                      [32, 6528]                --
│    └─Linear: 2-7                       [32, 1]                   6,529
==========================================================================================
Total params: 7,553
Trainable params: 7,553
Non-trainable params: 0
Total mult-adds (M): 6.51
==========================================================================================
Input size (MB): 0.16
Forward/backward pass size (MB): 16.78
Params size (MB): 0.03
Estimated Total Size (MB): 16.97
==========================================================================================
…
