…
Early stopping triggered
Early stopping triggered!
Time taken:  444.1720480918884
{'time_elapsed': [444.1720480918884], 'epoch': [57], 'fold': [0], 'f1_train': [1.0], 'auroc_train': [1.0], 'auprc_train': [1.0], 'f1_test': [0.7648187281552264], 'auroc_test': [0.8235149729995092], 'auprc_test': [0.925192514709934]}
==========================================================================================
Layer (type:depth-idx)                   Output Shape              Param #
==========================================================================================
TAPPredictor                             [32, 1]                   --
├─Sequential: 1-1                        [32, 1]                   --
│    └─Conv1d: 2-1                       [32, 256, 1276]           2,048
│    └─BatchNorm1d: 2-2                  [32, 256, 1276]           512
│    └─Tanh: 2-3                         [32, 256, 1276]           --
│    └─MaxPool1d: 2-4                    [32, 256, 1270]           --
│    └─Dropout: 2-5                      [32, 256, 1270]           --
│    └─Flatten: 2-6                      [32, 325120]              --
│    └─Linear: 2-7                       [32, 1]                   325,121
==========================================================================================
Total params: 327,681
Trainable params: 327,681
Non-trainable params: 0
Total mult-adds (M): 94.04
==========================================================================================
Input size (MB): 0.16
Forward/backward pass size (MB): 167.25
Params size (MB): 1.31
Estimated Total Size (MB): 168.72
…
Early stopping triggered
Early stopping triggered!
Time taken:  43.18476462364197
{'time_elapsed': [43.18476462364197], 'epoch': [70], 'fold': [0], 'f1_train': [1.0], 'auroc_train': [1.0], 'auprc_train': [1.0], 'f1_test': [0.7473302173830908], 'auroc_test': [0.8124693176239568], 'auprc_test': [0.9147171515213335]}
==========================================================================================
Layer (type:depth-idx)                   Output Shape              Param #
==========================================================================================
TAPPredictor                             [32, 1]                   --
├─Sequential: 1-1                        [32, 1]                   --
│    └─Conv1d: 2-1                       [32, 256, 183]            2,048
│    └─BatchNorm1d: 2-2                  [32, 256, 183]            512
│    └─Tanh: 2-3                         [32, 256, 183]            --
│    └─MaxPool1d: 2-4                    [32, 256, 26]             --
│    └─Dropout: 2-5                      [32, 256, 26]             --
│    └─Flatten: 2-6                      [32, 6656]                --
│    └─Linear: 2-7                       [32, 1]                   6,657
==========================================================================================
Total params: 9,217
Trainable params: 9,217
Non-trainable params: 0
Total mult-adds (M): 12.22
==========================================================================================
Input size (MB): 0.16
Forward/backward pass size (MB): 23.99
Params size (MB): 0.04
Estimated Total Size (MB): 24.19
==========================================================================================
…
