…
Time taken:  238.37728142738342
{'time_elapsed': [238.37728142738342], 'epoch': [69], 'fold': [0], 'f1_train': [0.8862353800284835], 'auroc_train': [0.9661219609406138], 'auprc_train': [0.9840644826319902], 'f1_test': [0.7644702419882276], 'auroc_test': [0.8195876288659795], 'auprc_test': [0.9223413016548094]}
==========================================================================================
Layer (type:depth-idx)                   Output Shape              Param #
==========================================================================================
TAPPredictor                             [32, 1]                   --
├─Sequential: 1-1                        [32, 1]                   --
│    └─Conv1d: 2-1                       [32, 128, 1278]           768
│    └─BatchNorm1d: 2-2                  [32, 128, 1278]           256
│    └─Tanh: 2-3                         [32, 128, 1278]           --
│    └─MaxPool1d: 2-4                    [32, 128, 1274]           --
│    └─Dropout: 2-5                      [32, 128, 1274]           --
│    └─Flatten: 2-6                      [32, 163072]              --
│    └─Linear: 2-7                       [32, 1]                   163,073
==========================================================================================
Total params: 164,097
Trainable params: 164,097
Non-trainable params: 0
Total mult-adds (M): 36.63
==========================================================================================
Input size (MB): 0.16
Forward/backward pass size (MB): 83.76
Params size (MB): 0.66
Estimated Total Size (MB): 84.58
==========================================================================================
…
epoch:  499 val_f1:  0.7295632867761842 val_auroc:  0.8019145802650957 val_auprc:  0.9100109176964488
EarlyStopping counter: 6 out of 50
epoch:  499
[Epoch 500, Batch 10] loss: 0.224
epoch:  500 val_f1:  0.7295632867761842 val_auroc:  0.8021600392734413 val_auprc:  0.910043596243597
EarlyStopping counter: 7 out of 50
==========================================================================================
Layer (type:depth-idx)                   Output Shape              Param #
==========================================================================================
TAPPredictor                             [32, 1]                   --
├─Sequential: 1-1                        [32, 1]                   --
│    └─Conv1d: 2-1                       [32, 128, 256]            768
│    └─BatchNorm1d: 2-2                  [32, 128, 256]            256
│    └─Tanh: 2-3                         [32, 128, 256]            --
│    └─MaxPool1d: 2-4                    [32, 128, 51]             --
│    └─Dropout: 2-5                      [32, 128, 51]             --
│    └─Flatten: 2-6                      [32, 6528]                --
│    └─Linear: 2-7                       [32, 1]                   6,529
==========================================================================================
Total params: 7,553
Trainable params: 7,553
Non-trainable params: 0
Total mult-adds (M): 6.51
==========================================================================================
Input size (MB): 0.16
Forward/backward pass size (MB): 16.78
Params size (MB): 0.03
Estimated Total Size (MB): 16.97
==========================================================================================
…
