…
Early stopping triggered
Early stopping triggered!
Time taken:  514.6010763645172
{'time_elapsed': [514.6010763645172], 'epoch': [69], 'fold': [0], 'f1_train': [1.0], 'auroc_train': [1.0], 'auprc_train': [1.0], 'f1_test': [0.7920536597238516], 'auroc_test': [0.8306332842415316], 'auprc_test': [0.9282098654507887]}
==========================================================================================
Layer (type:depth-idx)                   Output Shape              Param #
==========================================================================================
TAPPredictor                             [64, 1]                   --
├─Sequential: 1-1                        [64, 1]                   --
│    └─Conv1d: 2-1                       [64, 256, 1276]           2,048
│    └─BatchNorm1d: 2-2                  [64, 256, 1276]           512
│    └─Tanh: 2-3                         [64, 256, 1276]           --
│    └─MaxPool1d: 2-4                    [64, 256, 1270]           --
│    └─Dropout: 2-5                      [64, 256, 1270]           --
│    └─Flatten: 2-6                      [64, 325120]              --
│    └─Linear: 2-7                       [64, 1]                   325,121
==========================================================================================
Total params: 327,681
Trainable params: 327,681
Non-trainable params: 0
Total mult-adds (M): 188.09
==========================================================================================
Input size (MB): 0.33
Forward/backward pass size (MB): 334.50
Params size (MB): 1.31
Estimated Total Size (MB): 336.13
…
Time taken:  45.35478925704956
{'time_elapsed': [45.35478925704956], 'epoch': [79], 'fold': [0], 'f1_train': [0.9856323428691851], 'auroc_train': [0.9992488579575068], 'auprc_train': [0.9996606195802329], 'f1_test': [0.7569659388768054], 'auroc_test': [0.8065783014236623], 'auprc_test': [0.9103155958595295]}
==========================================================================================
Layer (type:depth-idx)                   Output Shape              Param #
==========================================================================================
TAPPredictor                             [64, 1]                   --
├─Sequential: 1-1                        [64, 1]                   --
│    └─Conv1d: 2-1                       [64, 256, 183]            2,048
│    └─BatchNorm1d: 2-2                  [64, 256, 183]            512
│    └─Tanh: 2-3                         [64, 256, 183]            --
│    └─MaxPool1d: 2-4                    [64, 256, 26]             --
│    └─Dropout: 2-5                      [64, 256, 26]             --
│    └─Flatten: 2-6                      [64, 6656]                --
│    └─Linear: 2-7                       [64, 1]                   6,657
==========================================================================================
Total params: 9,217
Trainable params: 9,217
Non-trainable params: 0
Total mult-adds (M): 24.44
==========================================================================================
Input size (MB): 0.33
Forward/backward pass size (MB): 47.97
Params size (MB): 0.04
Estimated Total Size (MB): 48.34
==========================================================================================
…
