…
Time taken:  164.42274141311646
{'time_elapsed': [164.42274141311646], 'epoch': [68], 'fold': [0], 'f1_train': [0.9378194693404444], 'auroc_train': [0.9816966612502682], 'auprc_train': [0.9914248868516815], 'f1_test': [0.7672775806504117], 'auroc_test': [0.8220422189494354], 'auprc_test': [0.9212077113646917]}
==========================================================================================
Layer (type:depth-idx)                   Output Shape              Param #
==========================================================================================
TAPPredictor                             [32, 1]                   --
├─Sequential: 1-1                        [32, 1]                   --
│    └─Conv1d: 2-1                       [32, 128, 1280]           512
│    └─BatchNorm1d: 2-2                  [32, 128, 1280]           256
│    └─Tanh: 2-3                         [32, 128, 1280]           --
│    └─MaxPool1d: 2-4                    [32, 128, 1278]           --
│    └─Dropout: 2-5                      [32, 128, 1278]           --
│    └─Flatten: 2-6                      [32, 163584]              --
│    └─Linear: 2-7                       [32, 1]                   163,585
==========================================================================================
Total params: 164,353
Trainable params: 164,353
Non-trainable params: 0
Total mult-adds (M): 26.21
==========================================================================================
Input size (MB): 0.16
Forward/backward pass size (MB): 83.89
Params size (MB): 0.66
Estimated Total Size (MB): 84.71
==========================================================================================
…
Time taken:  213.5503125190735
{'time_elapsed': [213.5503125190735], 'epoch': [302], 'fold': [0], 'f1_train': [0.8945563628443794], 'auroc_train': [0.9650795597387866], 'auprc_train': [0.9835577357747888], 'f1_test': [0.7367608586927249], 'auroc_test': [0.8235149729995092], 'auprc_test': [0.9247475580962061]}
==========================================================================================
Layer (type:depth-idx)                   Output Shape              Param #
==========================================================================================
TAPPredictor                             [32, 1]                   --
├─Sequential: 1-1                        [32, 1]                   --
│    └─Conv1d: 2-1                       [32, 128, 427]            512
│    └─BatchNorm1d: 2-2                  [32, 128, 427]            256
│    └─Tanh: 2-3                         [32, 128, 427]            --
│    └─MaxPool1d: 2-4                    [32, 128, 142]            --
│    └─Dropout: 2-5                      [32, 128, 142]            --
│    └─Flatten: 2-6                      [32, 18176]               --
│    └─Linear: 2-7                       [32, 1]                   18,177
==========================================================================================
Total params: 18,945
Trainable params: 18,945
Non-trainable params: 0
Total mult-adds (M): 7.59
==========================================================================================
Input size (MB): 0.16
Forward/backward pass size (MB): 27.98
Params size (MB): 0.08
Estimated Total Size (MB): 28.22
==========================================================================================
…
