…
Early stopping triggered
Early stopping triggered!
Time taken:  181.693350315094
{'time_elapsed': [181.693350315094], 'epoch': [59], 'fold': [0], 'f1_train': [1.0], 'auroc_train': [1.0], 'auprc_train': [1.0], 'f1_test': [0.7933255489848959], 'auroc_test': [0.8215513009327442], 'auprc_test': [0.9226106215723024]}
==========================================================================================
Layer (type:depth-idx)                   Output Shape              Param #
==========================================================================================
TAPPredictor                             [32, 1]                   --
├─Sequential: 1-1                        [32, 1]                   --
│    └─Conv1d: 2-1                       [32, 128, 1276]           1,024
│    └─BatchNorm1d: 2-2                  [32, 128, 1276]           256
│    └─Tanh: 2-3                         [32, 128, 1276]           --
│    └─MaxPool1d: 2-4                    [32, 128, 1270]           --
│    └─Dropout: 2-5                      [32, 128, 1270]           --
│    └─Flatten: 2-6                      [32, 162560]              --
│    └─Linear: 2-7                       [32, 1]                   162,561
==========================================================================================
Total params: 163,841
Trainable params: 163,841
Non-trainable params: 0
Total mult-adds (M): 47.02
==========================================================================================
Input size (MB): 0.16
Forward/backward pass size (MB): 83.62
Params size (MB): 0.66
Estimated Total Size (MB): 84.44
==========================================================================================
…
Early stopping triggered!
Time taken:  23.641347885131836
{'time_elapsed': [23.641347885131836], 'epoch': [66], 'fold': [0], 'f1_train': [0.9981996872393208], 'auroc_train': [1.0], 'auprc_train': [1.0], 'f1_test': [0.7283736963917239], 'auroc_test': [0.8163966617574865], 'auprc_test': [0.9203990163108029]}
==========================================================================================
Layer (type:depth-idx)                   Output Shape              Param #
==========================================================================================
TAPPredictor                             [32, 1]                   --
├─Sequential: 1-1                        [32, 1]                   --
│    └─Conv1d: 2-1                       [32, 128, 183]            1,024
│    └─BatchNorm1d: 2-2                  [32, 128, 183]            256
│    └─Tanh: 2-3                         [32, 128, 183]            --
│    └─MaxPool1d: 2-4                    [32, 128, 26]             --
│    └─Dropout: 2-5                      [32, 128, 26]             --
│    └─Flatten: 2-6                      [32, 3328]                --
│    └─Linear: 2-7                       [32, 1]                   3,329
==========================================================================================
Total params: 4,609
Trainable params: 4,609
Non-trainable params: 0
Total mult-adds (M): 6.11
==========================================================================================
Input size (MB): 0.16
Forward/backward pass size (MB): 11.99
Params size (MB): 0.02
Estimated Total Size (MB): 12.18
==========================================================================================
…
