…
Early stopping triggered
Early stopping triggered!
Time taken:  2561.8435502052307
{'time_elapsed': [2561.8435502052307], 'epoch': [88], 'fold': [0], 'f1_train': [1.0], 'auroc_train': [1.0], 'auprc_train': [1.0], 'f1_test': [0.7809570525397864], 'auroc_test': [0.8215513009327442], 'auprc_test': [0.9220953187972649]}
==========================================================================================
Layer (type:depth-idx)                   Output Shape              Param #
==========================================================================================
TAPPredictor                             [64, 1]                   --
├─Sequential: 1-1                        [64, 1]                   --
│    └─Conv1d: 2-1                       [64, 1024, 1278]          6,144
│    └─BatchNorm1d: 2-2                  [64, 1024, 1278]          2,048
│    └─Tanh: 2-3                         [64, 1024, 1278]          --
│    └─MaxPool1d: 2-4                    [64, 1024, 1274]          --
│    └─Dropout: 2-5                      [64, 1024, 1274]          --
│    └─Flatten: 2-6                      [64, 1304576]             --
│    └─Linear: 2-7                       [64, 1]                   1,304,577
==========================================================================================
Total params: 1,312,769
Trainable params: 1,312,769
Non-trainable params: 0
Total mult-adds (M): 586.15
==========================================================================================
Input size (MB): 0.33
Forward/backward pass size (MB): 1340.08
Params size (MB): 5.25
Estimated Total Size (MB): 1345.66
…
Time taken:  230.79394125938416
{'time_elapsed': [230.79394125938416], 'epoch': [73], 'fold': [0], 'f1_train': [0.9383982328642406], 'auroc_train': [0.999831376276175], 'auprc_train': [0.9999262487101681], 'f1_test': [0.7170655771870609], 'auroc_test': [0.8274423171330387], 'auprc_test': [0.9259629964193326]}
==========================================================================================
Layer (type:depth-idx)                   Output Shape              Param #
==========================================================================================
TAPPredictor                             [64, 1]                   --
├─Sequential: 1-1                        [64, 1]                   --
│    └─Conv1d: 2-1                       [64, 1024, 256]           6,144
│    └─BatchNorm1d: 2-2                  [64, 1024, 256]           2,048
│    └─Tanh: 2-3                         [64, 1024, 256]           --
│    └─MaxPool1d: 2-4                    [64, 1024, 51]            --
│    └─Dropout: 2-5                      [64, 1024, 51]            --
│    └─Flatten: 2-6                      [64, 52224]               --
│    └─Linear: 2-7                       [64, 1]                   52,225
==========================================================================================
Total params: 60,417
Trainable params: 60,417
Non-trainable params: 0
Total mult-adds (M): 104.14
==========================================================================================
Input size (MB): 0.33
Forward/backward pass size (MB): 268.44
Params size (MB): 0.24
Estimated Total Size (MB): 269.01
==========================================================================================
…
