…
Early stopping triggered
Early stopping triggered!
Time taken:  398.6361904144287
{'time_elapsed': [398.6361904144287], 'epoch': [57], 'fold': [0], 'f1_train': [1.0], 'auroc_train': [1.0], 'auprc_train': [1.0], 'f1_test': [0.7906450372602754], 'auroc_test': [0.8259695630829652], 'auprc_test': [0.9214774121761978]}
==========================================================================================
Layer (type:depth-idx)                   Output Shape              Param #
==========================================================================================
TAPPredictor                             [32, 1]                   --
├─Sequential: 1-1                        [32, 1]                   --
│    └─Conv1d: 2-1                       [32, 256, 1280]           1,024
│    └─BatchNorm1d: 2-2                  [32, 256, 1280]           512
│    └─Tanh: 2-3                         [32, 256, 1280]           --
│    └─MaxPool1d: 2-4                    [32, 256, 1278]           --
│    └─Dropout: 2-5                      [32, 256, 1278]           --
│    └─Flatten: 2-6                      [32, 327168]              --
│    └─Linear: 2-7                       [32, 1]                   327,169
==========================================================================================
Total params: 328,705
Trainable params: 328,705
Non-trainable params: 0
Total mult-adds (M): 52.43
==========================================================================================
Input size (MB): 0.16
Forward/backward pass size (MB): 167.77
Params size (MB): 1.31
Estimated Total Size (MB): 169.25
…
Early stopping triggered
Early stopping triggered!
Time taken:  75.59314942359924
{'time_elapsed': [75.59314942359924], 'epoch': [55], 'fold': [0], 'f1_train': [1.0], 'auroc_train': [1.0], 'auprc_train': [1.0], 'f1_test': [0.7661184054361647], 'auroc_test': [0.8127147766323024], 'auprc_test': [0.9131269842766248]}
==========================================================================================
Layer (type:depth-idx)                   Output Shape              Param #
==========================================================================================
TAPPredictor                             [32, 1]                   --
├─Sequential: 1-1                        [32, 1]                   --
│    └─Conv1d: 2-1                       [32, 256, 427]            1,024
│    └─BatchNorm1d: 2-2                  [32, 256, 427]            512
│    └─Tanh: 2-3                         [32, 256, 427]            --
│    └─MaxPool1d: 2-4                    [32, 256, 142]            --
│    └─Dropout: 2-5                      [32, 256, 142]            --
│    └─Flatten: 2-6                      [32, 36352]               --
│    └─Linear: 2-7                       [32, 1]                   36,353
==========================================================================================
Total params: 37,889
Trainable params: 37,889
Non-trainable params: 0
Total mult-adds (M): 15.17
==========================================================================================
Input size (MB): 0.16
Forward/backward pass size (MB): 55.97
Params size (MB): 0.15
Estimated Total Size (MB): 56.28
==========================================================================================
…
