…
Early stopping triggered
Early stopping triggered!
Time taken:  1127.7752549648285
{'time_elapsed': [1127.7752549648285], 'epoch': [78], 'fold': [0], 'f1_train': [1.0], 'auroc_train': [1.0], 'auprc_train': [1.0], 'f1_test': [0.7906450372602754], 'auroc_test': [0.8195876288659794], 'auprc_test': [0.918759040356586]}
==========================================================================================
Layer (type:depth-idx)                   Output Shape              Param #
==========================================================================================
TAPPredictor                             [32, 1]                   --
├─Sequential: 1-1                        [32, 1]                   --
│    └─Conv1d: 2-1                       [32, 512, 1278]           3,072
│    └─BatchNorm1d: 2-2                  [32, 512, 1278]           1,024
│    └─Tanh: 2-3                         [32, 512, 1278]           --
│    └─MaxPool1d: 2-4                    [32, 512, 1274]           --
│    └─Dropout: 2-5                      [32, 512, 1274]           --
│    └─Flatten: 2-6                      [32, 652288]              --
│    └─Linear: 2-7                       [32, 1]                   652,289
==========================================================================================
Total params: 656,385
Trainable params: 656,385
Non-trainable params: 0
Total mult-adds (M): 146.54
==========================================================================================
Input size (MB): 0.16
Forward/backward pass size (MB): 335.02
Params size (MB): 2.63
Estimated Total Size (MB): 337.81
…
Early stopping triggered
Early stopping triggered!
Time taken:  101.2636890411377
{'time_elapsed': [101.2636890411377], 'epoch': [63], 'fold': [0], 'f1_train': [1.0], 'auroc_train': [1.0], 'auprc_train': [1.0], 'f1_test': [0.7737843767539161], 'auroc_test': [0.8237604320078546], 'auprc_test': [0.9227051574160898]}
==========================================================================================
Layer (type:depth-idx)                   Output Shape              Param #
==========================================================================================
TAPPredictor                             [32, 1]                   --
├─Sequential: 1-1                        [32, 1]                   --
│    └─Conv1d: 2-1                       [32, 512, 256]            3,072
│    └─BatchNorm1d: 2-2                  [32, 512, 256]            1,024
│    └─Tanh: 2-3                         [32, 512, 256]            --
│    └─MaxPool1d: 2-4                    [32, 512, 51]             --
│    └─Dropout: 2-5                      [32, 512, 51]             --
│    └─Flatten: 2-6                      [32, 26112]               --
│    └─Linear: 2-7                       [32, 1]                   26,113
==========================================================================================
Total params: 30,209
Trainable params: 30,209
Non-trainable params: 0
Total mult-adds (M): 26.03
==========================================================================================
Input size (MB): 0.16
Forward/backward pass size (MB): 67.11
Params size (MB): 0.12
Estimated Total Size (MB): 67.39
==========================================================================================
…
