…
Time taken:  1713.6440494060516
{'time_elapsed': [1713.6440494060516], 'epoch': [61], 'fold': [0], 'f1_train': [0.7854694426726833], 'auroc_train': [0.9181101879388048], 'auprc_train': [0.9617994697388561], 'f1_test': [0.7029258641632973], 'auroc_test': [0.8102601865488464], 'auprc_test': [0.9138625265906035]}
==========================================================================================
Layer (type:depth-idx)                   Output Shape              Param #
==========================================================================================
TAPPredictor                             [64, 1]                   --
├─Sequential: 1-1                        [64, 1]                   --
│    └─Conv1d: 2-1                       [64, 1024, 1280]          4,096
│    └─BatchNorm1d: 2-2                  [64, 1024, 1280]          2,048
│    └─Tanh: 2-3                         [64, 1024, 1280]          --
│    └─MaxPool1d: 2-4                    [64, 1024, 1278]          --
│    └─Dropout: 2-5                      [64, 1024, 1278]          --
│    └─Flatten: 2-6                      [64, 1308672]             --
│    └─Linear: 2-7                       [64, 1]                   1,308,673
==========================================================================================
Total params: 1,314,817
Trainable params: 1,314,817
Non-trainable params: 0
Total mult-adds (M): 419.43
==========================================================================================
Input size (MB): 0.33
Forward/backward pass size (MB): 1342.18
Params size (MB): 5.26
Estimated Total Size (MB): 1347.76
…
Time taken:  1462.3968648910522
{'time_elapsed': [1462.3968648910522], 'epoch': [244], 'fold': [0], 'f1_train': [0.8566561621163671], 'auroc_train': [0.9400466014654935], 'auprc_train': [0.9720983096351282], 'f1_test': [0.7552115339652351], 'auroc_test': [0.8178694158075602], 'auprc_test': [0.9203555045837898]}
==========================================================================================
Layer (type:depth-idx)                   Output Shape              Param #
==========================================================================================
TAPPredictor                             [64, 1]                   --
├─Sequential: 1-1                        [64, 1]                   --
│    └─Conv1d: 2-1                       [64, 1024, 427]           4,096
│    └─BatchNorm1d: 2-2                  [64, 1024, 427]           2,048
│    └─Tanh: 2-3                         [64, 1024, 427]           --
│    └─MaxPool1d: 2-4                    [64, 1024, 142]           --
│    └─Dropout: 2-5                      [64, 1024, 142]           --
│    └─Flatten: 2-6                      [64, 145408]              --
│    └─Linear: 2-7                       [64, 1]                   145,409
==========================================================================================
Total params: 151,553
Trainable params: 151,553
Non-trainable params: 0
Total mult-adds (M): 121.37
==========================================================================================
Input size (MB): 0.33
Forward/backward pass size (MB): 447.74
Params size (MB): 0.61
Estimated Total Size (MB): 448.68
…
