…
Time taken:  1470.203337430954
{'time_elapsed': [1470.203337430954], 'epoch': [52], 'fold': [0], 'f1_train': [0.9155608060978904], 'auroc_train': [0.9805929423306864], 'auprc_train': [0.990812228153879], 'f1_test': [0.7607703458551531], 'auroc_test': [0.8284241531664213], 'auprc_test': [0.9233747816519382]}
==========================================================================================
Layer (type:depth-idx)                   Output Shape              Param #
==========================================================================================
TAPPredictor                             [32, 1]                   --
├─Sequential: 1-1                        [32, 1]                   --
│    └─Conv1d: 2-1                       [32, 1024, 1280]          4,096
│    └─BatchNorm1d: 2-2                  [32, 1024, 1280]          2,048
│    └─Tanh: 2-3                         [32, 1024, 1280]          --
│    └─MaxPool1d: 2-4                    [32, 1024, 1278]          --
│    └─Dropout: 2-5                      [32, 1024, 1278]          --
│    └─Flatten: 2-6                      [32, 1308672]             --
│    └─Linear: 2-7                       [32, 1]                   1,308,673
==========================================================================================
Total params: 1,314,817
Trainable params: 1,314,817
Non-trainable params: 0
Total mult-adds (M): 209.72
==========================================================================================
Input size (MB): 0.16
Forward/backward pass size (MB): 671.09
Params size (MB): 5.26
Estimated Total Size (MB): 676.51
…
Time taken:  865.2323431968689
{'time_elapsed': [865.2323431968689], 'epoch': [139], 'fold': [0], 'f1_train': [0.8929527963619407], 'auroc_train': [0.9660146549345433], 'auprc_train': [0.9841856387545319], 'f1_test': [0.7281499969472504], 'auroc_test': [0.8127147766323023], 'auprc_test': [0.9174777194149795]}
==========================================================================================
Layer (type:depth-idx)                   Output Shape              Param #
==========================================================================================
TAPPredictor                             [32, 1]                   --
├─Sequential: 1-1                        [32, 1]                   --
│    └─Conv1d: 2-1                       [32, 1024, 427]           4,096
│    └─BatchNorm1d: 2-2                  [32, 1024, 427]           2,048
│    └─Tanh: 2-3                         [32, 1024, 427]           --
│    └─MaxPool1d: 2-4                    [32, 1024, 142]           --
│    └─Dropout: 2-5                      [32, 1024, 142]           --
│    └─Flatten: 2-6                      [32, 145408]              --
│    └─Linear: 2-7                       [32, 1]                   145,409
==========================================================================================
Total params: 151,553
Trainable params: 151,553
Non-trainable params: 0
Total mult-adds (M): 60.69
==========================================================================================
Input size (MB): 0.16
Forward/backward pass size (MB): 223.87
Params size (MB): 0.61
Estimated Total Size (MB): 224.64
…
