…
Early stopping triggered
Early stopping triggered!
Time taken:  531.6130352020264
{'time_elapsed': [531.6130352020264], 'epoch': [68], 'fold': [0], 'f1_train': [1.0], 'auroc_train': [1.0], 'auprc_train': [1.0], 'f1_test': [0.7868059619290214], 'auroc_test': [0.8325969563082966], 'auprc_test': [0.9306156009372497]}
==========================================================================================
Layer (type:depth-idx)                   Output Shape              Param #
==========================================================================================
TAPPredictor                             [64, 1]                   --
├─Sequential: 1-1                        [64, 1]                   --
│    └─Conv1d: 2-1                       [64, 256, 1276]           2,048
│    └─BatchNorm1d: 2-2                  [64, 256, 1276]           512
│    └─Tanh: 2-3                         [64, 256, 1276]           --
│    └─MaxPool1d: 2-4                    [64, 256, 1270]           --
│    └─Dropout: 2-5                      [64, 256, 1270]           --
│    └─Flatten: 2-6                      [64, 325120]              --
│    └─Linear: 2-7                       [64, 1]                   325,121
==========================================================================================
Total params: 327,681
Trainable params: 327,681
Non-trainable params: 0
Total mult-adds (M): 188.09
==========================================================================================
Input size (MB): 0.33
Forward/backward pass size (MB): 334.50
Params size (MB): 1.31
Estimated Total Size (MB): 336.13
…
Time taken:  46.135220527648926
{'time_elapsed': [46.135220527648926], 'epoch': [82], 'fold': [0], 'f1_train': [0.9803492824837834], 'auroc_train': [0.9998313762761749], 'auprc_train': [0.9999265056963137], 'f1_test': [0.7617596949267598], 'auroc_test': [0.8195876288659795], 'auprc_test': [0.923031780406967]}
==========================================================================================
Layer (type:depth-idx)                   Output Shape              Param #
==========================================================================================
TAPPredictor                             [64, 1]                   --
├─Sequential: 1-1                        [64, 1]                   --
│    └─Conv1d: 2-1                       [64, 256, 183]            2,048
│    └─BatchNorm1d: 2-2                  [64, 256, 183]            512
│    └─Tanh: 2-3                         [64, 256, 183]            --
│    └─MaxPool1d: 2-4                    [64, 256, 26]             --
│    └─Dropout: 2-5                      [64, 256, 26]             --
│    └─Flatten: 2-6                      [64, 6656]                --
│    └─Linear: 2-7                       [64, 1]                   6,657
==========================================================================================
Total params: 9,217
Trainable params: 9,217
Non-trainable params: 0
Total mult-adds (M): 24.44
==========================================================================================
Input size (MB): 0.33
Forward/backward pass size (MB): 47.97
Params size (MB): 0.04
Estimated Total Size (MB): 48.34
==========================================================================================
…
