…
Time taken:  212.74838590621948
{'time_elapsed': [212.74838590621948], 'epoch': [57], 'fold': [0], 'f1_train': [0.9892411295259068], 'auroc_train': [0.9998926939939295], 'auprc_train': [0.9999537968294148], 'f1_test': [0.7683026725960121], 'auroc_test': [0.8247422680412371], 'auprc_test': [0.9261607980243596]}
==========================================================================================
Layer (type:depth-idx)                   Output Shape              Param #
==========================================================================================
TAPPredictor                             [64, 1]                   --
├─Sequential: 1-1                        [64, 1]                   --
│    └─Conv1d: 2-1                       [64, 128, 1276]           1,024
│    └─BatchNorm1d: 2-2                  [64, 128, 1276]           256
│    └─Tanh: 2-3                         [64, 128, 1276]           --
│    └─MaxPool1d: 2-4                    [64, 128, 1270]           --
│    └─Dropout: 2-5                      [64, 128, 1270]           --
│    └─Flatten: 2-6                      [64, 162560]              --
│    └─Linear: 2-7                       [64, 1]                   162,561
==========================================================================================
Total params: 163,841
Trainable params: 163,841
Non-trainable params: 0
Total mult-adds (M): 94.04
==========================================================================================
Input size (MB): 0.33
Forward/backward pass size (MB): 167.25
Params size (MB): 0.66
Estimated Total Size (MB): 168.23
…
Time taken:  35.65572428703308
{'time_elapsed': [35.65572428703308], 'epoch': [100], 'fold': [0], 'f1_train': [0.9981996872393208], 'auroc_train': [0.9999846705705613], 'auprc_train': [0.9999932970817315], 'f1_test': [0.7569659388768054], 'auroc_test': [0.8001963672066764], 'auprc_test': [0.9156124655700539]}
==========================================================================================
Layer (type:depth-idx)                   Output Shape              Param #
==========================================================================================
TAPPredictor                             [64, 1]                   --
├─Sequential: 1-1                        [64, 1]                   --
│    └─Conv1d: 2-1                       [64, 128, 183]            1,024
│    └─BatchNorm1d: 2-2                  [64, 128, 183]            256
│    └─Tanh: 2-3                         [64, 128, 183]            --
│    └─MaxPool1d: 2-4                    [64, 128, 26]             --
│    └─Dropout: 2-5                      [64, 128, 26]             --
│    └─Flatten: 2-6                      [64, 3328]                --
│    └─Linear: 2-7                       [64, 1]                   3,329
==========================================================================================
Total params: 4,609
Trainable params: 4,609
Non-trainable params: 0
Total mult-adds (M): 12.22
==========================================================================================
Input size (MB): 0.33
Forward/backward pass size (MB): 23.99
Params size (MB): 0.02
Estimated Total Size (MB): 24.33
==========================================================================================
…
