…
Early stopping triggered
Early stopping triggered!
Time taken:  1856.612472295761
{'time_elapsed': [1856.612472295761], 'epoch': [61], 'fold': [0], 'f1_train': [1.0], 'auroc_train': [1.0], 'auprc_train': [1.0], 'f1_test': [0.7648187281552264], 'auroc_test': [0.8173784977908689], 'auprc_test': [0.9202863884987648]}
==========================================================================================
Layer (type:depth-idx)                   Output Shape              Param #
==========================================================================================
TAPPredictor                             [32, 1]                   --
├─Sequential: 1-1                        [32, 1]                   --
│    └─Conv1d: 2-1                       [32, 1024, 1276]          8,192
│    └─BatchNorm1d: 2-2                  [32, 1024, 1276]          2,048
│    └─Tanh: 2-3                         [32, 1024, 1276]          --
│    └─MaxPool1d: 2-4                    [32, 1024, 1270]          --
│    └─Dropout: 2-5                      [32, 1024, 1270]          --
│    └─Flatten: 2-6                      [32, 1300480]             --
│    └─Linear: 2-7                       [32, 1]                   1,300,481
==========================================================================================
Total params: 1,310,721
Trainable params: 1,310,721
Non-trainable params: 0
Total mult-adds (M): 376.18
==========================================================================================
Input size (MB): 0.16
Forward/backward pass size (MB): 668.99
Params size (MB): 5.24
Estimated Total Size (MB): 674.40
…
Early stopping triggered
Early stopping triggered!
Time taken:  132.32330465316772
{'time_elapsed': [132.32330465316772], 'epoch': [61], 'fold': [0], 'f1_train': [1.0], 'auroc_train': [1.0], 'auprc_train': [1.0], 'f1_test': [0.7490302789770621], 'auroc_test': [0.8014236622484046], 'auprc_test': [0.9121270440157871]}
==========================================================================================
Layer (type:depth-idx)                   Output Shape              Param #
==========================================================================================
TAPPredictor                             [32, 1]                   --
├─Sequential: 1-1                        [32, 1]                   --
│    └─Conv1d: 2-1                       [32, 1024, 183]           8,192
│    └─BatchNorm1d: 2-2                  [32, 1024, 183]           2,048
│    └─Tanh: 2-3                         [32, 1024, 183]           --
│    └─MaxPool1d: 2-4                    [32, 1024, 26]            --
│    └─Dropout: 2-5                      [32, 1024, 26]            --
│    └─Flatten: 2-6                      [32, 26624]               --
│    └─Linear: 2-7                       [32, 1]                   26,625
==========================================================================================
Total params: 36,865
Trainable params: 36,865
Non-trainable params: 0
Total mult-adds (M): 48.89
==========================================================================================
Input size (MB): 0.16
Forward/backward pass size (MB): 95.94
Params size (MB): 0.15
Estimated Total Size (MB): 96.26
==========================================================================================
…
