…
Time taken:  746.9708735942841
{'time_elapsed': [746.9708735942841], 'epoch': [56], 'fold': [0], 'f1_train': [0.8970551310836852], 'auroc_train': [0.9805162951834933], 'auprc_train': [0.9908847014819985], 'f1_test': [0.7445203699313053], 'auroc_test': [0.8301423662248405], 'auprc_test': [0.9259494195900874]}
==========================================================================================
Layer (type:depth-idx)                   Output Shape              Param #
==========================================================================================
TAPPredictor                             [32, 1]                   --
├─Sequential: 1-1                        [32, 1]                   --
│    └─Conv1d: 2-1                       [32, 512, 1280]           2,048
│    └─BatchNorm1d: 2-2                  [32, 512, 1280]           1,024
│    └─Tanh: 2-3                         [32, 512, 1280]           --
│    └─MaxPool1d: 2-4                    [32, 512, 1278]           --
│    └─Dropout: 2-5                      [32, 512, 1278]           --
│    └─Flatten: 2-6                      [32, 654336]              --
│    └─Linear: 2-7                       [32, 1]                   654,337
==========================================================================================
Total params: 657,409
Trainable params: 657,409
Non-trainable params: 0
Total mult-adds (M): 104.86
==========================================================================================
Input size (MB): 0.16
Forward/backward pass size (MB): 335.54
Params size (MB): 2.63
Estimated Total Size (MB): 338.34
…
Time taken:  403.7537155151367
{'time_elapsed': [403.7537155151367], 'epoch': [140], 'fold': [0], 'f1_train': [0.8876353324440756], 'auroc_train': [0.958273293068032], 'auprc_train': [0.9804841391975849], 'f1_test': [0.7552115339652351], 'auroc_test': [0.8159057437407953], 'auprc_test': [0.9203742063001248]}
==========================================================================================
Layer (type:depth-idx)                   Output Shape              Param #
==========================================================================================
TAPPredictor                             [32, 1]                   --
├─Sequential: 1-1                        [32, 1]                   --
│    └─Conv1d: 2-1                       [32, 512, 427]            2,048
│    └─BatchNorm1d: 2-2                  [32, 512, 427]            1,024
│    └─Tanh: 2-3                         [32, 512, 427]            --
│    └─MaxPool1d: 2-4                    [32, 512, 142]            --
│    └─Dropout: 2-5                      [32, 512, 142]            --
│    └─Flatten: 2-6                      [32, 72704]               --
│    └─Linear: 2-7                       [32, 1]                   72,705
==========================================================================================
Total params: 75,777
Trainable params: 75,777
Non-trainable params: 0
Total mult-adds (M): 30.34
==========================================================================================
Input size (MB): 0.16
Forward/backward pass size (MB): 111.94
Params size (MB): 0.30
Estimated Total Size (MB): 112.40
==========================================================================================
…
