…
Early stopping triggered
Early stopping triggered!
Time taken:  519.9717004299164
{'time_elapsed': [519.9717004299164], 'epoch': [71], 'fold': [0], 'f1_train': [1.0], 'auroc_train': [1.0], 'auprc_train': [1.0], 'f1_test': [0.7697841726618705], 'auroc_test': [0.8262150220913107], 'auprc_test': [0.9250137268144373]}
==========================================================================================
Layer (type:depth-idx)                   Output Shape              Param #
==========================================================================================
TAPPredictor                             [64, 1]                   --
├─Sequential: 1-1                        [64, 1]                   --
│    └─Conv1d: 2-1                       [64, 256, 1278]           1,536
│    └─BatchNorm1d: 2-2                  [64, 256, 1278]           512
│    └─Tanh: 2-3                         [64, 256, 1278]           --
│    └─MaxPool1d: 2-4                    [64, 256, 1274]           --
│    └─Dropout: 2-5                      [64, 256, 1274]           --
│    └─Flatten: 2-6                      [64, 326144]              --
│    └─Linear: 2-7                       [64, 1]                   326,145
==========================================================================================
Total params: 328,193
Trainable params: 328,193
Non-trainable params: 0
Total mult-adds (M): 146.54
==========================================================================================
Input size (MB): 0.33
Forward/backward pass size (MB): 335.02
Params size (MB): 1.31
Estimated Total Size (MB): 336.66
…
Time taken:  56.550750732421875
{'time_elapsed': [56.550750732421875], 'epoch': [73], 'fold': [0], 'f1_train': [0.9732420167202777], 'auroc_train': [0.9989116105098568], 'auprc_train': [0.9995225480082692], 'f1_test': [0.7633550302615051], 'auroc_test': [0.8237604320078546], 'auprc_test': [0.925092193250517]}
==========================================================================================
Layer (type:depth-idx)                   Output Shape              Param #
==========================================================================================
TAPPredictor                             [64, 1]                   --
├─Sequential: 1-1                        [64, 1]                   --
│    └─Conv1d: 2-1                       [64, 256, 256]            1,536
│    └─BatchNorm1d: 2-2                  [64, 256, 256]            512
│    └─Tanh: 2-3                         [64, 256, 256]            --
│    └─MaxPool1d: 2-4                    [64, 256, 51]             --
│    └─Dropout: 2-5                      [64, 256, 51]             --
│    └─Flatten: 2-6                      [64, 13056]               --
│    └─Linear: 2-7                       [64, 1]                   13,057
==========================================================================================
Total params: 15,105
Trainable params: 15,105
Non-trainable params: 0
Total mult-adds (M): 26.03
==========================================================================================
Input size (MB): 0.33
Forward/backward pass size (MB): 67.11
Params size (MB): 0.06
Estimated Total Size (MB): 67.50
==========================================================================================
…
