…
Time taken:  187.51328825950623
{'time_elapsed': [187.51328825950623], 'epoch': [68], 'fold': [0], 'f1_train': [0.8578007762806035], 'auroc_train': [0.9671183738541251], 'auprc_train': [0.9845787100914611], 'f1_test': [0.7375047745919104], 'auroc_test': [0.8232695139911635], 'auprc_test': [0.923776654148442]}
==========================================================================================
Layer (type:depth-idx)                   Output Shape              Param #
==========================================================================================
TAPPredictor                             [32, 1]                   --
├─Sequential: 1-1                        [32, 1]                   --
│    └─Conv1d: 2-1                       [32, 128, 1278]           768
│    └─BatchNorm1d: 2-2                  [32, 128, 1278]           256
│    └─Tanh: 2-3                         [32, 128, 1278]           --
│    └─MaxPool1d: 2-4                    [32, 128, 1274]           --
│    └─Dropout: 2-5                      [32, 128, 1274]           --
│    └─Flatten: 2-6                      [32, 163072]              --
│    └─Linear: 2-7                       [32, 1]                   163,073
==========================================================================================
Total params: 164,097
Trainable params: 164,097
Non-trainable params: 0
Total mult-adds (M): 36.63
==========================================================================================
Input size (MB): 0.16
Forward/backward pass size (MB): 83.76
Params size (MB): 0.66
Estimated Total Size (MB): 84.58
==========================================================================================
…
epoch:  499 val_f1:  0.743914028278071 val_auroc:  0.8004418262150221 val_auprc:  0.9106654578539344
EarlyStopping counter: 1 out of 50
epoch:  499
[Epoch 500, Batch 10] loss: 0.218
epoch:  500 val_f1:  0.743914028278071 val_auroc:  0.8014236622484046 val_auprc:  0.9112201027014306
EarlyStopping counter: 2 out of 50
==========================================================================================
Layer (type:depth-idx)                   Output Shape              Param #
==========================================================================================
TAPPredictor                             [32, 1]                   --
├─Sequential: 1-1                        [32, 1]                   --
│    └─Conv1d: 2-1                       [32, 128, 256]            768
│    └─BatchNorm1d: 2-2                  [32, 128, 256]            256
│    └─Tanh: 2-3                         [32, 128, 256]            --
│    └─MaxPool1d: 2-4                    [32, 128, 51]             --
│    └─Dropout: 2-5                      [32, 128, 51]             --
│    └─Flatten: 2-6                      [32, 6528]                --
│    └─Linear: 2-7                       [32, 1]                   6,529
==========================================================================================
Total params: 7,553
Trainable params: 7,553
Non-trainable params: 0
Total mult-adds (M): 6.51
==========================================================================================
Input size (MB): 0.16
Forward/backward pass size (MB): 16.78
Params size (MB): 0.03
Estimated Total Size (MB): 16.97
==========================================================================================
…
