…
Time taken:  451.97500491142273
{'time_elapsed': [451.97500491142273], 'epoch': [71], 'fold': [0], 'f1_train': [0.9124518371677462], 'auroc_train': [0.9820798969862342], 'auprc_train': [0.9915943321216911], 'f1_test': [0.7639705763479104], 'auroc_test': [0.8259695630829652], 'auprc_test': [0.9250441881896223]}
==========================================================================================
Layer (type:depth-idx)                   Output Shape              Param #
==========================================================================================
TAPPredictor                             [32, 1]                   --
├─Sequential: 1-1                        [32, 1]                   --
│    └─Conv1d: 2-1                       [32, 256, 1280]           1,024
│    └─BatchNorm1d: 2-2                  [32, 256, 1280]           512
│    └─Tanh: 2-3                         [32, 256, 1280]           --
│    └─MaxPool1d: 2-4                    [32, 256, 1278]           --
│    └─Dropout: 2-5                      [32, 256, 1278]           --
│    └─Flatten: 2-6                      [32, 327168]              --
│    └─Linear: 2-7                       [32, 1]                   327,169
==========================================================================================
Total params: 328,705
Trainable params: 328,705
Non-trainable params: 0
Total mult-adds (M): 52.43
==========================================================================================
Input size (MB): 0.16
Forward/backward pass size (MB): 167.77
Params size (MB): 1.31
Estimated Total Size (MB): 169.25
…
Time taken:  224.3238959312439
{'time_elapsed': [224.3238959312439], 'epoch': [205], 'fold': [0], 'f1_train': [0.8894430519803649], 'auroc_train': [0.962274274151516], 'auprc_train': [0.9818619071513135], 'f1_test': [0.748656020238754], 'auroc_test': [0.8151693667157585], 'auprc_test': [0.920197888260607]}
==========================================================================================
Layer (type:depth-idx)                   Output Shape              Param #
==========================================================================================
TAPPredictor                             [32, 1]                   --
├─Sequential: 1-1                        [32, 1]                   --
│    └─Conv1d: 2-1                       [32, 256, 427]            1,024
│    └─BatchNorm1d: 2-2                  [32, 256, 427]            512
│    └─Tanh: 2-3                         [32, 256, 427]            --
│    └─MaxPool1d: 2-4                    [32, 256, 142]            --
│    └─Dropout: 2-5                      [32, 256, 142]            --
│    └─Flatten: 2-6                      [32, 36352]               --
│    └─Linear: 2-7                       [32, 1]                   36,353
==========================================================================================
Total params: 37,889
Trainable params: 37,889
Non-trainable params: 0
Total mult-adds (M): 15.17
==========================================================================================
Input size (MB): 0.16
Forward/backward pass size (MB): 55.97
Params size (MB): 0.15
Estimated Total Size (MB): 56.28
==========================================================================================
…
