…
Early stopping triggered
Early stopping triggered!
Time taken:  1788.8283014297485
{'time_elapsed': [1788.8283014297485], 'epoch': [124], 'fold': [0], 'f1_train': [1.0], 'auroc_train': [1.0], 'auprc_train': [1.0], 'f1_test': [0.7985611510791367], 'auroc_test': [0.8271968581246932], 'auprc_test': [0.9251256305368871]}
==========================================================================================
Layer (type:depth-idx)                   Output Shape              Param #
==========================================================================================
TAPPredictor                             [64, 1]                   --
├─Sequential: 1-1                        [64, 1]                   --
│    └─Conv1d: 2-1                       [64, 512, 1278]           3,072
│    └─BatchNorm1d: 2-2                  [64, 512, 1278]           1,024
│    └─Tanh: 2-3                         [64, 512, 1278]           --
│    └─MaxPool1d: 2-4                    [64, 512, 1274]           --
│    └─Dropout: 2-5                      [64, 512, 1274]           --
│    └─Flatten: 2-6                      [64, 652288]              --
│    └─Linear: 2-7                       [64, 1]                   652,289
==========================================================================================
Total params: 656,385
Trainable params: 656,385
Non-trainable params: 0
Total mult-adds (M): 293.08
==========================================================================================
Input size (MB): 0.33
Forward/backward pass size (MB): 670.04
Params size (MB): 2.63
Estimated Total Size (MB): 672.99
…
Time taken:  123.31210541725159
{'time_elapsed': [123.31210541725159], 'epoch': [72], 'fold': [0], 'f1_train': [0.9856767580763587], 'auroc_train': [0.999831376276175], 'auprc_train': [0.9999260205662799], 'f1_test': [0.7813819697019021], 'auroc_test': [0.8281786941580757], 'auprc_test': [0.9238029918399588]}
==========================================================================================
Layer (type:depth-idx)                   Output Shape              Param #
==========================================================================================
TAPPredictor                             [64, 1]                   --
├─Sequential: 1-1                        [64, 1]                   --
│    └─Conv1d: 2-1                       [64, 512, 256]            3,072
│    └─BatchNorm1d: 2-2                  [64, 512, 256]            1,024
│    └─Tanh: 2-3                         [64, 512, 256]            --
│    └─MaxPool1d: 2-4                    [64, 512, 51]             --
│    └─Dropout: 2-5                      [64, 512, 51]             --
│    └─Flatten: 2-6                      [64, 26112]               --
│    └─Linear: 2-7                       [64, 1]                   26,113
==========================================================================================
Total params: 30,209
Trainable params: 30,209
Non-trainable params: 0
Total mult-adds (M): 52.07
==========================================================================================
Input size (MB): 0.33
Forward/backward pass size (MB): 134.22
Params size (MB): 0.12
Estimated Total Size (MB): 134.67
==========================================================================================
…
