…
Time taken:  836.5586092472076
{'time_elapsed': [836.5586092472076], 'epoch': [59], 'fold': [0], 'f1_train': [0.890294158248855], 'auroc_train': [0.9954624888861636], 'auprc_train': [0.9980335658749706], 'f1_test': [0.7651358509506568], 'auroc_test': [0.8286696121747669], 'auprc_test': [0.9262766080397455]}
==========================================================================================
Layer (type:depth-idx)                   Output Shape              Param #
==========================================================================================
TAPPredictor                             [64, 1]                   --
├─Sequential: 1-1                        [64, 1]                   --
│    └─Conv1d: 2-1                       [64, 512, 1278]           3,072
│    └─BatchNorm1d: 2-2                  [64, 512, 1278]           1,024
│    └─Tanh: 2-3                         [64, 512, 1278]           --
│    └─MaxPool1d: 2-4                    [64, 512, 1274]           --
│    └─Dropout: 2-5                      [64, 512, 1274]           --
│    └─Flatten: 2-6                      [64, 652288]              --
│    └─Linear: 2-7                       [64, 1]                   652,289
==========================================================================================
Total params: 656,385
Trainable params: 656,385
Non-trainable params: 0
Total mult-adds (M): 293.08
==========================================================================================
Input size (MB): 0.33
Forward/backward pass size (MB): 670.04
Params size (MB): 2.63
Estimated Total Size (MB): 672.99
…
Time taken:  143.69944620132446
{'time_elapsed': [143.69944620132446], 'epoch': [74], 'fold': [0], 'f1_train': [0.9892411295259068], 'auroc_train': [0.9999233528528069], 'auprc_train': [0.9999664851387277], 'f1_test': [0.7737843767539161], 'auroc_test': [0.8183603338242514], 'auprc_test': [0.9177678682944739]}
==========================================================================================
Layer (type:depth-idx)                   Output Shape              Param #
==========================================================================================
TAPPredictor                             [64, 1]                   --
├─Sequential: 1-1                        [64, 1]                   --
│    └─Conv1d: 2-1                       [64, 512, 256]            3,072
│    └─BatchNorm1d: 2-2                  [64, 512, 256]            1,024
│    └─Tanh: 2-3                         [64, 512, 256]            --
│    └─MaxPool1d: 2-4                    [64, 512, 51]             --
│    └─Dropout: 2-5                      [64, 512, 51]             --
│    └─Flatten: 2-6                      [64, 26112]               --
│    └─Linear: 2-7                       [64, 1]                   26,113
==========================================================================================
Total params: 30,209
Trainable params: 30,209
Non-trainable params: 0
Total mult-adds (M): 52.07
==========================================================================================
Input size (MB): 0.33
Forward/backward pass size (MB): 134.22
Params size (MB): 0.12
Estimated Total Size (MB): 134.67
==========================================================================================
…
