…
Early stopping triggered
Early stopping triggered!
Time taken:  1054.9249670505524
{'time_elapsed': [1054.9249670505524], 'epoch': [76], 'fold': [0], 'f1_train': [1.0], 'auroc_train': [1.0], 'auprc_train': [1.0], 'f1_test': [0.7841726618705036], 'auroc_test': [0.8181148748159057], 'auprc_test': [0.9132472693684468]}
==========================================================================================
Layer (type:depth-idx)                   Output Shape              Param #
==========================================================================================
TAPPredictor                             [64, 1]                   --
├─Sequential: 1-1                        [64, 1]                   --
│    └─Conv1d: 2-1                       [64, 512, 1280]           2,048
│    └─BatchNorm1d: 2-2                  [64, 512, 1280]           1,024
│    └─Tanh: 2-3                         [64, 512, 1280]           --
│    └─MaxPool1d: 2-4                    [64, 512, 1278]           --
│    └─Dropout: 2-5                      [64, 512, 1278]           --
│    └─Flatten: 2-6                      [64, 654336]              --
│    └─Linear: 2-7                       [64, 1]                   654,337
==========================================================================================
Total params: 657,409
Trainable params: 657,409
Non-trainable params: 0
Total mult-adds (M): 209.72
==========================================================================================
Input size (MB): 0.33
Forward/backward pass size (MB): 671.09
Params size (MB): 2.63
Estimated Total Size (MB): 674.05
…
Early stopping triggered!
Time taken:  175.1784007549286
{'time_elapsed': [175.1784007549286], 'epoch': [63], 'fold': [0], 'f1_train': [0.9946078283340751], 'auroc_train': [1.0], 'auprc_train': [1.0], 'f1_test': [0.7569659388768054], 'auroc_test': [0.8161512027491409], 'auprc_test': [0.9191623629592172]}
==========================================================================================
Layer (type:depth-idx)                   Output Shape              Param #
==========================================================================================
TAPPredictor                             [64, 1]                   --
├─Sequential: 1-1                        [64, 1]                   --
│    └─Conv1d: 2-1                       [64, 512, 427]            2,048
│    └─BatchNorm1d: 2-2                  [64, 512, 427]            1,024
│    └─Tanh: 2-3                         [64, 512, 427]            --
│    └─MaxPool1d: 2-4                    [64, 512, 142]            --
│    └─Dropout: 2-5                      [64, 512, 142]            --
│    └─Flatten: 2-6                      [64, 72704]               --
│    └─Linear: 2-7                       [64, 1]                   72,705
==========================================================================================
Total params: 75,777
Trainable params: 75,777
Non-trainable params: 0
Total mult-adds (M): 60.69
==========================================================================================
Input size (MB): 0.33
Forward/backward pass size (MB): 223.87
Params size (MB): 0.30
Estimated Total Size (MB): 224.50
==========================================================================================
…
