…
Time taken:  2293.5635900497437
{'time_elapsed': [2293.5635900497437], 'epoch': [72], 'fold': [0], 'f1_train': [0.9308893403128007], 'auroc_train': [0.9878284330257228], 'auprc_train': [0.994316683546999], 'f1_test': [0.7661184054361647], 'auroc_test': [0.8181148748159057], 'auprc_test': [0.9202306775450559]}
==========================================================================================
Layer (type:depth-idx)                   Output Shape              Param #
==========================================================================================
TAPPredictor                             [32, 1]                   --
├─Sequential: 1-1                        [32, 1]                   --
│    └─Conv1d: 2-1                       [32, 1024, 1276]          8,192
│    └─BatchNorm1d: 2-2                  [32, 1024, 1276]          2,048
│    └─Tanh: 2-3                         [32, 1024, 1276]          --
│    └─MaxPool1d: 2-4                    [32, 1024, 1270]          --
│    └─Dropout: 2-5                      [32, 1024, 1270]          --
│    └─Flatten: 2-6                      [32, 1300480]             --
│    └─Linear: 2-7                       [32, 1]                   1,300,481
==========================================================================================
Total params: 1,310,721
Trainable params: 1,310,721
Non-trainable params: 0
Total mult-adds (M): 376.18
==========================================================================================
Input size (MB): 0.16
Forward/backward pass size (MB): 668.99
Params size (MB): 5.24
Estimated Total Size (MB): 674.40
…
Time taken:  587.601925611496
{'time_elapsed': [587.601925611496], 'epoch': [336], 'fold': [0], 'f1_train': [0.8844364250614251], 'auroc_train': [0.9690038936750774], 'auprc_train': [0.984885728991546], 'f1_test': [0.7215941532488295], 'auroc_test': [0.8043691703485518], 'auprc_test': [0.9115515970287846]}
==========================================================================================
Layer (type:depth-idx)                   Output Shape              Param #
==========================================================================================
TAPPredictor                             [32, 1]                   --
├─Sequential: 1-1                        [32, 1]                   --
│    └─Conv1d: 2-1                       [32, 1024, 183]           8,192
│    └─BatchNorm1d: 2-2                  [32, 1024, 183]           2,048
│    └─Tanh: 2-3                         [32, 1024, 183]           --
│    └─MaxPool1d: 2-4                    [32, 1024, 26]            --
│    └─Dropout: 2-5                      [32, 1024, 26]            --
│    └─Flatten: 2-6                      [32, 26624]               --
│    └─Linear: 2-7                       [32, 1]                   26,625
==========================================================================================
Total params: 36,865
Trainable params: 36,865
Non-trainable params: 0
Total mult-adds (M): 48.89
==========================================================================================
Input size (MB): 0.16
Forward/backward pass size (MB): 95.94
Params size (MB): 0.15
Estimated Total Size (MB): 96.26
==========================================================================================
…
