…
Time taken:  556.5266780853271
{'time_elapsed': [556.5266780853271], 'epoch': [80], 'fold': [0], 'f1_train': [0.9072380791001481], 'auroc_train': [0.9795965294171751], 'auprc_train': [0.9904229339724123], 'f1_test': [0.7506155503404762], 'auroc_test': [0.8242513500245459], 'auprc_test': [0.9230816699944167]}
==========================================================================================
Layer (type:depth-idx)                   Output Shape              Param #
==========================================================================================
TAPPredictor                             [32, 1]                   --
├─Sequential: 1-1                        [32, 1]                   --
│    └─Conv1d: 2-1                       [32, 256, 1278]           1,536
│    └─BatchNorm1d: 2-2                  [32, 256, 1278]           512
│    └─Tanh: 2-3                         [32, 256, 1278]           --
│    └─MaxPool1d: 2-4                    [32, 256, 1274]           --
│    └─Dropout: 2-5                      [32, 256, 1274]           --
│    └─Flatten: 2-6                      [32, 326144]              --
│    └─Linear: 2-7                       [32, 1]                   326,145
==========================================================================================
Total params: 328,193
Trainable params: 328,193
Non-trainable params: 0
Total mult-adds (M): 73.27
==========================================================================================
Input size (MB): 0.16
Forward/backward pass size (MB): 167.51
Params size (MB): 1.31
Estimated Total Size (MB): 168.99
…
epoch:  499 val_f1:  0.7428255465713769 val_auroc:  0.8176239567992146 val_auprc:  0.9206222415869109
EarlyStopping counter: 42 out of 50
epoch:  499
[Epoch 500, Batch 10] loss: 0.167
epoch:  500 val_f1:  0.7428255465713769 val_auroc:  0.8183603338242513 val_auprc:  0.9209989303998316
EarlyStopping counter: 43 out of 50
==========================================================================================
Layer (type:depth-idx)                   Output Shape              Param #
==========================================================================================
TAPPredictor                             [32, 1]                   --
├─Sequential: 1-1                        [32, 1]                   --
│    └─Conv1d: 2-1                       [32, 256, 256]            1,536
│    └─BatchNorm1d: 2-2                  [32, 256, 256]            512
│    └─Tanh: 2-3                         [32, 256, 256]            --
│    └─MaxPool1d: 2-4                    [32, 256, 51]             --
│    └─Dropout: 2-5                      [32, 256, 51]             --
│    └─Flatten: 2-6                      [32, 13056]               --
│    └─Linear: 2-7                       [32, 1]                   13,057
==========================================================================================
Total params: 15,105
Trainable params: 15,105
Non-trainable params: 0
Total mult-adds (M): 13.02
==========================================================================================
Input size (MB): 0.16
Forward/backward pass size (MB): 33.55
Params size (MB): 0.06
Estimated Total Size (MB): 33.78
==========================================================================================
…
