…
Time taken:  208.62670230865479
{'time_elapsed': [208.62670230865479], 'epoch': [58], 'fold': [0], 'f1_train': [0.9964023152258445], 'auroc_train': [0.9999846705705613], 'auprc_train': [0.9999932970817315], 'f1_test': [0.7681512331200245], 'auroc_test': [0.8132056946489936], 'auprc_test': [0.9161391458978907]}
==========================================================================================
Layer (type:depth-idx)                   Output Shape              Param #
==========================================================================================
TAPPredictor                             [64, 1]                   --
├─Sequential: 1-1                        [64, 1]                   --
│    └─Conv1d: 2-1                       [64, 128, 1276]           1,024
│    └─BatchNorm1d: 2-2                  [64, 128, 1276]           256
│    └─Tanh: 2-3                         [64, 128, 1276]           --
│    └─MaxPool1d: 2-4                    [64, 128, 1270]           --
│    └─Dropout: 2-5                      [64, 128, 1270]           --
│    └─Flatten: 2-6                      [64, 162560]              --
│    └─Linear: 2-7                       [64, 1]                   162,561
==========================================================================================
Total params: 163,841
Trainable params: 163,841
Non-trainable params: 0
Total mult-adds (M): 94.04
==========================================================================================
Input size (MB): 0.33
Forward/backward pass size (MB): 167.25
Params size (MB): 0.66
Estimated Total Size (MB): 168.23
…
Time taken:  25.154642581939697
{'time_elapsed': [25.154642581939697], 'epoch': [79], 'fold': [0], 'f1_train': [0.9749716863211297], 'auroc_train': [0.9978538798785909], 'auprc_train': [0.9990351726786515], 'f1_test': [0.7455074238481555], 'auroc_test': [0.8321060382916053], 'auprc_test': [0.9290685052239285]}
==========================================================================================
Layer (type:depth-idx)                   Output Shape              Param #
==========================================================================================
TAPPredictor                             [64, 1]                   --
├─Sequential: 1-1                        [64, 1]                   --
│    └─Conv1d: 2-1                       [64, 128, 183]            1,024
│    └─BatchNorm1d: 2-2                  [64, 128, 183]            256
│    └─Tanh: 2-3                         [64, 128, 183]            --
│    └─MaxPool1d: 2-4                    [64, 128, 26]             --
│    └─Dropout: 2-5                      [64, 128, 26]             --
│    └─Flatten: 2-6                      [64, 3328]                --
│    └─Linear: 2-7                       [64, 1]                   3,329
==========================================================================================
Total params: 4,609
Trainable params: 4,609
Non-trainable params: 0
Total mult-adds (M): 12.22
==========================================================================================
Input size (MB): 0.33
Forward/backward pass size (MB): 23.99
Params size (MB): 0.02
Estimated Total Size (MB): 24.33
==========================================================================================
…
