…
Time taken:  2706.0181913375854
{'time_elapsed': [2706.0181913375854], 'epoch': [95], 'fold': [0], 'f1_train': [0.8643294723294723], 'auroc_train': [0.9317993684275071], 'auprc_train': [0.9686381651344176], 'f1_test': [0.7855581813618873], 'auroc_test': [0.8055964653902798], 'auprc_test': [0.9107445602015116]}
==========================================================================================
Layer (type:depth-idx)                   Output Shape              Param #
==========================================================================================
TAPPredictor                             [64, 1]                   --
├─Sequential: 1-1                        [64, 1]                   --
│    └─Conv1d: 2-1                       [64, 1024, 1278]          6,144
│    └─BatchNorm1d: 2-2                  [64, 1024, 1278]          2,048
│    └─Tanh: 2-3                         [64, 1024, 1278]          --
│    └─MaxPool1d: 2-4                    [64, 1024, 1274]          --
│    └─Dropout: 2-5                      [64, 1024, 1274]          --
│    └─Flatten: 2-6                      [64, 1304576]             --
│    └─Linear: 2-7                       [64, 1]                   1,304,577
==========================================================================================
Total params: 1,312,769
Trainable params: 1,312,769
Non-trainable params: 0
Total mult-adds (M): 586.15
==========================================================================================
Input size (MB): 0.33
Forward/backward pass size (MB): 1340.08
Params size (MB): 5.25
Estimated Total Size (MB): 1345.66
…
Time taken:  1217.4895687103271
{'time_elapsed': [1217.4895687103271], 'epoch': [345], 'fold': [0], 'f1_train': [0.839640863170275], 'auroc_train': [0.9374559278903639], 'auprc_train': [0.9714028792176039], 'f1_test': [0.743431836172277], 'auroc_test': [0.8082965144820815], 'auprc_test': [0.9115684928623895]}
==========================================================================================
Layer (type:depth-idx)                   Output Shape              Param #
==========================================================================================
TAPPredictor                             [64, 1]                   --
├─Sequential: 1-1                        [64, 1]                   --
│    └─Conv1d: 2-1                       [64, 1024, 256]           6,144
│    └─BatchNorm1d: 2-2                  [64, 1024, 256]           2,048
│    └─Tanh: 2-3                         [64, 1024, 256]           --
│    └─MaxPool1d: 2-4                    [64, 1024, 51]            --
│    └─Dropout: 2-5                      [64, 1024, 51]            --
│    └─Flatten: 2-6                      [64, 52224]               --
│    └─Linear: 2-7                       [64, 1]                   52,225
==========================================================================================
Total params: 60,417
Trainable params: 60,417
Non-trainable params: 0
Total mult-adds (M): 104.14
==========================================================================================
Input size (MB): 0.33
Forward/backward pass size (MB): 268.44
Params size (MB): 0.24
Estimated Total Size (MB): 269.01
==========================================================================================
…
