…
Early stopping triggered
Early stopping triggered!
Time taken:  218.12651991844177
{'time_elapsed': [218.12651991844177], 'epoch': [70], 'fold': [0], 'f1_train': [1.0], 'auroc_train': [1.0], 'auprc_train': [1.0], 'f1_test': [0.7985611510791367], 'auroc_test': [0.8296514482081492], 'auprc_test': [0.9252021301484095]}
==========================================================================================
Layer (type:depth-idx)                   Output Shape              Param #
==========================================================================================
TAPPredictor                             [64, 1]                   --
├─Sequential: 1-1                        [64, 1]                   --
│    └─Conv1d: 2-1                       [64, 128, 1280]           512
│    └─BatchNorm1d: 2-2                  [64, 128, 1280]           256
│    └─Tanh: 2-3                         [64, 128, 1280]           --
│    └─MaxPool1d: 2-4                    [64, 128, 1278]           --
│    └─Dropout: 2-5                      [64, 128, 1278]           --
│    └─Flatten: 2-6                      [64, 163584]              --
│    └─Linear: 2-7                       [64, 1]                   163,585
==========================================================================================
Total params: 164,353
Trainable params: 164,353
Non-trainable params: 0
Total mult-adds (M): 52.43
==========================================================================================
Input size (MB): 0.33
Forward/backward pass size (MB): 167.77
Params size (MB): 0.66
Estimated Total Size (MB): 168.76
…
Time taken:  41.88358664512634
{'time_elapsed': [41.88358664512634], 'epoch': [58], 'fold': [0], 'f1_train': [0.9928161714345926], 'auroc_train': [0.9999693411411227], 'auprc_train': [0.9999865767758085], 'f1_test': [0.7441671543148256], 'auroc_test': [0.8188512518409425], 'auprc_test': [0.9222354291059847]}
==========================================================================================
Layer (type:depth-idx)                   Output Shape              Param #
==========================================================================================
TAPPredictor                             [64, 1]                   --
├─Sequential: 1-1                        [64, 1]                   --
│    └─Conv1d: 2-1                       [64, 128, 427]            512
│    └─BatchNorm1d: 2-2                  [64, 128, 427]            256
│    └─Tanh: 2-3                         [64, 128, 427]            --
│    └─MaxPool1d: 2-4                    [64, 128, 142]            --
│    └─Dropout: 2-5                      [64, 128, 142]            --
│    └─Flatten: 2-6                      [64, 18176]               --
│    └─Linear: 2-7                       [64, 1]                   18,177
==========================================================================================
Total params: 18,945
Trainable params: 18,945
Non-trainable params: 0
Total mult-adds (M): 15.17
==========================================================================================
Input size (MB): 0.33
Forward/backward pass size (MB): 55.97
Params size (MB): 0.08
Estimated Total Size (MB): 56.37
==========================================================================================
…
