…
Time taken:  1122.1802251338959
{'time_elapsed': [1122.1802251338959], 'epoch': [83], 'fold': [0], 'f1_train': [0.8623468980523944], 'auroc_train': [0.940905049514057], 'auprc_train': [0.9731389962173973], 'f1_test': [0.7757738305193033], 'auroc_test': [0.829160530191458], 'auprc_test': [0.9261694542856866]}
==========================================================================================
Layer (type:depth-idx)                   Output Shape              Param #
==========================================================================================
TAPPredictor                             [64, 1]                   --
├─Sequential: 1-1                        [64, 1]                   --
│    └─Conv1d: 2-1                       [64, 512, 1280]           2,048
│    └─BatchNorm1d: 2-2                  [64, 512, 1280]           1,024
│    └─Tanh: 2-3                         [64, 512, 1280]           --
│    └─MaxPool1d: 2-4                    [64, 512, 1278]           --
│    └─Dropout: 2-5                      [64, 512, 1278]           --
│    └─Flatten: 2-6                      [64, 654336]              --
│    └─Linear: 2-7                       [64, 1]                   654,337
==========================================================================================
Total params: 657,409
Trainable params: 657,409
Non-trainable params: 0
Total mult-adds (M): 209.72
==========================================================================================
Input size (MB): 0.33
Forward/backward pass size (MB): 671.09
Params size (MB): 2.63
Estimated Total Size (MB): 674.05
…
Time taken:  686.5986609458923
{'time_elapsed': [686.5986609458923], 'epoch': [252], 'fold': [0], 'f1_train': [0.8600399271398039], 'auroc_train': [0.9395713891528957], 'auprc_train': [0.9718967708040618], 'f1_test': [0.7691994463100789], 'auroc_test': [0.8154148257241042], 'auprc_test': [0.9201753337484246]}
==========================================================================================
Layer (type:depth-idx)                   Output Shape              Param #
==========================================================================================
TAPPredictor                             [64, 1]                   --
├─Sequential: 1-1                        [64, 1]                   --
│    └─Conv1d: 2-1                       [64, 512, 427]            2,048
│    └─BatchNorm1d: 2-2                  [64, 512, 427]            1,024
│    └─Tanh: 2-3                         [64, 512, 427]            --
│    └─MaxPool1d: 2-4                    [64, 512, 142]            --
│    └─Dropout: 2-5                      [64, 512, 142]            --
│    └─Flatten: 2-6                      [64, 72704]               --
│    └─Linear: 2-7                       [64, 1]                   72,705
==========================================================================================
Total params: 75,777
Trainable params: 75,777
Non-trainable params: 0
Total mult-adds (M): 60.69
==========================================================================================
Input size (MB): 0.33
Forward/backward pass size (MB): 223.87
Params size (MB): 0.30
Estimated Total Size (MB): 224.50
==========================================================================================
…
