…
Time taken:  286.1080298423767
{'time_elapsed': [286.1080298423767], 'epoch': [82], 'fold': [0], 'f1_train': [0.8685051338886276], 'auroc_train': [0.9447680657325934], 'auprc_train': [0.9747106658909988], 'f1_test': [0.7560320485424044], 'auroc_test': [0.8100147275405009], 'auprc_test': [0.9144562678220439]}
==========================================================================================
Layer (type:depth-idx)                   Output Shape              Param #
==========================================================================================
TAPPredictor                             [64, 1]                   --
├─Sequential: 1-1                        [64, 1]                   --
│    └─Conv1d: 2-1                       [64, 128, 1278]           768
│    └─BatchNorm1d: 2-2                  [64, 128, 1278]           256
│    └─Tanh: 2-3                         [64, 128, 1278]           --
│    └─MaxPool1d: 2-4                    [64, 128, 1274]           --
│    └─Dropout: 2-5                      [64, 128, 1274]           --
│    └─Flatten: 2-6                      [64, 163072]              --
│    └─Linear: 2-7                       [64, 1]                   163,073
==========================================================================================
Total params: 164,097
Trainable params: 164,097
Non-trainable params: 0
Total mult-adds (M): 73.27
==========================================================================================
Input size (MB): 0.33
Forward/backward pass size (MB): 167.51
Params size (MB): 0.66
Estimated Total Size (MB): 168.49
…
EarlyStopping counter: 3 out of 50
epoch:  498
epoch:  499 val_f1:  0.72389147505525 val_auroc:  0.7938144329896908 val_auprc:  0.9029246338686856
EarlyStopping counter: 4 out of 50
epoch:  499
epoch:  500 val_f1:  0.72389147505525 val_auroc:  0.7938144329896908 val_auprc:  0.9029246338686856
EarlyStopping counter: 5 out of 50
==========================================================================================
Layer (type:depth-idx)                   Output Shape              Param #
==========================================================================================
TAPPredictor                             [64, 1]                   --
├─Sequential: 1-1                        [64, 1]                   --
│    └─Conv1d: 2-1                       [64, 128, 256]            768
│    └─BatchNorm1d: 2-2                  [64, 128, 256]            256
│    └─Tanh: 2-3                         [64, 128, 256]            --
│    └─MaxPool1d: 2-4                    [64, 128, 51]             --
│    └─Dropout: 2-5                      [64, 128, 51]             --
│    └─Flatten: 2-6                      [64, 6528]                --
│    └─Linear: 2-7                       [64, 1]                   6,529
==========================================================================================
Total params: 7,553
Trainable params: 7,553
Non-trainable params: 0
Total mult-adds (M): 13.02
==========================================================================================
Input size (MB): 0.33
Forward/backward pass size (MB): 33.55
Params size (MB): 0.03
Estimated Total Size (MB): 33.91
==========================================================================================
…
