…
Early stopping triggered!
Time taken:  198.59099626541138
{'time_elapsed': [198.59099626541138], 'epoch': [58], 'fold': [0], 'f1_train': [0.9981996872393208], 'auroc_train': [1.0], 'auprc_train': [1.0], 'f1_test': [0.7944676896257205], 'auroc_test': [0.824251350024546], 'auprc_test': [0.9230352142045171]}
==========================================================================================
Layer (type:depth-idx)                   Output Shape              Param #
==========================================================================================
TAPPredictor                             [64, 1]                   --
├─Sequential: 1-1                        [64, 1]                   --
│    └─Conv1d: 2-1                       [64, 128, 1278]           768
│    └─BatchNorm1d: 2-2                  [64, 128, 1278]           256
│    └─Tanh: 2-3                         [64, 128, 1278]           --
│    └─MaxPool1d: 2-4                    [64, 128, 1274]           --
│    └─Dropout: 2-5                      [64, 128, 1274]           --
│    └─Flatten: 2-6                      [64, 163072]              --
│    └─Linear: 2-7                       [64, 1]                   163,073
==========================================================================================
Total params: 164,097
Trainable params: 164,097
Non-trainable params: 0
Total mult-adds (M): 73.27
==========================================================================================
Input size (MB): 0.33
Forward/backward pass size (MB): 167.51
Params size (MB): 0.66
Estimated Total Size (MB): 168.49
…
Time taken:  29.07895565032959
{'time_elapsed': [29.07895565032959], 'epoch': [68], 'fold': [0], 'f1_train': [0.980260037748796], 'auroc_train': [0.9979765153141], 'auprc_train': [0.9991267158770654], 'f1_test': [0.7490302789770621], 'auroc_test': [0.7970054000981835], 'auprc_test': [0.9077652645631055]}
==========================================================================================
Layer (type:depth-idx)                   Output Shape              Param #
==========================================================================================
TAPPredictor                             [64, 1]                   --
├─Sequential: 1-1                        [64, 1]                   --
│    └─Conv1d: 2-1                       [64, 128, 256]            768
│    └─BatchNorm1d: 2-2                  [64, 128, 256]            256
│    └─Tanh: 2-3                         [64, 128, 256]            --
│    └─MaxPool1d: 2-4                    [64, 128, 51]             --
│    └─Dropout: 2-5                      [64, 128, 51]             --
│    └─Flatten: 2-6                      [64, 6528]                --
│    └─Linear: 2-7                       [64, 1]                   6,529
==========================================================================================
Total params: 7,553
Trainable params: 7,553
Non-trainable params: 0
Total mult-adds (M): 13.02
==========================================================================================
Input size (MB): 0.33
Forward/backward pass size (MB): 33.55
Params size (MB): 0.03
Estimated Total Size (MB): 33.91
==========================================================================================
…
