…
Time taken:  446.33256101608276
{'time_elapsed': [446.33256101608276], 'epoch': [114], 'fold': [0], 'f1_train': [0.8606475031295765], 'auroc_train': [0.9474967041726706], 'auprc_train': [0.9763299943487294], 'f1_test': [0.7633550302615051], 'auroc_test': [0.8028964162984782], 'auprc_test': [0.9094874335488682]}
==========================================================================================
Layer (type:depth-idx)                   Output Shape              Param #
==========================================================================================
TAPPredictor                             [64, 1]                   --
├─Sequential: 1-1                        [64, 1]                   --
│    └─Conv1d: 2-1                       [64, 128, 1276]           1,024
│    └─BatchNorm1d: 2-2                  [64, 128, 1276]           256
│    └─Tanh: 2-3                         [64, 128, 1276]           --
│    └─MaxPool1d: 2-4                    [64, 128, 1270]           --
│    └─Dropout: 2-5                      [64, 128, 1270]           --
│    └─Flatten: 2-6                      [64, 162560]              --
│    └─Linear: 2-7                       [64, 1]                   162,561
==========================================================================================
Total params: 163,841
Trainable params: 163,841
Non-trainable params: 0
Total mult-adds (M): 94.04
==========================================================================================
Input size (MB): 0.33
Forward/backward pass size (MB): 167.25
Params size (MB): 0.66
Estimated Total Size (MB): 168.23
…
Validation loss improved to 1.146715
epoch:  498
epoch:  499 val_f1:  0.6617377698806362 val_auroc:  0.7430044182621502 val_auprc:  0.8775529350611552
EarlyStopping counter: 1 out of 50
epoch:  499
epoch:  500 val_f1:  0.6617377698806362 val_auroc:  0.7434953362788415 val_auprc:  0.8778718458812036
EarlyStopping counter: 2 out of 50
==========================================================================================
Layer (type:depth-idx)                   Output Shape              Param #
==========================================================================================
TAPPredictor                             [64, 1]                   --
├─Sequential: 1-1                        [64, 1]                   --
│    └─Conv1d: 2-1                       [64, 128, 183]            1,024
│    └─BatchNorm1d: 2-2                  [64, 128, 183]            256
│    └─Tanh: 2-3                         [64, 128, 183]            --
│    └─MaxPool1d: 2-4                    [64, 128, 26]             --
│    └─Dropout: 2-5                      [64, 128, 26]             --
│    └─Flatten: 2-6                      [64, 3328]                --
│    └─Linear: 2-7                       [64, 1]                   3,329
==========================================================================================
Total params: 4,609
Trainable params: 4,609
Non-trainable params: 0
Total mult-adds (M): 12.22
==========================================================================================
Input size (MB): 0.33
Forward/backward pass size (MB): 23.99
Params size (MB): 0.02
Estimated Total Size (MB): 24.33
==========================================================================================
…
