…
Time taken:  704.5085186958313
{'time_elapsed': [704.5085186958313], 'epoch': [94], 'fold': [0], 'f1_train': [0.8723382458015286], 'auroc_train': [0.9458564552227365], 'auprc_train': [0.9752366029966048], 'f1_test': [0.7560320485424044], 'auroc_test': [0.8132056946489936], 'auprc_test': [0.915134894301907]}
==========================================================================================
Layer (type:depth-idx)                   Output Shape              Param #
==========================================================================================
TAPPredictor                             [64, 1]                   --
├─Sequential: 1-1                        [64, 1]                   --
│    └─Conv1d: 2-1                       [64, 256, 1278]           1,536
│    └─BatchNorm1d: 2-2                  [64, 256, 1278]           512
│    └─Tanh: 2-3                         [64, 256, 1278]           --
│    └─MaxPool1d: 2-4                    [64, 256, 1274]           --
│    └─Dropout: 2-5                      [64, 256, 1274]           --
│    └─Flatten: 2-6                      [64, 326144]              --
│    └─Linear: 2-7                       [64, 1]                   326,145
==========================================================================================
Total params: 328,193
Trainable params: 328,193
Non-trainable params: 0
Total mult-adds (M): 146.54
==========================================================================================
Input size (MB): 0.33
Forward/backward pass size (MB): 335.02
Params size (MB): 1.31
Estimated Total Size (MB): 336.66
…
EarlyStopping counter: 5 out of 50
epoch:  498
epoch:  499 val_f1:  0.7428255465713769 val_auroc:  0.801178203240059 val_auprc:  0.9089443928464662
EarlyStopping counter: 6 out of 50
epoch:  499
epoch:  500 val_f1:  0.7295632867761842 val_auroc:  0.8011782032400588 val_auprc:  0.9089731873005389
EarlyStopping counter: 7 out of 50
==========================================================================================
Layer (type:depth-idx)                   Output Shape              Param #
==========================================================================================
TAPPredictor                             [64, 1]                   --
├─Sequential: 1-1                        [64, 1]                   --
│    └─Conv1d: 2-1                       [64, 256, 256]            1,536
│    └─BatchNorm1d: 2-2                  [64, 256, 256]            512
│    └─Tanh: 2-3                         [64, 256, 256]            --
│    └─MaxPool1d: 2-4                    [64, 256, 51]             --
│    └─Dropout: 2-5                      [64, 256, 51]             --
│    └─Flatten: 2-6                      [64, 13056]               --
│    └─Linear: 2-7                       [64, 1]                   13,057
==========================================================================================
Total params: 15,105
Trainable params: 15,105
Non-trainable params: 0
Total mult-adds (M): 26.03
==========================================================================================
Input size (MB): 0.33
Forward/backward pass size (MB): 67.11
Params size (MB): 0.06
Estimated Total Size (MB): 67.50
==========================================================================================
…
