…
Time taken:  2644.3434932231903
{'time_elapsed': [2644.3434932231903], 'epoch': [92], 'fold': [0], 'f1_train': [0.9246096100961464], 'auroc_train': [0.9997240702701046], 'auprc_train': [0.9998810863311766], 'f1_test': [0.792521420529359], 'auroc_test': [0.8316151202749141], 'auprc_test': [0.9306538389220568]}
==========================================================================================
Layer (type:depth-idx)                   Output Shape              Param #
==========================================================================================
TAPPredictor                             [64, 1]                   --
├─Sequential: 1-1                        [64, 1]                   --
│    └─Conv1d: 2-1                       [64, 1024, 1278]          6,144
│    └─BatchNorm1d: 2-2                  [64, 1024, 1278]          2,048
│    └─Tanh: 2-3                         [64, 1024, 1278]          --
│    └─MaxPool1d: 2-4                    [64, 1024, 1274]          --
│    └─Dropout: 2-5                      [64, 1024, 1274]          --
│    └─Flatten: 2-6                      [64, 1304576]             --
│    └─Linear: 2-7                       [64, 1]                   1,304,577
==========================================================================================
Total params: 1,312,769
Trainable params: 1,312,769
Non-trainable params: 0
Total mult-adds (M): 586.15
==========================================================================================
Input size (MB): 0.33
Forward/backward pass size (MB): 1340.08
Params size (MB): 5.25
Estimated Total Size (MB): 1345.66
…
Time taken:  248.2817087173462
{'time_elapsed': [248.2817087173462], 'epoch': [75], 'fold': [0], 'f1_train': [0.9909984361966043], 'auroc_train': [0.9996934114112273], 'auprc_train': [0.9998651691714492], 'f1_test': [0.7985611510791367], 'auroc_test': [0.8132056946489936], 'auprc_test': [0.9134475326777451]}
==========================================================================================
Layer (type:depth-idx)                   Output Shape              Param #
==========================================================================================
TAPPredictor                             [64, 1]                   --
├─Sequential: 1-1                        [64, 1]                   --
│    └─Conv1d: 2-1                       [64, 1024, 256]           6,144
│    └─BatchNorm1d: 2-2                  [64, 1024, 256]           2,048
│    └─Tanh: 2-3                         [64, 1024, 256]           --
│    └─MaxPool1d: 2-4                    [64, 1024, 51]            --
│    └─Dropout: 2-5                      [64, 1024, 51]            --
│    └─Flatten: 2-6                      [64, 52224]               --
│    └─Linear: 2-7                       [64, 1]                   52,225
==========================================================================================
Total params: 60,417
Trainable params: 60,417
Non-trainable params: 0
Total mult-adds (M): 104.14
==========================================================================================
Input size (MB): 0.33
Forward/backward pass size (MB): 268.44
Params size (MB): 0.24
Estimated Total Size (MB): 269.01
==========================================================================================
…
