…
Time taken:  484.14769649505615
{'time_elapsed': [484.14769649505615], 'epoch': [66], 'fold': [0], 'f1_train': [0.9130595695154], 'auroc_train': [0.9666278321120888], 'auprc_train': [0.98537072809463], 'f1_test': [0.7855581813618873], 'auroc_test': [0.8105056455571918], 'auprc_test': [0.917480844428324]}
==========================================================================================
Layer (type:depth-idx)                   Output Shape              Param #
==========================================================================================
TAPPredictor                             [32, 1]                   --
├─Sequential: 1-1                        [32, 1]                   --
│    └─Conv1d: 2-1                       [32, 256, 1276]           2,048
│    └─BatchNorm1d: 2-2                  [32, 256, 1276]           512
│    └─Tanh: 2-3                         [32, 256, 1276]           --
│    └─MaxPool1d: 2-4                    [32, 256, 1270]           --
│    └─Dropout: 2-5                      [32, 256, 1270]           --
│    └─Flatten: 2-6                      [32, 325120]              --
│    └─Linear: 2-7                       [32, 1]                   325,121
==========================================================================================
Total params: 327,681
Trainable params: 327,681
Non-trainable params: 0
Total mult-adds (M): 94.04
==========================================================================================
Input size (MB): 0.16
Forward/backward pass size (MB): 167.25
Params size (MB): 1.31
Estimated Total Size (MB): 168.72
…
epoch:  499 val_f1:  0.7229061670449737 val_auroc:  0.7979872361315661 val_auprc:  0.9045324066586841
EarlyStopping counter: 4 out of 50
epoch:  499
[Epoch 500, Batch 10] loss: 0.216
epoch:  500 val_f1:  0.7229061670449737 val_auroc:  0.7984781541482572 val_auprc:  0.904972692952444
EarlyStopping counter: 5 out of 50
==========================================================================================
Layer (type:depth-idx)                   Output Shape              Param #
==========================================================================================
TAPPredictor                             [32, 1]                   --
├─Sequential: 1-1                        [32, 1]                   --
│    └─Conv1d: 2-1                       [32, 256, 183]            2,048
│    └─BatchNorm1d: 2-2                  [32, 256, 183]            512
│    └─Tanh: 2-3                         [32, 256, 183]            --
│    └─MaxPool1d: 2-4                    [32, 256, 26]             --
│    └─Dropout: 2-5                      [32, 256, 26]             --
│    └─Flatten: 2-6                      [32, 6656]                --
│    └─Linear: 2-7                       [32, 1]                   6,657
==========================================================================================
Total params: 9,217
Trainable params: 9,217
Non-trainable params: 0
Total mult-adds (M): 12.22
==========================================================================================
Input size (MB): 0.16
Forward/backward pass size (MB): 23.99
Params size (MB): 0.04
Estimated Total Size (MB): 24.19
==========================================================================================
…
