…
Time taken:  257.4131760597229
{'time_elapsed': [257.4131760597229], 'epoch': [85], 'fold': [0], 'f1_train': [0.8843361110376817], 'auroc_train': [0.9539810528252138], 'auprc_train': [0.9791161184824285], 'f1_test': [0.7567268683783295], 'auroc_test': [0.8237604320078548], 'auprc_test': [0.9228642529948393]}
==========================================================================================
Layer (type:depth-idx)                   Output Shape              Param #
==========================================================================================
TAPPredictor                             [64, 1]                   --
├─Sequential: 1-1                        [64, 1]                   --
│    └─Conv1d: 2-1                       [64, 128, 1280]           512
│    └─BatchNorm1d: 2-2                  [64, 128, 1280]           256
│    └─Tanh: 2-3                         [64, 128, 1280]           --
│    └─MaxPool1d: 2-4                    [64, 128, 1278]           --
│    └─Dropout: 2-5                      [64, 128, 1278]           --
│    └─Flatten: 2-6                      [64, 163584]              --
│    └─Linear: 2-7                       [64, 1]                   163,585
==========================================================================================
Total params: 164,353
Trainable params: 164,353
Non-trainable params: 0
Total mult-adds (M): 52.43
==========================================================================================
Input size (MB): 0.33
Forward/backward pass size (MB): 167.77
Params size (MB): 0.66
Estimated Total Size (MB): 168.76
…
Time taken:  297.9114553928375
{'time_elapsed': [297.9114553928375], 'epoch': [396], 'fold': [0], 'f1_train': [0.8652326809568189], 'auroc_train': [0.9399239660299843], 'auprc_train': [0.9716800074262166], 'f1_test': [0.7494347379239465], 'auroc_test': [0.8244968090328915], 'auprc_test': [0.9244998770874092]}
==========================================================================================
Layer (type:depth-idx)                   Output Shape              Param #
==========================================================================================
TAPPredictor                             [64, 1]                   --
├─Sequential: 1-1                        [64, 1]                   --
│    └─Conv1d: 2-1                       [64, 128, 427]            512
│    └─BatchNorm1d: 2-2                  [64, 128, 427]            256
│    └─Tanh: 2-3                         [64, 128, 427]            --
│    └─MaxPool1d: 2-4                    [64, 128, 142]            --
│    └─Dropout: 2-5                      [64, 128, 142]            --
│    └─Flatten: 2-6                      [64, 18176]               --
│    └─Linear: 2-7                       [64, 1]                   18,177
==========================================================================================
Total params: 18,945
Trainable params: 18,945
Non-trainable params: 0
Total mult-adds (M): 15.17
==========================================================================================
Input size (MB): 0.33
Forward/backward pass size (MB): 55.97
Params size (MB): 0.08
Estimated Total Size (MB): 56.37
==========================================================================================
…
