…
Time taken:  3715.975082397461
{'time_elapsed': [3715.975082397461], 'epoch': [123], 'fold': [0], 'f1_train': [0.8844904705369822], 'auroc_train': [0.9480638930619002], 'auprc_train': [0.9764710567333599], 'f1_test': [0.7920536597238516], 'auroc_test': [0.8014236622484046], 'auprc_test': [0.9093234259869567]}
==========================================================================================
Layer (type:depth-idx)                   Output Shape              Param #
==========================================================================================
TAPPredictor                             [64, 1]                   --
├─Sequential: 1-1                        [64, 1]                   --
│    └─Conv1d: 2-1                       [64, 1024, 1276]          8,192
│    └─BatchNorm1d: 2-2                  [64, 1024, 1276]          2,048
│    └─Tanh: 2-3                         [64, 1024, 1276]          --
│    └─MaxPool1d: 2-4                    [64, 1024, 1270]          --
│    └─Dropout: 2-5                      [64, 1024, 1270]          --
│    └─Flatten: 2-6                      [64, 1300480]             --
│    └─Linear: 2-7                       [64, 1]                   1,300,481
==========================================================================================
Total params: 1,310,721
Trainable params: 1,310,721
Non-trainable params: 0
Total mult-adds (M): 752.35
==========================================================================================
Input size (MB): 0.33
Forward/backward pass size (MB): 1337.98
Params size (MB): 5.24
Estimated Total Size (MB): 1343.55
…
Time taken:  1115.2004566192627
{'time_elapsed': [1115.2004566192627], 'epoch': [485], 'fold': [0], 'f1_train': [0.8550742519248081], 'auroc_train': [0.9460250789465616], 'auprc_train': [0.974407921330045], 'f1_test': [0.7223183251151889], 'auroc_test': [0.7930780559646539], 'auprc_test': [0.9039045210051433]}
==========================================================================================
Layer (type:depth-idx)                   Output Shape              Param #
==========================================================================================
TAPPredictor                             [64, 1]                   --
├─Sequential: 1-1                        [64, 1]                   --
│    └─Conv1d: 2-1                       [64, 1024, 183]           8,192
│    └─BatchNorm1d: 2-2                  [64, 1024, 183]           2,048
│    └─Tanh: 2-3                         [64, 1024, 183]           --
│    └─MaxPool1d: 2-4                    [64, 1024, 26]            --
│    └─Dropout: 2-5                      [64, 1024, 26]            --
│    └─Flatten: 2-6                      [64, 26624]               --
│    └─Linear: 2-7                       [64, 1]                   26,625
==========================================================================================
Total params: 36,865
Trainable params: 36,865
Non-trainable params: 0
Total mult-adds (M): 97.78
==========================================================================================
Input size (MB): 0.33
Forward/backward pass size (MB): 191.89
Params size (MB): 0.15
Estimated Total Size (MB): 192.37
==========================================================================================
…
