…
Time taken:  1976.409514427185
{'time_elapsed': [1976.409514427185], 'epoch': [66], 'fold': [0], 'f1_train': [0.9149929851262318], 'auroc_train': [0.9740472759603888], 'auprc_train': [0.9879632019755593], 'f1_test': [0.7802930475309426], 'auroc_test': [0.8205694648993619], 'auprc_test': [0.9212058172662781]}
==========================================================================================
Layer (type:depth-idx)                   Output Shape              Param #
==========================================================================================
TAPPredictor                             [32, 1]                   --
├─Sequential: 1-1                        [32, 1]                   --
│    └─Conv1d: 2-1                       [32, 1024, 1278]          6,144
│    └─BatchNorm1d: 2-2                  [32, 1024, 1278]          2,048
│    └─Tanh: 2-3                         [32, 1024, 1278]          --
│    └─MaxPool1d: 2-4                    [32, 1024, 1274]          --
│    └─Dropout: 2-5                      [32, 1024, 1274]          --
│    └─Flatten: 2-6                      [32, 1304576]             --
│    └─Linear: 2-7                       [32, 1]                   1,304,577
==========================================================================================
Total params: 1,312,769
Trainable params: 1,312,769
Non-trainable params: 0
Total mult-adds (M): 293.08
==========================================================================================
Input size (MB): 0.16
Forward/backward pass size (MB): 670.04
Params size (MB): 5.25
Estimated Total Size (MB): 675.46
…
Time taken:  820.7552833557129
{'time_elapsed': [820.7552833557129], 'epoch': [232], 'fold': [0], 'f1_train': [0.879428424570312], 'auroc_train': [0.9610785786553024], 'auprc_train': [0.9822696660354355], 'f1_test': [0.7362024088594293], 'auroc_test': [0.8168875797741777], 'auprc_test': [0.9186067005322861]}
==========================================================================================
Layer (type:depth-idx)                   Output Shape              Param #
==========================================================================================
TAPPredictor                             [32, 1]                   --
├─Sequential: 1-1                        [32, 1]                   --
│    └─Conv1d: 2-1                       [32, 1024, 256]           6,144
│    └─BatchNorm1d: 2-2                  [32, 1024, 256]           2,048
│    └─Tanh: 2-3                         [32, 1024, 256]           --
│    └─MaxPool1d: 2-4                    [32, 1024, 51]            --
│    └─Dropout: 2-5                      [32, 1024, 51]            --
│    └─Flatten: 2-6                      [32, 52224]               --
│    └─Linear: 2-7                       [32, 1]                   52,225
==========================================================================================
Total params: 60,417
Trainable params: 60,417
Non-trainable params: 0
Total mult-adds (M): 52.07
==========================================================================================
Input size (MB): 0.16
Forward/backward pass size (MB): 134.22
Params size (MB): 0.24
Estimated Total Size (MB): 134.62
==========================================================================================
…
