…
Time taken:  263.03496861457825
{'time_elapsed': [263.03496861457825], 'epoch': [75], 'fold': [0], 'f1_train': [0.8727158529690173], 'auroc_train': [0.9600515068829139], 'auprc_train': [0.9818868551295918], 'f1_test': [0.7573003855683703], 'auroc_test': [0.810505645557192], 'auprc_test': [0.9145237647322036]}
==========================================================================================
Layer (type:depth-idx)                   Output Shape              Param #
==========================================================================================
TAPPredictor                             [32, 1]                   --
├─Sequential: 1-1                        [32, 1]                   --
│    └─Conv1d: 2-1                       [32, 128, 1276]           1,024
│    └─BatchNorm1d: 2-2                  [32, 128, 1276]           256
│    └─Tanh: 2-3                         [32, 128, 1276]           --
│    └─MaxPool1d: 2-4                    [32, 128, 1270]           --
│    └─Dropout: 2-5                      [32, 128, 1270]           --
│    └─Flatten: 2-6                      [32, 162560]              --
│    └─Linear: 2-7                       [32, 1]                   162,561
==========================================================================================
Total params: 163,841
Trainable params: 163,841
Non-trainable params: 0
Total mult-adds (M): 47.02
==========================================================================================
Input size (MB): 0.16
Forward/backward pass size (MB): 83.62
Params size (MB): 0.66
Estimated Total Size (MB): 84.44
==========================================================================================
…
epoch:  499 val_f1:  0.6956980834430598 val_auroc:  0.7702503681885126 val_auprc:  0.8957562225529669
EarlyStopping counter: 5 out of 50
epoch:  499
[Epoch 500, Batch 10] loss: 0.278
epoch:  500 val_f1:  0.7028070029525513 val_auroc:  0.7697594501718213 val_auprc:  0.8954047280111193
EarlyStopping counter: 6 out of 50
==========================================================================================
Layer (type:depth-idx)                   Output Shape              Param #
==========================================================================================
TAPPredictor                             [32, 1]                   --
├─Sequential: 1-1                        [32, 1]                   --
│    └─Conv1d: 2-1                       [32, 128, 183]            1,024
│    └─BatchNorm1d: 2-2                  [32, 128, 183]            256
│    └─Tanh: 2-3                         [32, 128, 183]            --
│    └─MaxPool1d: 2-4                    [32, 128, 26]             --
│    └─Dropout: 2-5                      [32, 128, 26]             --
│    └─Flatten: 2-6                      [32, 3328]                --
│    └─Linear: 2-7                       [32, 1]                   3,329
==========================================================================================
Total params: 4,609
Trainable params: 4,609
Non-trainable params: 0
Total mult-adds (M): 6.11
==========================================================================================
Input size (MB): 0.16
Forward/backward pass size (MB): 11.99
Params size (MB): 0.02
Estimated Total Size (MB): 12.18
==========================================================================================
…
