…
Early stopping triggered
Early stopping triggered!
Time taken:  166.84757375717163
{'time_elapsed': [166.84757375717163], 'epoch': [53], 'fold': [0], 'f1_train': [1.0], 'auroc_train': [1.0], 'auprc_train': [1.0], 'f1_test': [0.7633714058926586], 'auroc_test': [0.8325969563082966], 'auprc_test': [0.9266443055687654]}
==========================================================================================
Layer (type:depth-idx)                   Output Shape              Param #
==========================================================================================
TAPPredictor                             [64, 1]                   --
├─Sequential: 1-1                        [64, 1]                   --
│    └─Conv1d: 2-1                       [64, 128, 1280]           512
│    └─BatchNorm1d: 2-2                  [64, 128, 1280]           256
│    └─Tanh: 2-3                         [64, 128, 1280]           --
│    └─MaxPool1d: 2-4                    [64, 128, 1278]           --
│    └─Dropout: 2-5                      [64, 128, 1278]           --
│    └─Flatten: 2-6                      [64, 163584]              --
│    └─Linear: 2-7                       [64, 1]                   163,585
==========================================================================================
Total params: 164,353
Trainable params: 164,353
Non-trainable params: 0
Total mult-adds (M): 52.43
==========================================================================================
Input size (MB): 0.33
Forward/backward pass size (MB): 167.77
Params size (MB): 0.66
Estimated Total Size (MB): 168.76
…
Early stopping triggered!
Time taken:  48.20189332962036
{'time_elapsed': [48.20189332962036], 'epoch': [68], 'fold': [0], 'f1_train': [0.9981996872393208], 'auroc_train': [1.0], 'auprc_train': [1.0], 'f1_test': [0.7505653177403916], 'auroc_test': [0.8227785959744723], 'auprc_test': [0.9260534165447978]}
==========================================================================================
Layer (type:depth-idx)                   Output Shape              Param #
==========================================================================================
TAPPredictor                             [64, 1]                   --
├─Sequential: 1-1                        [64, 1]                   --
│    └─Conv1d: 2-1                       [64, 128, 427]            512
│    └─BatchNorm1d: 2-2                  [64, 128, 427]            256
│    └─Tanh: 2-3                         [64, 128, 427]            --
│    └─MaxPool1d: 2-4                    [64, 128, 142]            --
│    └─Dropout: 2-5                      [64, 128, 142]            --
│    └─Flatten: 2-6                      [64, 18176]               --
│    └─Linear: 2-7                       [64, 1]                   18,177
==========================================================================================
Total params: 18,945
Trainable params: 18,945
Non-trainable params: 0
Total mult-adds (M): 15.17
==========================================================================================
Input size (MB): 0.33
Forward/backward pass size (MB): 55.97
Params size (MB): 0.08
Estimated Total Size (MB): 56.37
==========================================================================================
…
