…
Early stopping triggered
Early stopping triggered!
Time taken:  2066.0074622631073
{'time_elapsed': [2066.0074622631073], 'epoch': [65], 'fold': [0], 'f1_train': [1.0], 'auroc_train': [1.0], 'auprc_train': [1.0], 'f1_test': [0.7933255489848959], 'auroc_test': [0.8151693667157585], 'auprc_test': [0.920330097168985]}
==========================================================================================
Layer (type:depth-idx)                   Output Shape              Param #
==========================================================================================
TAPPredictor                             [32, 1]                   --
├─Sequential: 1-1                        [32, 1]                   --
│    └─Conv1d: 2-1                       [32, 1024, 1276]          8,192
│    └─BatchNorm1d: 2-2                  [32, 1024, 1276]          2,048
│    └─Tanh: 2-3                         [32, 1024, 1276]          --
│    └─MaxPool1d: 2-4                    [32, 1024, 1270]          --
│    └─Dropout: 2-5                      [32, 1024, 1270]          --
│    └─Flatten: 2-6                      [32, 1300480]             --
│    └─Linear: 2-7                       [32, 1]                   1,300,481
==========================================================================================
Total params: 1,310,721
Trainable params: 1,310,721
Non-trainable params: 0
Total mult-adds (M): 376.18
==========================================================================================
Input size (MB): 0.16
Forward/backward pass size (MB): 668.99
Params size (MB): 5.24
Estimated Total Size (MB): 674.40
…
Early stopping triggered!
Time taken:  139.5068998336792
{'time_elapsed': [139.5068998336792], 'epoch': [64], 'fold': [0], 'f1_train': [0.9981996872393208], 'auroc_train': [1.0], 'auprc_train': [1.0], 'f1_test': [0.7583800901862243], 'auroc_test': [0.8178694158075601], 'auprc_test': [0.9197314720395321]}
==========================================================================================
Layer (type:depth-idx)                   Output Shape              Param #
==========================================================================================
TAPPredictor                             [32, 1]                   --
├─Sequential: 1-1                        [32, 1]                   --
│    └─Conv1d: 2-1                       [32, 1024, 183]           8,192
│    └─BatchNorm1d: 2-2                  [32, 1024, 183]           2,048
│    └─Tanh: 2-3                         [32, 1024, 183]           --
│    └─MaxPool1d: 2-4                    [32, 1024, 26]            --
│    └─Dropout: 2-5                      [32, 1024, 26]            --
│    └─Flatten: 2-6                      [32, 26624]               --
│    └─Linear: 2-7                       [32, 1]                   26,625
==========================================================================================
Total params: 36,865
Trainable params: 36,865
Non-trainable params: 0
Total mult-adds (M): 48.89
==========================================================================================
Input size (MB): 0.16
Forward/backward pass size (MB): 95.94
Params size (MB): 0.15
Estimated Total Size (MB): 96.26
==========================================================================================
…
