…
Time taken:  509.5267503261566
{'time_elapsed': [509.5267503261566], 'epoch': [66], 'fold': [0], 'f1_train': [0.9016809158885661], 'auroc_train': [0.9690652113928319], 'auprc_train': [0.9858890290292879], 'f1_test': [0.770628190185282], 'auroc_test': [0.8171330387825233], 'auprc_test': [0.9208380153875049]}
==========================================================================================
Layer (type:depth-idx)                   Output Shape              Param #
==========================================================================================
TAPPredictor                             [32, 1]                   --
├─Sequential: 1-1                        [32, 1]                   --
│    └─Conv1d: 2-1                       [32, 256, 1276]           2,048
│    └─BatchNorm1d: 2-2                  [32, 256, 1276]           512
│    └─Tanh: 2-3                         [32, 256, 1276]           --
│    └─MaxPool1d: 2-4                    [32, 256, 1270]           --
│    └─Dropout: 2-5                      [32, 256, 1270]           --
│    └─Flatten: 2-6                      [32, 325120]              --
│    └─Linear: 2-7                       [32, 1]                   325,121
==========================================================================================
Total params: 327,681
Trainable params: 327,681
Non-trainable params: 0
Total mult-adds (M): 94.04
==========================================================================================
Input size (MB): 0.16
Forward/backward pass size (MB): 167.25
Params size (MB): 1.31
Estimated Total Size (MB): 168.72
…
epoch:  499 val_f1:  0.7223183251151889 val_auroc:  0.8004418262150221 val_auprc:  0.9100129418192334
EarlyStopping counter: 12 out of 50
epoch:  499
[Epoch 500, Batch 10] loss: 0.230
epoch:  500 val_f1:  0.7223183251151889 val_auroc:  0.7999509081983309 val_auprc:  0.9096803536388512
EarlyStopping counter: 13 out of 50
==========================================================================================
Layer (type:depth-idx)                   Output Shape              Param #
==========================================================================================
TAPPredictor                             [32, 1]                   --
├─Sequential: 1-1                        [32, 1]                   --
│    └─Conv1d: 2-1                       [32, 256, 183]            2,048
│    └─BatchNorm1d: 2-2                  [32, 256, 183]            512
│    └─Tanh: 2-3                         [32, 256, 183]            --
│    └─MaxPool1d: 2-4                    [32, 256, 26]             --
│    └─Dropout: 2-5                      [32, 256, 26]             --
│    └─Flatten: 2-6                      [32, 6656]                --
│    └─Linear: 2-7                       [32, 1]                   6,657
==========================================================================================
Total params: 9,217
Trainable params: 9,217
Non-trainable params: 0
Total mult-adds (M): 12.22
==========================================================================================
Input size (MB): 0.16
Forward/backward pass size (MB): 23.99
Params size (MB): 0.04
Estimated Total Size (MB): 24.19
==========================================================================================
…
