…
Early stopping triggered!
Time taken:  869.594259262085
{'time_elapsed': [869.594259262085], 'epoch': [54], 'fold': [0], 'f1_train': [1.0], 'auroc_train': [1.0], 'auprc_train': [0.9999999999999999], 'f1_test': [0.7841726618705036], 'auroc_test': [0.8208149239077074], 'auprc_test': [0.922013173003945]}
==========================================================================================
Layer (type:depth-idx)                   Output Shape              Param #
==========================================================================================
TAPPredictor                             [32, 1]                   --
├─Sequential: 1-1                        [32, 1]                   --
│    └─Conv1d: 2-1                       [32, 512, 1276]           4,096
│    └─BatchNorm1d: 2-2                  [32, 512, 1276]           1,024
│    └─Tanh: 2-3                         [32, 512, 1276]           --
│    └─MaxPool1d: 2-4                    [32, 512, 1270]           --
│    └─Dropout: 2-5                      [32, 512, 1270]           --
│    └─Flatten: 2-6                      [32, 650240]              --
│    └─Linear: 2-7                       [32, 1]                   650,241
==========================================================================================
Total params: 655,361
Trainable params: 655,361
Non-trainable params: 0
Total mult-adds (M): 188.09
==========================================================================================
Input size (MB): 0.16
Forward/backward pass size (MB): 334.50
Params size (MB): 2.62
Estimated Total Size (MB): 337.28
…
Early stopping triggered
Early stopping triggered!
Time taken:  72.93970489501953
{'time_elapsed': [72.93970489501953], 'epoch': [68], 'fold': [0], 'f1_train': [1.0], 'auroc_train': [1.0], 'auprc_train': [1.0], 'f1_test': [0.7617596949267598], 'auroc_test': [0.817378497790869], 'auprc_test': [0.9184008535040058]}
==========================================================================================
Layer (type:depth-idx)                   Output Shape              Param #
==========================================================================================
TAPPredictor                             [32, 1]                   --
├─Sequential: 1-1                        [32, 1]                   --
│    └─Conv1d: 2-1                       [32, 512, 183]            4,096
│    └─BatchNorm1d: 2-2                  [32, 512, 183]            1,024
│    └─Tanh: 2-3                         [32, 512, 183]            --
│    └─MaxPool1d: 2-4                    [32, 512, 26]             --
│    └─Dropout: 2-5                      [32, 512, 26]             --
│    └─Flatten: 2-6                      [32, 13312]               --
│    └─Linear: 2-7                       [32, 1]                   13,313
==========================================================================================
Total params: 18,433
Trainable params: 18,433
Non-trainable params: 0
Total mult-adds (M): 24.44
==========================================================================================
Input size (MB): 0.16
Forward/backward pass size (MB): 47.97
Params size (MB): 0.07
Estimated Total Size (MB): 48.21
==========================================================================================
…
