…
Early stopping triggered
Early stopping triggered!
Time taken:  2318.7160501480103
{'time_elapsed': [2318.7160501480103], 'epoch': [81], 'fold': [0], 'f1_train': [1.0], 'auroc_train': [1.0], 'auprc_train': [1.0], 'f1_test': [0.7580594896895918], 'auroc_test': [0.83100147275405], 'auprc_test': [0.9199875017843402]}
==========================================================================================
Layer (type:depth-idx)                   Output Shape              Param #
==========================================================================================
TAPPredictor                             [64, 1]                   --
├─Sequential: 1-1                        [64, 1]                   --
│    └─Conv1d: 2-1                       [64, 1024, 1280]          4,096
│    └─BatchNorm1d: 2-2                  [64, 1024, 1280]          2,048
│    └─Tanh: 2-3                         [64, 1024, 1280]          --
│    └─MaxPool1d: 2-4                    [64, 1024, 1278]          --
│    └─Dropout: 2-5                      [64, 1024, 1278]          --
│    └─Flatten: 2-6                      [64, 1308672]             --
│    └─Linear: 2-7                       [64, 1]                   1,308,673
==========================================================================================
Total params: 1,314,817
Trainable params: 1,314,817
Non-trainable params: 0
Total mult-adds (M): 419.43
==========================================================================================
Input size (MB): 0.33
Forward/backward pass size (MB): 1342.18
Params size (MB): 5.26
Estimated Total Size (MB): 1347.76
…
Early stopping triggered!
Time taken:  391.43311882019043
{'time_elapsed': [391.43311882019043], 'epoch': [63], 'fold': [0], 'f1_train': [0.9910272898858162], 'auroc_train': [1.0], 'auprc_train': [1.0], 'f1_test': [0.7441671543148256], 'auroc_test': [0.8141875306823761], 'auprc_test': [0.9174955701683057]}
==========================================================================================
Layer (type:depth-idx)                   Output Shape              Param #
==========================================================================================
TAPPredictor                             [64, 1]                   --
├─Sequential: 1-1                        [64, 1]                   --
│    └─Conv1d: 2-1                       [64, 1024, 427]           4,096
│    └─BatchNorm1d: 2-2                  [64, 1024, 427]           2,048
│    └─Tanh: 2-3                         [64, 1024, 427]           --
│    └─MaxPool1d: 2-4                    [64, 1024, 142]           --
│    └─Dropout: 2-5                      [64, 1024, 142]           --
│    └─Flatten: 2-6                      [64, 145408]              --
│    └─Linear: 2-7                       [64, 1]                   145,409
==========================================================================================
Total params: 151,553
Trainable params: 151,553
Non-trainable params: 0
Total mult-adds (M): 121.37
==========================================================================================
Input size (MB): 0.33
Forward/backward pass size (MB): 447.74
Params size (MB): 0.61
Estimated Total Size (MB): 448.68
…
