…
Early stopping triggered
Early stopping triggered!
Time taken:  171.7734305858612
{'time_elapsed': [171.7734305858612], 'epoch': [58], 'fold': [0], 'f1_train': [1.0], 'auroc_train': [1.0], 'auprc_train': [1.0], 'f1_test': [0.7536606851900262], 'auroc_test': [0.8286696121747668], 'auprc_test': [0.9236018185214113]}
==========================================================================================
Layer (type:depth-idx)                   Output Shape              Param #
==========================================================================================
TAPPredictor                             [32, 1]                   --
├─Sequential: 1-1                        [32, 1]                   --
│    └─Conv1d: 2-1                       [32, 128, 1280]           512
│    └─BatchNorm1d: 2-2                  [32, 128, 1280]           256
│    └─Tanh: 2-3                         [32, 128, 1280]           --
│    └─MaxPool1d: 2-4                    [32, 128, 1278]           --
│    └─Dropout: 2-5                      [32, 128, 1278]           --
│    └─Flatten: 2-6                      [32, 163584]              --
│    └─Linear: 2-7                       [32, 1]                   163,585
==========================================================================================
Total params: 164,353
Trainable params: 164,353
Non-trainable params: 0
Total mult-adds (M): 26.21
==========================================================================================
Input size (MB): 0.16
Forward/backward pass size (MB): 83.89
Params size (MB): 0.66
Estimated Total Size (MB): 84.71
==========================================================================================
…
Early stopping triggered
Early stopping triggered!
Time taken:  39.527381896972656
{'time_elapsed': [39.527381896972656], 'epoch': [53], 'fold': [0], 'f1_train': [1.0], 'auroc_train': [1.0], 'auprc_train': [1.0], 'f1_test': [0.7519437633413868], 'auroc_test': [0.8151693667157585], 'auprc_test': [0.9187027844389363]}
==========================================================================================
Layer (type:depth-idx)                   Output Shape              Param #
==========================================================================================
TAPPredictor                             [32, 1]                   --
├─Sequential: 1-1                        [32, 1]                   --
│    └─Conv1d: 2-1                       [32, 128, 427]            512
│    └─BatchNorm1d: 2-2                  [32, 128, 427]            256
│    └─Tanh: 2-3                         [32, 128, 427]            --
│    └─MaxPool1d: 2-4                    [32, 128, 142]            --
│    └─Dropout: 2-5                      [32, 128, 142]            --
│    └─Flatten: 2-6                      [32, 18176]               --
│    └─Linear: 2-7                       [32, 1]                   18,177
==========================================================================================
Total params: 18,945
Trainable params: 18,945
Non-trainable params: 0
Total mult-adds (M): 7.59
==========================================================================================
Input size (MB): 0.16
Forward/backward pass size (MB): 27.98
Params size (MB): 0.08
Estimated Total Size (MB): 28.22
==========================================================================================
…
