…
Early stopping triggered
Early stopping triggered!
Time taken:  192.68790984153748
{'time_elapsed': [192.68790984153748], 'epoch': [57], 'fold': [0], 'f1_train': [1.0], 'auroc_train': [1.0], 'auprc_train': [1.0], 'f1_test': [0.7748426784519089], 'auroc_test': [0.8289150711831125], 'auprc_test': [0.9267112284249154]}
==========================================================================================
Layer (type:depth-idx)                   Output Shape              Param #
==========================================================================================
TAPPredictor                             [32, 1]                   --
├─Sequential: 1-1                        [32, 1]                   --
│    └─Conv1d: 2-1                       [32, 128, 1278]           768
│    └─BatchNorm1d: 2-2                  [32, 128, 1278]           256
│    └─Tanh: 2-3                         [32, 128, 1278]           --
│    └─MaxPool1d: 2-4                    [32, 128, 1274]           --
│    └─Dropout: 2-5                      [32, 128, 1274]           --
│    └─Flatten: 2-6                      [32, 163072]              --
│    └─Linear: 2-7                       [32, 1]                   163,073
==========================================================================================
Total params: 164,097
Trainable params: 164,097
Non-trainable params: 0
Total mult-adds (M): 36.63
==========================================================================================
Input size (MB): 0.16
Forward/backward pass size (MB): 83.76
Params size (MB): 0.66
Estimated Total Size (MB): 84.58
==========================================================================================
…
Early stopping triggered
Early stopping triggered!
Time taken:  27.78135848045349
{'time_elapsed': [27.78135848045349], 'epoch': [68], 'fold': [0], 'f1_train': [1.0], 'auroc_train': [1.0], 'auprc_train': [1.0], 'f1_test': [0.7410071942446043], 'auroc_test': [0.803632793323515], 'auprc_test': [0.9127829966326709]}
==========================================================================================
Layer (type:depth-idx)                   Output Shape              Param #
==========================================================================================
TAPPredictor                             [32, 1]                   --
├─Sequential: 1-1                        [32, 1]                   --
│    └─Conv1d: 2-1                       [32, 128, 256]            768
│    └─BatchNorm1d: 2-2                  [32, 128, 256]            256
│    └─Tanh: 2-3                         [32, 128, 256]            --
│    └─MaxPool1d: 2-4                    [32, 128, 51]             --
│    └─Dropout: 2-5                      [32, 128, 51]             --
│    └─Flatten: 2-6                      [32, 6528]                --
│    └─Linear: 2-7                       [32, 1]                   6,529
==========================================================================================
Total params: 7,553
Trainable params: 7,553
Non-trainable params: 0
Total mult-adds (M): 6.51
==========================================================================================
Input size (MB): 0.16
Forward/backward pass size (MB): 16.78
Params size (MB): 0.03
Estimated Total Size (MB): 16.97
==========================================================================================
…
