…
Early stopping triggered!
Time taken:  187.81281876564026
{'time_elapsed': [187.81281876564026], 'epoch': [53], 'fold': [0], 'f1_train': [1.0], 'auroc_train': [1.0], 'auprc_train': [0.9999999999999999], 'f1_test': [0.7697841726618705], 'auroc_test': [0.8117329405989201], 'auprc_test': [0.9178881601565432]}
==========================================================================================
Layer (type:depth-idx)                   Output Shape              Param #
==========================================================================================
TAPPredictor                             [32, 1]                   --
├─Sequential: 1-1                        [32, 1]                   --
│    └─Conv1d: 2-1                       [32, 128, 1276]           1,024
│    └─BatchNorm1d: 2-2                  [32, 128, 1276]           256
│    └─Tanh: 2-3                         [32, 128, 1276]           --
│    └─MaxPool1d: 2-4                    [32, 128, 1270]           --
│    └─Dropout: 2-5                      [32, 128, 1270]           --
│    └─Flatten: 2-6                      [32, 162560]              --
│    └─Linear: 2-7                       [32, 1]                   162,561
==========================================================================================
Total params: 163,841
Trainable params: 163,841
Non-trainable params: 0
Total mult-adds (M): 47.02
==========================================================================================
Input size (MB): 0.16
Forward/backward pass size (MB): 83.62
Params size (MB): 0.66
Estimated Total Size (MB): 84.44
==========================================================================================
…
Early stopping triggered
Early stopping triggered!
Time taken:  24.134312391281128
{'time_elapsed': [24.134312391281128], 'epoch': [76], 'fold': [0], 'f1_train': [1.0], 'auroc_train': [1.0], 'auprc_train': [1.0], 'f1_test': [0.743396428458658], 'auroc_test': [0.8026509572901325], 'auprc_test': [0.9169228664862068]}
==========================================================================================
Layer (type:depth-idx)                   Output Shape              Param #
==========================================================================================
TAPPredictor                             [32, 1]                   --
├─Sequential: 1-1                        [32, 1]                   --
│    └─Conv1d: 2-1                       [32, 128, 183]            1,024
│    └─BatchNorm1d: 2-2                  [32, 128, 183]            256
│    └─Tanh: 2-3                         [32, 128, 183]            --
│    └─MaxPool1d: 2-4                    [32, 128, 26]             --
│    └─Dropout: 2-5                      [32, 128, 26]             --
│    └─Flatten: 2-6                      [32, 3328]                --
│    └─Linear: 2-7                       [32, 1]                   3,329
==========================================================================================
Total params: 4,609
Trainable params: 4,609
Non-trainable params: 0
Total mult-adds (M): 6.11
==========================================================================================
Input size (MB): 0.16
Forward/backward pass size (MB): 11.99
Params size (MB): 0.02
Estimated Total Size (MB): 12.18
==========================================================================================
…
