…
Time taken:  1633.8507375717163
{'time_elapsed': [1633.8507375717163], 'epoch': [111], 'fold': [0], 'f1_train': [0.8759335962969876], 'auroc_train': [0.9521415212925775], 'auprc_train': [0.9780791196232965], 'f1_test': [0.7494347379239465], 'auroc_test': [0.810505645557192], 'auprc_test': [0.9148113338989443]}
==========================================================================================
Layer (type:depth-idx)                   Output Shape              Param #
==========================================================================================
TAPPredictor                             [64, 1]                   --
├─Sequential: 1-1                        [64, 1]                   --
│    └─Conv1d: 2-1                       [64, 512, 1278]           3,072
│    └─BatchNorm1d: 2-2                  [64, 512, 1278]           1,024
│    └─Tanh: 2-3                         [64, 512, 1278]           --
│    └─MaxPool1d: 2-4                    [64, 512, 1274]           --
│    └─Dropout: 2-5                      [64, 512, 1274]           --
│    └─Flatten: 2-6                      [64, 652288]              --
│    └─Linear: 2-7                       [64, 1]                   652,289
==========================================================================================
Total params: 656,385
Trainable params: 656,385
Non-trainable params: 0
Total mult-adds (M): 293.08
==========================================================================================
Input size (MB): 0.33
Forward/backward pass size (MB): 670.04
Params size (MB): 2.63
Estimated Total Size (MB): 672.99
…
Time taken:  628.9182727336884
{'time_elapsed': [628.9182727336884], 'epoch': [485], 'fold': [0], 'f1_train': [0.8516895956290379], 'auroc_train': [0.9410583438084434], 'auprc_train': [0.9731619797781789], 'f1_test': [0.7500864926036699], 'auroc_test': [0.8109965635738832], 'auprc_test': [0.9134892220597395]}
==========================================================================================
Layer (type:depth-idx)                   Output Shape              Param #
==========================================================================================
TAPPredictor                             [64, 1]                   --
├─Sequential: 1-1                        [64, 1]                   --
│    └─Conv1d: 2-1                       [64, 512, 256]            3,072
│    └─BatchNorm1d: 2-2                  [64, 512, 256]            1,024
│    └─Tanh: 2-3                         [64, 512, 256]            --
│    └─MaxPool1d: 2-4                    [64, 512, 51]             --
│    └─Dropout: 2-5                      [64, 512, 51]             --
│    └─Flatten: 2-6                      [64, 26112]               --
│    └─Linear: 2-7                       [64, 1]                   26,113
==========================================================================================
Total params: 30,209
Trainable params: 30,209
Non-trainable params: 0
Total mult-adds (M): 52.07
==========================================================================================
Input size (MB): 0.33
Forward/backward pass size (MB): 134.22
Params size (MB): 0.12
Estimated Total Size (MB): 134.67
==========================================================================================
…
