…
Time taken:  951.2356064319611
{'time_elapsed': [951.2356064319611], 'epoch': [65], 'fold': [0], 'f1_train': [0.9048064280496714], 'auroc_train': [0.9679461630438115], 'auprc_train': [0.9851579542847708], 'f1_test': [0.7683026725960121], 'auroc_test': [0.8132056946489936], 'auprc_test': [0.9157590380295987]}
==========================================================================================
Layer (type:depth-idx)                   Output Shape              Param #
==========================================================================================
TAPPredictor                             [32, 1]                   --
├─Sequential: 1-1                        [32, 1]                   --
│    └─Conv1d: 2-1                       [32, 512, 1276]           4,096
│    └─BatchNorm1d: 2-2                  [32, 512, 1276]           1,024
│    └─Tanh: 2-3                         [32, 512, 1276]           --
│    └─MaxPool1d: 2-4                    [32, 512, 1270]           --
│    └─Dropout: 2-5                      [32, 512, 1270]           --
│    └─Flatten: 2-6                      [32, 650240]              --
│    └─Linear: 2-7                       [32, 1]                   650,241
==========================================================================================
Total params: 655,361
Trainable params: 655,361
Non-trainable params: 0
Total mult-adds (M): 188.09
==========================================================================================
Input size (MB): 0.16
Forward/backward pass size (MB): 334.50
Params size (MB): 2.62
Estimated Total Size (MB): 337.28
…
Time taken:  707.4356322288513
{'time_elapsed': [707.4356322288513], 'epoch': [477], 'fold': [0], 'f1_train': [0.8825312529405075], 'auroc_train': [0.9645583591378728], 'auprc_train': [0.982869964077345], 'f1_test': [0.7500864926036699], 'auroc_test': [0.8075601374570447], 'auprc_test': [0.9140113360080788]}
==========================================================================================
Layer (type:depth-idx)                   Output Shape              Param #
==========================================================================================
TAPPredictor                             [32, 1]                   --
├─Sequential: 1-1                        [32, 1]                   --
│    └─Conv1d: 2-1                       [32, 512, 183]            4,096
│    └─BatchNorm1d: 2-2                  [32, 512, 183]            1,024
│    └─Tanh: 2-3                         [32, 512, 183]            --
│    └─MaxPool1d: 2-4                    [32, 512, 26]             --
│    └─Dropout: 2-5                      [32, 512, 26]             --
│    └─Flatten: 2-6                      [32, 13312]               --
│    └─Linear: 2-7                       [32, 1]                   13,313
==========================================================================================
Total params: 18,433
Trainable params: 18,433
Non-trainable params: 0
Total mult-adds (M): 24.44
==========================================================================================
Input size (MB): 0.16
Forward/backward pass size (MB): 47.97
Params size (MB): 0.07
Estimated Total Size (MB): 48.21
==========================================================================================
…
