…
Time taken:  1313.7762355804443
{'time_elapsed': [1313.7762355804443], 'epoch': [97], 'fold': [0], 'f1_train': [0.8673455047907894], 'auroc_train': [0.9421773921574638], 'auprc_train': [0.9734961117534621], 'f1_test': [0.7560320485424044], 'auroc_test': [0.8085419734904271], 'auprc_test': [0.9137016634716375]}
==========================================================================================
Layer (type:depth-idx)                   Output Shape              Param #
==========================================================================================
TAPPredictor                             [64, 1]                   --
├─Sequential: 1-1                        [64, 1]                   --
│    └─Conv1d: 2-1                       [64, 512, 1278]           3,072
│    └─BatchNorm1d: 2-2                  [64, 512, 1278]           1,024
│    └─Tanh: 2-3                         [64, 512, 1278]           --
│    └─MaxPool1d: 2-4                    [64, 512, 1274]           --
│    └─Dropout: 2-5                      [64, 512, 1274]           --
│    └─Flatten: 2-6                      [64, 652288]              --
│    └─Linear: 2-7                       [64, 1]                   652,289
==========================================================================================
Total params: 656,385
Trainable params: 656,385
Non-trainable params: 0
Total mult-adds (M): 293.08
==========================================================================================
Input size (MB): 0.33
Forward/backward pass size (MB): 670.04
Params size (MB): 2.63
Estimated Total Size (MB): 672.99
…
Time taken:  613.0391988754272
{'time_elapsed': [613.0391988754272], 'epoch': [418], 'fold': [0], 'f1_train': [0.8430205153399436], 'auroc_train': [0.9315387681270503], 'auprc_train': [0.9684698359628239], 'f1_test': [0.7371937993371881], 'auroc_test': [0.8055964653902797], 'auprc_test': [0.9085998952897589]}
==========================================================================================
Layer (type:depth-idx)                   Output Shape              Param #
==========================================================================================
TAPPredictor                             [64, 1]                   --
├─Sequential: 1-1                        [64, 1]                   --
│    └─Conv1d: 2-1                       [64, 512, 256]            3,072
│    └─BatchNorm1d: 2-2                  [64, 512, 256]            1,024
│    └─Tanh: 2-3                         [64, 512, 256]            --
│    └─MaxPool1d: 2-4                    [64, 512, 51]             --
│    └─Dropout: 2-5                      [64, 512, 51]             --
│    └─Flatten: 2-6                      [64, 26112]               --
│    └─Linear: 2-7                       [64, 1]                   26,113
==========================================================================================
Total params: 30,209
Trainable params: 30,209
Non-trainable params: 0
Total mult-adds (M): 52.07
==========================================================================================
Input size (MB): 0.33
Forward/backward pass size (MB): 134.22
Params size (MB): 0.12
Estimated Total Size (MB): 134.67
==========================================================================================
…
