…
Time taken:  1709.7736010551453
{'time_elapsed': [1709.7736010551453], 'epoch': [114], 'fold': [0], 'f1_train': [0.8790247231775374], 'auroc_train': [0.9454885489162093], 'auprc_train': [0.9751235436874099], 'f1_test': [0.7560320485424044], 'auroc_test': [0.8051055473735886], 'auprc_test': [0.9104128109807761]}
==========================================================================================
Layer (type:depth-idx)                   Output Shape              Param #
==========================================================================================
TAPPredictor                             [64, 1]                   --
├─Sequential: 1-1                        [64, 1]                   --
│    └─Conv1d: 2-1                       [64, 512, 1276]           4,096
│    └─BatchNorm1d: 2-2                  [64, 512, 1276]           1,024
│    └─Tanh: 2-3                         [64, 512, 1276]           --
│    └─MaxPool1d: 2-4                    [64, 512, 1270]           --
│    └─Dropout: 2-5                      [64, 512, 1270]           --
│    └─Flatten: 2-6                      [64, 650240]              --
│    └─Linear: 2-7                       [64, 1]                   650,241
==========================================================================================
Total params: 655,361
Trainable params: 655,361
Non-trainable params: 0
Total mult-adds (M): 376.18
==========================================================================================
Input size (MB): 0.33
Forward/backward pass size (MB): 668.99
Params size (MB): 2.62
Estimated Total Size (MB): 671.94
…
Validation loss improved to 1.112690
epoch:  498
epoch:  499 val_f1:  0.682242621874418 val_auroc:  0.7788414334806087 val_auprc:  0.8945948978947332
Validation loss improved to 1.112000
epoch:  499
epoch:  500 val_f1:  0.682242621874418 val_auroc:  0.7788414334806087 val_auprc:  0.8945948978947332
EarlyStopping counter: 1 out of 50
==========================================================================================
Layer (type:depth-idx)                   Output Shape              Param #
==========================================================================================
TAPPredictor                             [64, 1]                   --
├─Sequential: 1-1                        [64, 1]                   --
│    └─Conv1d: 2-1                       [64, 512, 183]            4,096
│    └─BatchNorm1d: 2-2                  [64, 512, 183]            1,024
│    └─Tanh: 2-3                         [64, 512, 183]            --
│    └─MaxPool1d: 2-4                    [64, 512, 26]             --
│    └─Dropout: 2-5                      [64, 512, 26]             --
│    └─Flatten: 2-6                      [64, 13312]               --
│    └─Linear: 2-7                       [64, 1]                   13,313
==========================================================================================
Total params: 18,433
Trainable params: 18,433
Non-trainable params: 0
Total mult-adds (M): 48.89
==========================================================================================
Input size (MB): 0.33
Forward/backward pass size (MB): 95.95
Params size (MB): 0.07
Estimated Total Size (MB): 96.35
==========================================================================================
…
