…
Early stopping triggered!
Time taken:  406.840758562088
{'time_elapsed': [406.840758562088], 'epoch': [55], 'fold': [0], 'f1_train': [0.9946078283340751], 'auroc_train': [1.0], 'auprc_train': [1.0], 'f1_test': [0.7748426784519089], 'auroc_test': [0.8274423171330387], 'auprc_test': [0.9257920852467132]}
==========================================================================================
Layer (type:depth-idx)                   Output Shape              Param #
==========================================================================================
TAPPredictor                             [64, 1]                   --
├─Sequential: 1-1                        [64, 1]                   --
│    └─Conv1d: 2-1                       [64, 256, 1278]           1,536
│    └─BatchNorm1d: 2-2                  [64, 256, 1278]           512
│    └─Tanh: 2-3                         [64, 256, 1278]           --
│    └─MaxPool1d: 2-4                    [64, 256, 1274]           --
│    └─Dropout: 2-5                      [64, 256, 1274]           --
│    └─Flatten: 2-6                      [64, 326144]              --
│    └─Linear: 2-7                       [64, 1]                   326,145
==========================================================================================
Total params: 328,193
Trainable params: 328,193
Non-trainable params: 0
Total mult-adds (M): 146.54
==========================================================================================
Input size (MB): 0.33
Forward/backward pass size (MB): 335.02
Params size (MB): 1.31
Estimated Total Size (MB): 336.66
…
Time taken:  62.99445199966431
{'time_elapsed': [62.99445199966431], 'epoch': [72], 'fold': [0], 'f1_train': [0.9592424314665234], 'auroc_train': [0.9995707759757182], 'auprc_train': [0.9998110700421436], 'f1_test': [0.7911956149366222], 'auroc_test': [0.8269513991163475], 'auprc_test': [0.9265293689666603]}
==========================================================================================
Layer (type:depth-idx)                   Output Shape              Param #
==========================================================================================
TAPPredictor                             [64, 1]                   --
├─Sequential: 1-1                        [64, 1]                   --
│    └─Conv1d: 2-1                       [64, 256, 256]            1,536
│    └─BatchNorm1d: 2-2                  [64, 256, 256]            512
│    └─Tanh: 2-3                         [64, 256, 256]            --
│    └─MaxPool1d: 2-4                    [64, 256, 51]             --
│    └─Dropout: 2-5                      [64, 256, 51]             --
│    └─Flatten: 2-6                      [64, 13056]               --
│    └─Linear: 2-7                       [64, 1]                   13,057
==========================================================================================
Total params: 15,105
Trainable params: 15,105
Non-trainable params: 0
Total mult-adds (M): 26.03
==========================================================================================
Input size (MB): 0.33
Forward/backward pass size (MB): 67.11
Params size (MB): 0.06
Estimated Total Size (MB): 67.50
==========================================================================================
…
