…
Early stopping triggered
Early stopping triggered!
Time taken:  2059.214891910553
{'time_elapsed': [2059.214891910553], 'epoch': [72], 'fold': [0], 'f1_train': [1.0], 'auroc_train': [1.0], 'auprc_train': [1.0], 'f1_test': [0.7697841726618705], 'auroc_test': [0.8203240058910162], 'auprc_test': [0.9211110709428025]}
==========================================================================================
Layer (type:depth-idx)                   Output Shape              Param #
==========================================================================================
TAPPredictor                             [32, 1]                   --
├─Sequential: 1-1                        [32, 1]                   --
│    └─Conv1d: 2-1                       [32, 1024, 1278]          6,144
│    └─BatchNorm1d: 2-2                  [32, 1024, 1278]          2,048
│    └─Tanh: 2-3                         [32, 1024, 1278]          --
│    └─MaxPool1d: 2-4                    [32, 1024, 1274]          --
│    └─Dropout: 2-5                      [32, 1024, 1274]          --
│    └─Flatten: 2-6                      [32, 1304576]             --
│    └─Linear: 2-7                       [32, 1]                   1,304,577
==========================================================================================
Total params: 1,312,769
Trainable params: 1,312,769
Non-trainable params: 0
Total mult-adds (M): 293.08
==========================================================================================
Input size (MB): 0.16
Forward/backward pass size (MB): 670.04
Params size (MB): 5.25
Estimated Total Size (MB): 675.46
…
Early stopping triggered
Early stopping triggered!
Time taken:  179.71883511543274
{'time_elapsed': [179.71883511543274], 'epoch': [61], 'fold': [0], 'f1_train': [1.0], 'auroc_train': [1.0], 'auprc_train': [1.0], 'f1_test': [0.7569659388768054], 'auroc_test': [0.8146784486990672], 'auprc_test': [0.9178880370620057]}
==========================================================================================
Layer (type:depth-idx)                   Output Shape              Param #
==========================================================================================
TAPPredictor                             [32, 1]                   --
├─Sequential: 1-1                        [32, 1]                   --
│    └─Conv1d: 2-1                       [32, 1024, 256]           6,144
│    └─BatchNorm1d: 2-2                  [32, 1024, 256]           2,048
│    └─Tanh: 2-3                         [32, 1024, 256]           --
│    └─MaxPool1d: 2-4                    [32, 1024, 51]            --
│    └─Dropout: 2-5                      [32, 1024, 51]            --
│    └─Flatten: 2-6                      [32, 52224]               --
│    └─Linear: 2-7                       [32, 1]                   52,225
==========================================================================================
Total params: 60,417
Trainable params: 60,417
Non-trainable params: 0
Total mult-adds (M): 52.07
==========================================================================================
Input size (MB): 0.16
Forward/backward pass size (MB): 134.22
Params size (MB): 0.24
Estimated Total Size (MB): 134.62
==========================================================================================
…
