…
Time taken:  1053.6735746860504
{'time_elapsed': [1053.6735746860504], 'epoch': [68], 'fold': [0], 'f1_train': [0.903197223072378], 'auroc_train': [0.9689885642456388], 'auprc_train': [0.9856436370490428], 'f1_test': [0.7757738305193033], 'auroc_test': [0.8151693667157585], 'auprc_test': [0.917623967452868]}
==========================================================================================
Layer (type:depth-idx)                   Output Shape              Param #
==========================================================================================
TAPPredictor                             [32, 1]                   --
├─Sequential: 1-1                        [32, 1]                   --
│    └─Conv1d: 2-1                       [32, 512, 1276]           4,096
│    └─BatchNorm1d: 2-2                  [32, 512, 1276]           1,024
│    └─Tanh: 2-3                         [32, 512, 1276]           --
│    └─MaxPool1d: 2-4                    [32, 512, 1270]           --
│    └─Dropout: 2-5                      [32, 512, 1270]           --
│    └─Flatten: 2-6                      [32, 650240]              --
│    └─Linear: 2-7                       [32, 1]                   650,241
==========================================================================================
Total params: 655,361
Trainable params: 655,361
Non-trainable params: 0
Total mult-adds (M): 188.09
==========================================================================================
Input size (MB): 0.16
Forward/backward pass size (MB): 334.50
Params size (MB): 2.62
Estimated Total Size (MB): 337.28
…
Time taken:  509.91063499450684
{'time_elapsed': [509.91063499450684], 'epoch': [477], 'fold': [0], 'f1_train': [0.8860377827034772], 'auroc_train': [0.9647423122911365], 'auprc_train': [0.9831453428138852], 'f1_test': [0.743431836172277], 'auroc_test': [0.7994599901816398], 'auprc_test': [0.9107953751560539]}
==========================================================================================
Layer (type:depth-idx)                   Output Shape              Param #
==========================================================================================
TAPPredictor                             [32, 1]                   --
├─Sequential: 1-1                        [32, 1]                   --
│    └─Conv1d: 2-1                       [32, 512, 183]            4,096
│    └─BatchNorm1d: 2-2                  [32, 512, 183]            1,024
│    └─Tanh: 2-3                         [32, 512, 183]            --
│    └─MaxPool1d: 2-4                    [32, 512, 26]             --
│    └─Dropout: 2-5                      [32, 512, 26]             --
│    └─Flatten: 2-6                      [32, 13312]               --
│    └─Linear: 2-7                       [32, 1]                   13,313
==========================================================================================
Total params: 18,433
Trainable params: 18,433
Non-trainable params: 0
Total mult-adds (M): 24.44
==========================================================================================
Input size (MB): 0.16
Forward/backward pass size (MB): 47.97
Params size (MB): 0.07
Estimated Total Size (MB): 48.21
==========================================================================================
…
