…
Early stopping triggered
Early stopping triggered!
Time taken:  224.2730107307434
{'time_elapsed': [224.2730107307434], 'epoch': [69], 'fold': [0], 'f1_train': [1.0], 'auroc_train': [1.0], 'auprc_train': [1.0], 'f1_test': [0.7681512331200245], 'auroc_test': [0.8259695630829652], 'auprc_test': [0.9245202647537798]}
==========================================================================================
Layer (type:depth-idx)                   Output Shape              Param #
==========================================================================================
TAPPredictor                             [64, 1]                   --
├─Sequential: 1-1                        [64, 1]                   --
│    └─Conv1d: 2-1                       [64, 128, 1278]           768
│    └─BatchNorm1d: 2-2                  [64, 128, 1278]           256
│    └─Tanh: 2-3                         [64, 128, 1278]           --
│    └─MaxPool1d: 2-4                    [64, 128, 1274]           --
│    └─Dropout: 2-5                      [64, 128, 1274]           --
│    └─Flatten: 2-6                      [64, 163072]              --
│    └─Linear: 2-7                       [64, 1]                   163,073
==========================================================================================
Total params: 164,097
Trainable params: 164,097
Non-trainable params: 0
Total mult-adds (M): 73.27
==========================================================================================
Input size (MB): 0.33
Forward/backward pass size (MB): 167.51
Params size (MB): 0.66
Estimated Total Size (MB): 168.49
…
Time taken:  25.598451852798462
{'time_elapsed': [25.598451852798462], 'epoch': [76], 'fold': [0], 'f1_train': [0.9750434621476838], 'auroc_train': [0.9994328111107704], 'auprc_train': [0.9997594220007499], 'f1_test': [0.7552115339652351], 'auroc_test': [0.8107511045655376], 'auprc_test': [0.9153222383958783]}
==========================================================================================
Layer (type:depth-idx)                   Output Shape              Param #
==========================================================================================
TAPPredictor                             [64, 1]                   --
├─Sequential: 1-1                        [64, 1]                   --
│    └─Conv1d: 2-1                       [64, 128, 256]            768
│    └─BatchNorm1d: 2-2                  [64, 128, 256]            256
│    └─Tanh: 2-3                         [64, 128, 256]            --
│    └─MaxPool1d: 2-4                    [64, 128, 51]             --
│    └─Dropout: 2-5                      [64, 128, 51]             --
│    └─Flatten: 2-6                      [64, 6528]                --
│    └─Linear: 2-7                       [64, 1]                   6,529
==========================================================================================
Total params: 7,553
Trainable params: 7,553
Non-trainable params: 0
Total mult-adds (M): 13.02
==========================================================================================
Input size (MB): 0.33
Forward/backward pass size (MB): 33.55
Params size (MB): 0.03
Estimated Total Size (MB): 33.91
==========================================================================================
…
