…
Time taken:  3905.7720012664795
{'time_elapsed': [3905.7720012664795], 'epoch': [131], 'fold': [0], 'f1_train': [0.8810339380688336], 'auroc_train': [0.9539197351074593], 'auprc_train': [0.9790848813075602], 'f1_test': [0.7552115339652351], 'auroc_test': [0.8127147766323024], 'auprc_test': [0.9172351936537353]}
==========================================================================================
Layer (type:depth-idx)                   Output Shape              Param #
==========================================================================================
TAPPredictor                             [64, 1]                   --
├─Sequential: 1-1                        [64, 1]                   --
│    └─Conv1d: 2-1                       [64, 1024, 1276]          8,192
│    └─BatchNorm1d: 2-2                  [64, 1024, 1276]          2,048
│    └─Tanh: 2-3                         [64, 1024, 1276]          --
│    └─MaxPool1d: 2-4                    [64, 1024, 1270]          --
│    └─Dropout: 2-5                      [64, 1024, 1270]          --
│    └─Flatten: 2-6                      [64, 1300480]             --
│    └─Linear: 2-7                       [64, 1]                   1,300,481
==========================================================================================
Total params: 1,310,721
Trainable params: 1,310,721
Non-trainable params: 0
Total mult-adds (M): 752.35
==========================================================================================
Input size (MB): 0.33
Forward/backward pass size (MB): 1337.98
Params size (MB): 5.24
Estimated Total Size (MB): 1343.55
…
EarlyStopping counter: 44 out of 50
epoch:  498
epoch:  499 val_f1:  0.7362024088594293 val_auroc:  0.7994599901816396 val_auprc:  0.9076164306911998
EarlyStopping counter: 45 out of 50
epoch:  499
epoch:  500 val_f1:  0.730071543320129 val_auroc:  0.7999509081983309 val_auprc:  0.9080134561908015
EarlyStopping counter: 46 out of 50
==========================================================================================
Layer (type:depth-idx)                   Output Shape              Param #
==========================================================================================
TAPPredictor                             [64, 1]                   --
├─Sequential: 1-1                        [64, 1]                   --
│    └─Conv1d: 2-1                       [64, 1024, 183]           8,192
│    └─BatchNorm1d: 2-2                  [64, 1024, 183]           2,048
│    └─Tanh: 2-3                         [64, 1024, 183]           --
│    └─MaxPool1d: 2-4                    [64, 1024, 26]            --
│    └─Dropout: 2-5                      [64, 1024, 26]            --
│    └─Flatten: 2-6                      [64, 26624]               --
│    └─Linear: 2-7                       [64, 1]                   26,625
==========================================================================================
Total params: 36,865
Trainable params: 36,865
Non-trainable params: 0
Total mult-adds (M): 97.78
==========================================================================================
Input size (MB): 0.33
Forward/backward pass size (MB): 191.89
Params size (MB): 0.15
Estimated Total Size (MB): 192.37
==========================================================================================
…
