…
Time taken:  367.007807970047
{'time_elapsed': [367.007807970047], 'epoch': [103], 'fold': [0], 'f1_train': [0.8351616525631067], 'auroc_train': [0.9377165281908207], 'auprc_train': [0.971887797865546], 'f1_test': [0.7506155503404762], 'auroc_test': [0.8058419243986255], 'auprc_test': [0.9114593206924682]}
==========================================================================================
Layer (type:depth-idx)                   Output Shape              Param #
==========================================================================================
TAPPredictor                             [64, 1]                   --
├─Sequential: 1-1                        [64, 1]                   --
│    └─Conv1d: 2-1                       [64, 128, 1276]           1,024
│    └─BatchNorm1d: 2-2                  [64, 128, 1276]           256
│    └─Tanh: 2-3                         [64, 128, 1276]           --
│    └─MaxPool1d: 2-4                    [64, 128, 1270]           --
│    └─Dropout: 2-5                      [64, 128, 1270]           --
│    └─Flatten: 2-6                      [64, 162560]              --
│    └─Linear: 2-7                       [64, 1]                   162,561
==========================================================================================
Total params: 163,841
Trainable params: 163,841
Non-trainable params: 0
Total mult-adds (M): 94.04
==========================================================================================
Input size (MB): 0.33
Forward/backward pass size (MB): 167.25
Params size (MB): 0.66
Estimated Total Size (MB): 168.23
…
EarlyStopping counter: 1 out of 50
epoch:  498
epoch:  499 val_f1:  0.6960581600537912 val_auroc:  0.7491408934707904 val_auprc:  0.8661632316819898
EarlyStopping counter: 2 out of 50
epoch:  499
epoch:  500 val_f1:  0.6960581600537912 val_auroc:  0.7496318114874815 val_auprc:  0.8667828461197932
EarlyStopping counter: 3 out of 50
==========================================================================================
Layer (type:depth-idx)                   Output Shape              Param #
==========================================================================================
TAPPredictor                             [64, 1]                   --
├─Sequential: 1-1                        [64, 1]                   --
│    └─Conv1d: 2-1                       [64, 128, 183]            1,024
│    └─BatchNorm1d: 2-2                  [64, 128, 183]            256
│    └─Tanh: 2-3                         [64, 128, 183]            --
│    └─MaxPool1d: 2-4                    [64, 128, 26]             --
│    └─Dropout: 2-5                      [64, 128, 26]             --
│    └─Flatten: 2-6                      [64, 3328]                --
│    └─Linear: 2-7                       [64, 1]                   3,329
==========================================================================================
Total params: 4,609
Trainable params: 4,609
Non-trainable params: 0
Total mult-adds (M): 12.22
==========================================================================================
Input size (MB): 0.33
Forward/backward pass size (MB): 23.99
Params size (MB): 0.02
Estimated Total Size (MB): 24.33
==========================================================================================
…
