…
Time taken:  569.362726688385
{'time_elapsed': [569.362726688385], 'epoch': [85], 'fold': [0], 'f1_train': [0.8704287190082645], 'auroc_train': [0.9433884170831162], 'auprc_train': [0.9738998953954711], 'f1_test': [0.7420910227448273], 'auroc_test': [0.8151693667157585], 'auprc_test': [0.9187645904943181]}
==========================================================================================
Layer (type:depth-idx)                   Output Shape              Param #
==========================================================================================
TAPPredictor                             [64, 1]                   --
├─Sequential: 1-1                        [64, 1]                   --
│    └─Conv1d: 2-1                       [64, 256, 1280]           1,024
│    └─BatchNorm1d: 2-2                  [64, 256, 1280]           512
│    └─Tanh: 2-3                         [64, 256, 1280]           --
│    └─MaxPool1d: 2-4                    [64, 256, 1278]           --
│    └─Dropout: 2-5                      [64, 256, 1278]           --
│    └─Flatten: 2-6                      [64, 327168]              --
│    └─Linear: 2-7                       [64, 1]                   327,169
==========================================================================================
Total params: 328,705
Trainable params: 328,705
Non-trainable params: 0
Total mult-adds (M): 104.86
==========================================================================================
Input size (MB): 0.33
Forward/backward pass size (MB): 335.54
Params size (MB): 1.31
Estimated Total Size (MB): 337.19
…
Time taken:  341.5216965675354
{'time_elapsed': [341.5216965675354], 'epoch': [278], 'fold': [0], 'f1_train': [0.8516895956290379], 'auroc_train': [0.9310022380966981], 'auprc_train': [0.967390943942551], 'f1_test': [0.7412236216203913], 'auroc_test': [0.8136966126656847], 'auprc_test': [0.9180856683611288]}
==========================================================================================
Layer (type:depth-idx)                   Output Shape              Param #
==========================================================================================
TAPPredictor                             [64, 1]                   --
├─Sequential: 1-1                        [64, 1]                   --
│    └─Conv1d: 2-1                       [64, 256, 427]            1,024
│    └─BatchNorm1d: 2-2                  [64, 256, 427]            512
│    └─Tanh: 2-3                         [64, 256, 427]            --
│    └─MaxPool1d: 2-4                    [64, 256, 142]            --
│    └─Dropout: 2-5                      [64, 256, 142]            --
│    └─Flatten: 2-6                      [64, 36352]               --
│    └─Linear: 2-7                       [64, 1]                   36,353
==========================================================================================
Total params: 37,889
Trainable params: 37,889
Non-trainable params: 0
Total mult-adds (M): 30.34
==========================================================================================
Input size (MB): 0.33
Forward/backward pass size (MB): 111.94
Params size (MB): 0.15
Estimated Total Size (MB): 112.42
==========================================================================================
…
