…
Time taken:  1413.5853216648102
{'time_elapsed': [1413.5853216648102], 'epoch': [50], 'fold': [0], 'f1_train': [0.9002371794095934], 'auroc_train': [0.9733267927767728], 'auprc_train': [0.9873567832466019], 'f1_test': [0.770628190185282], 'auroc_test': [0.8249877270495828], 'auprc_test': [0.9227643062199093]}
==========================================================================================
Layer (type:depth-idx)                   Output Shape              Param #
==========================================================================================
TAPPredictor                             [32, 1]                   --
├─Sequential: 1-1                        [32, 1]                   --
│    └─Conv1d: 2-1                       [32, 1024, 1280]          4,096
│    └─BatchNorm1d: 2-2                  [32, 1024, 1280]          2,048
│    └─Tanh: 2-3                         [32, 1024, 1280]          --
│    └─MaxPool1d: 2-4                    [32, 1024, 1278]          --
│    └─Dropout: 2-5                      [32, 1024, 1278]          --
│    └─Flatten: 2-6                      [32, 1308672]             --
│    └─Linear: 2-7                       [32, 1]                   1,308,673
==========================================================================================
Total params: 1,314,817
Trainable params: 1,314,817
Non-trainable params: 0
Total mult-adds (M): 209.72
==========================================================================================
Input size (MB): 0.16
Forward/backward pass size (MB): 671.09
Params size (MB): 5.26
Estimated Total Size (MB): 676.51
…
Time taken:  759.6666283607483
{'time_elapsed': [759.6666283607483], 'epoch': [135], 'fold': [0], 'f1_train': [0.8912482056678165], 'auroc_train': [0.9654014777569978], 'auprc_train': [0.9837321695216028], 'f1_test': [0.748656020238754], 'auroc_test': [0.8173784977908689], 'auprc_test': [0.920887073664757]}
==========================================================================================
Layer (type:depth-idx)                   Output Shape              Param #
==========================================================================================
TAPPredictor                             [32, 1]                   --
├─Sequential: 1-1                        [32, 1]                   --
│    └─Conv1d: 2-1                       [32, 1024, 427]           4,096
│    └─BatchNorm1d: 2-2                  [32, 1024, 427]           2,048
│    └─Tanh: 2-3                         [32, 1024, 427]           --
│    └─MaxPool1d: 2-4                    [32, 1024, 142]           --
│    └─Dropout: 2-5                      [32, 1024, 142]           --
│    └─Flatten: 2-6                      [32, 145408]              --
│    └─Linear: 2-7                       [32, 1]                   145,409
==========================================================================================
Total params: 151,553
Trainable params: 151,553
Non-trainable params: 0
Total mult-adds (M): 60.69
==========================================================================================
Input size (MB): 0.16
Forward/backward pass size (MB): 223.87
Params size (MB): 0.61
Estimated Total Size (MB): 224.64
…
