…
Time taken:  885.2058482170105
{'time_elapsed': [885.2058482170105], 'epoch': [59], 'fold': [0], 'f1_train': [0.989206945677534], 'auroc_train': [0.9996934114112273], 'auprc_train': [0.9998648933700901], 'f1_test': [0.7762067639678805], 'auroc_test': [0.8183603338242513], 'auprc_test': [0.921400569607525]}
==========================================================================================
Layer (type:depth-idx)                   Output Shape              Param #
==========================================================================================
TAPPredictor                             [64, 1]                   --
├─Sequential: 1-1                        [64, 1]                   --
│    └─Conv1d: 2-1                       [64, 512, 1276]           4,096
│    └─BatchNorm1d: 2-2                  [64, 512, 1276]           1,024
│    └─Tanh: 2-3                         [64, 512, 1276]           --
│    └─MaxPool1d: 2-4                    [64, 512, 1270]           --
│    └─Dropout: 2-5                      [64, 512, 1270]           --
│    └─Flatten: 2-6                      [64, 650240]              --
│    └─Linear: 2-7                       [64, 1]                   650,241
==========================================================================================
Total params: 655,361
Trainable params: 655,361
Non-trainable params: 0
Total mult-adds (M): 376.18
==========================================================================================
Input size (MB): 0.33
Forward/backward pass size (MB): 668.99
Params size (MB): 2.62
Estimated Total Size (MB): 671.94
…
Time taken:  80.52996587753296
{'time_elapsed': [80.52996587753296], 'epoch': [84], 'fold': [0], 'f1_train': [0.9963963963963964], 'auroc_train': [0.9999693411411228], 'auprc_train': [0.9999866287592856], 'f1_test': [0.7505653177403916], 'auroc_test': [0.81173294059892], 'auprc_test': [0.9170116811389445]}
==========================================================================================
Layer (type:depth-idx)                   Output Shape              Param #
==========================================================================================
TAPPredictor                             [64, 1]                   --
├─Sequential: 1-1                        [64, 1]                   --
│    └─Conv1d: 2-1                       [64, 512, 183]            4,096
│    └─BatchNorm1d: 2-2                  [64, 512, 183]            1,024
│    └─Tanh: 2-3                         [64, 512, 183]            --
│    └─MaxPool1d: 2-4                    [64, 512, 26]             --
│    └─Dropout: 2-5                      [64, 512, 26]             --
│    └─Flatten: 2-6                      [64, 13312]               --
│    └─Linear: 2-7                       [64, 1]                   13,313
==========================================================================================
Total params: 18,433
Trainable params: 18,433
Non-trainable params: 0
Total mult-adds (M): 48.89
==========================================================================================
Input size (MB): 0.33
Forward/backward pass size (MB): 95.95
Params size (MB): 0.07
Estimated Total Size (MB): 96.35
==========================================================================================
…
