…
Time taken:  2003.6810653209686
{'time_elapsed': [2003.6810653209686], 'epoch': [130], 'fold': [0], 'f1_train': [0.8861384612154076], 'auroc_train': [0.9539044056780207], 'auprc_train': [0.9789701580383239], 'f1_test': [0.7560320485424044], 'auroc_test': [0.8085419734904271], 'auprc_test': [0.9135298498363921]}
==========================================================================================
Layer (type:depth-idx)                   Output Shape              Param #
==========================================================================================
TAPPredictor                             [64, 1]                   --
├─Sequential: 1-1                        [64, 1]                   --
│    └─Conv1d: 2-1                       [64, 512, 1276]           4,096
│    └─BatchNorm1d: 2-2                  [64, 512, 1276]           1,024
│    └─Tanh: 2-3                         [64, 512, 1276]           --
│    └─MaxPool1d: 2-4                    [64, 512, 1270]           --
│    └─Dropout: 2-5                      [64, 512, 1270]           --
│    └─Flatten: 2-6                      [64, 650240]              --
│    └─Linear: 2-7                       [64, 1]                   650,241
==========================================================================================
Total params: 655,361
Trainable params: 655,361
Non-trainable params: 0
Total mult-adds (M): 376.18
==========================================================================================
Input size (MB): 0.33
Forward/backward pass size (MB): 668.99
Params size (MB): 2.62
Estimated Total Size (MB): 671.94
…
EarlyStopping counter: 4 out of 50
epoch:  498
epoch:  499 val_f1:  0.7095299887411026 val_auroc:  0.7876779577810505 val_auprc:  0.8983262878107914
EarlyStopping counter: 5 out of 50
epoch:  499
epoch:  500 val_f1:  0.7028070029525513 val_auroc:  0.7884143348060875 val_auprc:  0.8986747819182839
EarlyStopping counter: 6 out of 50
==========================================================================================
Layer (type:depth-idx)                   Output Shape              Param #
==========================================================================================
TAPPredictor                             [64, 1]                   --
├─Sequential: 1-1                        [64, 1]                   --
│    └─Conv1d: 2-1                       [64, 512, 183]            4,096
│    └─BatchNorm1d: 2-2                  [64, 512, 183]            1,024
│    └─Tanh: 2-3                         [64, 512, 183]            --
│    └─MaxPool1d: 2-4                    [64, 512, 26]             --
│    └─Dropout: 2-5                      [64, 512, 26]             --
│    └─Flatten: 2-6                      [64, 13312]               --
│    └─Linear: 2-7                       [64, 1]                   13,313
==========================================================================================
Total params: 18,433
Trainable params: 18,433
Non-trainable params: 0
Total mult-adds (M): 48.89
==========================================================================================
Input size (MB): 0.33
Forward/backward pass size (MB): 95.95
Params size (MB): 0.07
Estimated Total Size (MB): 96.35
==========================================================================================
…
