…
Time taken:  557.6152288913727
{'time_elapsed': [557.6152288913727], 'epoch': [79], 'fold': [0], 'f1_train': [0.8655508120266292], 'auroc_train': [0.9468681975656866], 'auprc_train': [0.9756122901204289], 'f1_test': [0.743431836172277], 'auroc_test': [0.8124693176239568], 'auprc_test': [0.9177851114134732]}
==========================================================================================
Layer (type:depth-idx)                   Output Shape              Param #
==========================================================================================
TAPPredictor                             [64, 1]                   --
├─Sequential: 1-1                        [64, 1]                   --
│    └─Conv1d: 2-1                       [64, 256, 1280]           1,024
│    └─BatchNorm1d: 2-2                  [64, 256, 1280]           512
│    └─Tanh: 2-3                         [64, 256, 1280]           --
│    └─MaxPool1d: 2-4                    [64, 256, 1278]           --
│    └─Dropout: 2-5                      [64, 256, 1278]           --
│    └─Flatten: 2-6                      [64, 327168]              --
│    └─Linear: 2-7                       [64, 1]                   327,169
==========================================================================================
Total params: 328,705
Trainable params: 328,705
Non-trainable params: 0
Total mult-adds (M): 104.86
==========================================================================================
Input size (MB): 0.33
Forward/backward pass size (MB): 335.54
Params size (MB): 1.31
Estimated Total Size (MB): 337.19
…
Time taken:  439.7596220970154
{'time_elapsed': [439.7596220970154], 'epoch': [337], 'fold': [0], 'f1_train': [0.8602602602602601], 'auroc_train': [0.9441395591256093], 'auprc_train': [0.9739069094612147], 'f1_test': [0.7362024088594293], 'auroc_test': [0.812960235640648], 'auprc_test': [0.9180593068310111]}
==========================================================================================
Layer (type:depth-idx)                   Output Shape              Param #
==========================================================================================
TAPPredictor                             [64, 1]                   --
├─Sequential: 1-1                        [64, 1]                   --
│    └─Conv1d: 2-1                       [64, 256, 427]            1,024
│    └─BatchNorm1d: 2-2                  [64, 256, 427]            512
│    └─Tanh: 2-3                         [64, 256, 427]            --
│    └─MaxPool1d: 2-4                    [64, 256, 142]            --
│    └─Dropout: 2-5                      [64, 256, 142]            --
│    └─Flatten: 2-6                      [64, 36352]               --
│    └─Linear: 2-7                       [64, 1]                   36,353
==========================================================================================
Total params: 37,889
Trainable params: 37,889
Non-trainable params: 0
Total mult-adds (M): 30.34
==========================================================================================
Input size (MB): 0.33
Forward/backward pass size (MB): 111.94
Params size (MB): 0.15
Estimated Total Size (MB): 112.42
==========================================================================================
…
