…
Time taken:  790.4857897758484
{'time_elapsed': [790.4857897758484], 'epoch': [55], 'fold': [0], 'f1_train': [0.9838491217944695], 'auroc_train': [0.9988349633626636], 'auprc_train': [0.9994483099951101], 'f1_test': [0.7617684906754855], 'auroc_test': [0.8227785959744723], 'auprc_test': [0.9245736663334492]}
==========================================================================================
Layer (type:depth-idx)                   Output Shape              Param #
==========================================================================================
TAPPredictor                             [32, 1]                   --
├─Sequential: 1-1                        [32, 1]                   --
│    └─Conv1d: 2-1                       [32, 128, 1278]           768
│    └─BatchNorm1d: 2-2                  [32, 128, 1278]           256
│    └─Tanh: 2-3                         [32, 128, 1278]           --
│    └─MaxPool1d: 2-4                    [32, 128, 1274]           --
│    └─Dropout: 2-5                      [32, 128, 1274]           --
│    └─Conv1d: 2-6                       [32, 128, 1272]           82,048
│    └─BatchNorm1d: 2-7                  [32, 128, 1272]           256
│    └─Tanh: 2-8                         [32, 128, 1272]           --
│    └─MaxPool1d: 2-9                    [32, 128, 1268]           --
│    └─Dropout: 2-10                     [32, 128, 1268]           --
│    └─Conv1d: 2-11                      [32, 128, 1266]           82,048
│    └─BatchNorm1d: 2-12                 [32, 128, 1266]           256
│    └─Tanh: 2-13                        [32, 128, 1266]           --
│    └─MaxPool1d: 2-14                   [32, 128, 1262]           --
│    └─Dropout: 2-15                     [32, 128, 1262]           --
│    └─Flatten: 2-16                     [32, 161536]              --
│    └─Linear: 2-17                      [32, 1]                   161,537
==========================================================================================
Total params: 327,169
Trainable params: 327,169
Non-trainable params: 0
Total mult-adds (G): 6.70
==========================================================================================
Input size (MB): 0.16
Forward/backward pass size (MB): 250.09
Params size (MB): 1.31
Estimated Total Size (MB): 251.56
==========================================================================================
…
