…
Time taken:  172.59679102897644
{'time_elapsed': [172.59679102897644], 'epoch': [50], 'fold': [0], 'f1_train': [0.8279881588558686], 'auroc_train': [0.9272311984547936], 'auprc_train': [0.9662428666432384], 'f1_test': [0.7169009504644194], 'auroc_test': [0.8163966617574866], 'auprc_test': [0.9168050002354923]}
==========================================================================================
Layer (type:depth-idx)                   Output Shape              Param #
==========================================================================================
TAPPredictor                             [64, 1]                   --
├─Sequential: 1-1                        [64, 1]                   --
│    └─Conv1d: 2-1                       [64, 128, 1280]           512
│    └─BatchNorm1d: 2-2                  [64, 128, 1280]           256
│    └─Tanh: 2-3                         [64, 128, 1280]           --
│    └─MaxPool1d: 2-4                    [64, 128, 1278]           --
│    └─Dropout: 2-5                      [64, 128, 1278]           --
│    └─Flatten: 2-6                      [64, 163584]              --
│    └─Linear: 2-7                       [64, 1]                   163,585
==========================================================================================
Total params: 164,353
Trainable params: 164,353
Non-trainable params: 0
Total mult-adds (M): 52.43
==========================================================================================
Input size (MB): 0.33
Forward/backward pass size (MB): 167.77
Params size (MB): 0.66
Estimated Total Size (MB): 168.76
…
Time taken:  237.13304686546326
{'time_elapsed': [237.13304686546326], 'epoch': [384], 'fold': [0], 'f1_train': [0.8480898785235939], 'auroc_train': [0.9356163963577276], 'auprc_train': [0.9697199900518707], 'f1_test': [0.7633550302615051], 'auroc_test': [0.812960235640648], 'auprc_test': [0.9173640441747285]}
==========================================================================================
Layer (type:depth-idx)                   Output Shape              Param #
==========================================================================================
TAPPredictor                             [64, 1]                   --
├─Sequential: 1-1                        [64, 1]                   --
│    └─Conv1d: 2-1                       [64, 128, 427]            512
│    └─BatchNorm1d: 2-2                  [64, 128, 427]            256
│    └─Tanh: 2-3                         [64, 128, 427]            --
│    └─MaxPool1d: 2-4                    [64, 128, 142]            --
│    └─Dropout: 2-5                      [64, 128, 142]            --
│    └─Flatten: 2-6                      [64, 18176]               --
│    └─Linear: 2-7                       [64, 1]                   18,177
==========================================================================================
Total params: 18,945
Trainable params: 18,945
Non-trainable params: 0
Total mult-adds (M): 15.17
==========================================================================================
Input size (MB): 0.33
Forward/backward pass size (MB): 55.97
Params size (MB): 0.08
Estimated Total Size (MB): 56.37
==========================================================================================
…
