…
Early stopping triggered!
Time taken:  1259.3824729919434
{'time_elapsed': [1259.3824729919434], 'epoch': [93], 'fold': [0], 'f1_train': [0.8096675522090929], 'auroc_train': [1.0], 'auprc_train': [1.0], 'f1_test': [0.6802976282278086], 'auroc_test': [0.8252331860579283], 'auprc_test': [0.9204541701456439]}
==========================================================================================
Layer (type:depth-idx)                   Output Shape              Param #
==========================================================================================
TAPPredictor                             [64, 1]                   --
├─Sequential: 1-1                        [64, 1]                   --
│    └─Conv1d: 2-1                       [64, 512, 1280]           2,048
│    └─BatchNorm1d: 2-2                  [64, 512, 1280]           1,024
│    └─Tanh: 2-3                         [64, 512, 1280]           --
│    └─MaxPool1d: 2-4                    [64, 512, 1278]           --
│    └─Dropout: 2-5                      [64, 512, 1278]           --
│    └─Flatten: 2-6                      [64, 654336]              --
│    └─Linear: 2-7                       [64, 1]                   654,337
==========================================================================================
Total params: 657,409
Trainable params: 657,409
Non-trainable params: 0
Total mult-adds (M): 209.72
==========================================================================================
Input size (MB): 0.33
Forward/backward pass size (MB): 671.09
Params size (MB): 2.63
Estimated Total Size (MB): 674.05
…
Early stopping triggered!
Time taken:  175.2733027935028
{'time_elapsed': [175.2733027935028], 'epoch': [59], 'fold': [0], 'f1_train': [0.9892411295259068], 'auroc_train': [1.0], 'auprc_train': [1.0], 'f1_test': [0.7313689473952751], 'auroc_test': [0.8136966126656848], 'auprc_test': [0.9166337089070291]}
==========================================================================================
Layer (type:depth-idx)                   Output Shape              Param #
==========================================================================================
TAPPredictor                             [64, 1]                   --
├─Sequential: 1-1                        [64, 1]                   --
│    └─Conv1d: 2-1                       [64, 512, 427]            2,048
│    └─BatchNorm1d: 2-2                  [64, 512, 427]            1,024
│    └─Tanh: 2-3                         [64, 512, 427]            --
│    └─MaxPool1d: 2-4                    [64, 512, 142]            --
│    └─Dropout: 2-5                      [64, 512, 142]            --
│    └─Flatten: 2-6                      [64, 72704]               --
│    └─Linear: 2-7                       [64, 1]                   72,705
==========================================================================================
Total params: 75,777
Trainable params: 75,777
Non-trainable params: 0
Total mult-adds (M): 60.69
==========================================================================================
Input size (MB): 0.33
Forward/backward pass size (MB): 223.87
Params size (MB): 0.30
Estimated Total Size (MB): 224.50
==========================================================================================
…
