…
Time taken:  2360.66024851799
{'time_elapsed': [2360.66024851799], 'epoch': [86], 'fold': [0], 'f1_train': [0.781962325962326], 'auroc_train': [0.9321979335929116], 'auprc_train': [0.9688202053852413], 'f1_test': [0.7029258641632973], 'auroc_test': [0.8208149239077074], 'auprc_test': [0.9208523343556427]}
==========================================================================================
Layer (type:depth-idx)                   Output Shape              Param #
==========================================================================================
TAPPredictor                             [64, 1]                   --
├─Sequential: 1-1                        [64, 1]                   --
│    └─Conv1d: 2-1                       [64, 1024, 1280]          4,096
│    └─BatchNorm1d: 2-2                  [64, 1024, 1280]          2,048
│    └─Tanh: 2-3                         [64, 1024, 1280]          --
│    └─MaxPool1d: 2-4                    [64, 1024, 1278]          --
│    └─Dropout: 2-5                      [64, 1024, 1278]          --
│    └─Flatten: 2-6                      [64, 1308672]             --
│    └─Linear: 2-7                       [64, 1]                   1,308,673
==========================================================================================
Total params: 1,314,817
Trainable params: 1,314,817
Non-trainable params: 0
Total mult-adds (M): 419.43
==========================================================================================
Input size (MB): 0.33
Forward/backward pass size (MB): 1342.18
Params size (MB): 5.26
Estimated Total Size (MB): 1347.76
…
Time taken:  1182.4284143447876
{'time_elapsed': [1182.4284143447876], 'epoch': [224], 'fold': [0], 'f1_train': [0.833319144928901], 'auroc_train': [0.9333476408008093], 'auprc_train': [0.968842233857512], 'f1_test': [0.7169009504644194], 'auroc_test': [0.8146784486990674], 'auprc_test': [0.918638366969724]}
==========================================================================================
Layer (type:depth-idx)                   Output Shape              Param #
==========================================================================================
TAPPredictor                             [64, 1]                   --
├─Sequential: 1-1                        [64, 1]                   --
│    └─Conv1d: 2-1                       [64, 1024, 427]           4,096
│    └─BatchNorm1d: 2-2                  [64, 1024, 427]           2,048
│    └─Tanh: 2-3                         [64, 1024, 427]           --
│    └─MaxPool1d: 2-4                    [64, 1024, 142]           --
│    └─Dropout: 2-5                      [64, 1024, 142]           --
│    └─Flatten: 2-6                      [64, 145408]              --
│    └─Linear: 2-7                       [64, 1]                   145,409
==========================================================================================
Total params: 151,553
Trainable params: 151,553
Non-trainable params: 0
Total mult-adds (M): 121.37
==========================================================================================
Input size (MB): 0.33
Forward/backward pass size (MB): 447.74
Params size (MB): 0.61
Estimated Total Size (MB): 448.68
…
