…
Time taken:  525.0022201538086
{'time_elapsed': [525.0022201538086], 'epoch': [59], 'fold': [0], 'f1_train': [0.9382667944927252], 'auroc_train': [0.9899132354293774], 'auprc_train': [0.9951935307062382], 'f1_test': [0.7823449348629204], 'auroc_test': [0.8134511536573392], 'auprc_test': [0.9185068857044658]}
==========================================================================================
Layer (type:depth-idx)                   Output Shape              Param #
==========================================================================================
TAPPredictor                             [32, 1]                   --
├─Sequential: 1-1                        [32, 1]                   --
│    └─Conv1d: 2-1                       [32, 128, 1278]           768
│    └─BatchNorm1d: 2-2                  [32, 128, 1278]           256
│    └─Tanh: 2-3                         [32, 128, 1278]           --
│    └─MaxPool1d: 2-4                    [32, 128, 1274]           --
│    └─Dropout: 2-5                      [32, 128, 1274]           --
│    └─Conv1d: 2-6                       [32, 128, 1272]           82,048
│    └─BatchNorm1d: 2-7                  [32, 128, 1272]           256
│    └─Tanh: 2-8                         [32, 128, 1272]           --
│    └─MaxPool1d: 2-9                    [32, 128, 1268]           --
│    └─Dropout: 2-10                     [32, 128, 1268]           --
│    └─Flatten: 2-11                     [32, 162304]              --
│    └─Linear: 2-12                      [32, 1]                   162,305
==========================================================================================
Total params: 245,633
Trainable params: 245,633
Non-trainable params: 0
Total mult-adds (G): 3.38
==========================================================================================
Input size (MB): 0.16
Forward/backward pass size (MB): 167.12
Params size (MB): 0.98
Estimated Total Size (MB): 168.26
==========================================================================================
…
