…
Early stopping triggered
Early stopping triggered!
Time taken:  431.326712846756
{'time_elapsed': [431.326712846756], 'epoch': [58], 'fold': [0], 'f1_train': [1.0], 'auroc_train': [1.0], 'auprc_train': [1.0], 'f1_test': [0.7790721385700611], 'auroc_test': [0.8230240549828178], 'auprc_test': [0.9228149587925839]}
==========================================================================================
Layer (type:depth-idx)                   Output Shape              Param #
==========================================================================================
TAPPredictor                             [32, 1]                   --
├─Sequential: 1-1                        [32, 1]                   --
│    └─Conv1d: 2-1                       [32, 256, 1278]           1,536
│    └─BatchNorm1d: 2-2                  [32, 256, 1278]           512
│    └─Tanh: 2-3                         [32, 256, 1278]           --
│    └─MaxPool1d: 2-4                    [32, 256, 1274]           --
│    └─Dropout: 2-5                      [32, 256, 1274]           --
│    └─Flatten: 2-6                      [32, 326144]              --
│    └─Linear: 2-7                       [32, 1]                   326,145
==========================================================================================
Total params: 328,193
Trainable params: 328,193
Non-trainable params: 0
Total mult-adds (M): 73.27
==========================================================================================
Input size (MB): 0.16
Forward/backward pass size (MB): 167.51
Params size (MB): 1.31
Estimated Total Size (MB): 168.99
…
Early stopping triggered
Early stopping triggered!
Time taken:  50.08459115028381
{'time_elapsed': [50.08459115028381], 'epoch': [68], 'fold': [0], 'f1_train': [1.0], 'auroc_train': [1.0], 'auprc_train': [1.0], 'f1_test': [0.7410071942446043], 'auroc_test': [0.8176239567992145], 'auprc_test': [0.9197125477735949]}
==========================================================================================
Layer (type:depth-idx)                   Output Shape              Param #
==========================================================================================
TAPPredictor                             [32, 1]                   --
├─Sequential: 1-1                        [32, 1]                   --
│    └─Conv1d: 2-1                       [32, 256, 256]            1,536
│    └─BatchNorm1d: 2-2                  [32, 256, 256]            512
│    └─Tanh: 2-3                         [32, 256, 256]            --
│    └─MaxPool1d: 2-4                    [32, 256, 51]             --
│    └─Dropout: 2-5                      [32, 256, 51]             --
│    └─Flatten: 2-6                      [32, 13056]               --
│    └─Linear: 2-7                       [32, 1]                   13,057
==========================================================================================
Total params: 15,105
Trainable params: 15,105
Non-trainable params: 0
Total mult-adds (M): 13.02
==========================================================================================
Input size (MB): 0.16
Forward/backward pass size (MB): 33.55
Params size (MB): 0.06
Estimated Total Size (MB): 33.78
==========================================================================================
…
