…
Time taken:  1010.1398231983185
{'time_elapsed': [1010.1398231983185], 'epoch': [68], 'fold': [0], 'f1_train': [0.9256768933029069], 'auroc_train': [0.9795352116994205], 'auprc_train': [0.9904063533469218], 'f1_test': [0.7890919075230509], 'auroc_test': [0.8154148257241041], 'auprc_test': [0.9171350303678474]}
==========================================================================================
Layer (type:depth-idx)                   Output Shape              Param #
==========================================================================================
TAPPredictor                             [32, 1]                   --
├─Sequential: 1-1                        [32, 1]                   --
│    └─Conv1d: 2-1                       [32, 512, 1278]           3,072
│    └─BatchNorm1d: 2-2                  [32, 512, 1278]           1,024
│    └─Tanh: 2-3                         [32, 512, 1278]           --
│    └─MaxPool1d: 2-4                    [32, 512, 1274]           --
│    └─Dropout: 2-5                      [32, 512, 1274]           --
│    └─Flatten: 2-6                      [32, 652288]              --
│    └─Linear: 2-7                       [32, 1]                   652,289
==========================================================================================
Total params: 656,385
Trainable params: 656,385
Non-trainable params: 0
Total mult-adds (M): 146.54
==========================================================================================
Input size (MB): 0.16
Forward/backward pass size (MB): 335.02
Params size (MB): 2.63
Estimated Total Size (MB): 337.81
…
Time taken:  533.9780580997467
{'time_elapsed': [533.9780580997467], 'epoch': [329], 'fold': [0], 'f1_train': [0.8759335962969876], 'auroc_train': [0.9622896035809547], 'auprc_train': [0.982868884162806], 'f1_test': [0.7367608586927249], 'auroc_test': [0.8208149239077074], 'auprc_test': [0.9201129198509839]}
==========================================================================================
Layer (type:depth-idx)                   Output Shape              Param #
==========================================================================================
TAPPredictor                             [32, 1]                   --
├─Sequential: 1-1                        [32, 1]                   --
│    └─Conv1d: 2-1                       [32, 512, 256]            3,072
│    └─BatchNorm1d: 2-2                  [32, 512, 256]            1,024
│    └─Tanh: 2-3                         [32, 512, 256]            --
│    └─MaxPool1d: 2-4                    [32, 512, 51]             --
│    └─Dropout: 2-5                      [32, 512, 51]             --
│    └─Flatten: 2-6                      [32, 26112]               --
│    └─Linear: 2-7                       [32, 1]                   26,113
==========================================================================================
Total params: 30,209
Trainable params: 30,209
Non-trainable params: 0
Total mult-adds (M): 26.03
==========================================================================================
Input size (MB): 0.16
Forward/backward pass size (MB): 67.11
Params size (MB): 0.12
Estimated Total Size (MB): 67.39
==========================================================================================
…
