…
Time taken:  2688.856685400009
{'time_elapsed': [2688.856685400009], 'epoch': [90], 'fold': [0], 'f1_train': [0.848713110925387], 'auroc_train': [0.9311861912499617], 'auprc_train': [0.9682147801003186], 'f1_test': [0.7617596949267598], 'auroc_test': [0.8060873834069711], 'auprc_test': [0.9104261032899073]}
==========================================================================================
Layer (type:depth-idx)                   Output Shape              Param #
==========================================================================================
TAPPredictor                             [64, 1]                   --
├─Sequential: 1-1                        [64, 1]                   --
│    └─Conv1d: 2-1                       [64, 1024, 1278]          6,144
│    └─BatchNorm1d: 2-2                  [64, 1024, 1278]          2,048
│    └─Tanh: 2-3                         [64, 1024, 1278]          --
│    └─MaxPool1d: 2-4                    [64, 1024, 1274]          --
│    └─Dropout: 2-5                      [64, 1024, 1274]          --
│    └─Flatten: 2-6                      [64, 1304576]             --
│    └─Linear: 2-7                       [64, 1]                   1,304,577
==========================================================================================
Total params: 1,312,769
Trainable params: 1,312,769
Non-trainable params: 0
Total mult-adds (M): 586.15
==========================================================================================
Input size (MB): 0.33
Forward/backward pass size (MB): 1340.08
Params size (MB): 5.25
Estimated Total Size (MB): 1345.66
…
Time taken:  1345.412549495697
{'time_elapsed': [1345.412549495697], 'epoch': [385], 'fold': [0], 'f1_train': [0.8533818737161355], 'auroc_train': [0.9384983290921912], 'auprc_train': [0.9719073664826645], 'f1_test': [0.7362024088594293], 'auroc_test': [0.8119783996072656], 'auprc_test': [0.9142276159434166]}
==========================================================================================
Layer (type:depth-idx)                   Output Shape              Param #
==========================================================================================
TAPPredictor                             [64, 1]                   --
├─Sequential: 1-1                        [64, 1]                   --
│    └─Conv1d: 2-1                       [64, 1024, 256]           6,144
│    └─BatchNorm1d: 2-2                  [64, 1024, 256]           2,048
│    └─Tanh: 2-3                         [64, 1024, 256]           --
│    └─MaxPool1d: 2-4                    [64, 1024, 51]            --
│    └─Dropout: 2-5                      [64, 1024, 51]            --
│    └─Flatten: 2-6                      [64, 52224]               --
│    └─Linear: 2-7                       [64, 1]                   52,225
==========================================================================================
Total params: 60,417
Trainable params: 60,417
Non-trainable params: 0
Total mult-adds (M): 104.14
==========================================================================================
Input size (MB): 0.33
Forward/backward pass size (MB): 268.44
Params size (MB): 0.24
Estimated Total Size (MB): 269.01
==========================================================================================
…
