…
Early stopping triggered
Early stopping triggered!
Time taken:  2209.8738663196564
{'time_elapsed': [2209.8738663196564], 'epoch': [69], 'fold': [0], 'f1_train': [1.0], 'auroc_train': [1.0], 'auprc_train': [1.0], 'f1_test': [0.7697841726618705], 'auroc_test': [0.8203240058910163], 'auprc_test': [0.9234883620195046]}
==========================================================================================
Layer (type:depth-idx)                   Output Shape              Param #
==========================================================================================
TAPPredictor                             [64, 1]                   --
├─Sequential: 1-1                        [64, 1]                   --
│    └─Conv1d: 2-1                       [64, 1024, 1276]          8,192
│    └─BatchNorm1d: 2-2                  [64, 1024, 1276]          2,048
│    └─Tanh: 2-3                         [64, 1024, 1276]          --
│    └─MaxPool1d: 2-4                    [64, 1024, 1270]          --
│    └─Dropout: 2-5                      [64, 1024, 1270]          --
│    └─Flatten: 2-6                      [64, 1300480]             --
│    └─Linear: 2-7                       [64, 1]                   1,300,481
==========================================================================================
Total params: 1,310,721
Trainable params: 1,310,721
Non-trainable params: 0
Total mult-adds (M): 752.35
==========================================================================================
Input size (MB): 0.33
Forward/backward pass size (MB): 1337.98
Params size (MB): 5.24
Estimated Total Size (MB): 1343.55
…
Time taken:  207.3455274105072
{'time_elapsed': [207.3455274105072], 'epoch': [87], 'fold': [0], 'f1_train': [0.9927927927927928], 'auroc_train': [0.9997853879878591], 'auprc_train': [0.9999054004735368], 'f1_test': [0.7697841726618705], 'auroc_test': [0.8092783505154638], 'auprc_test': [0.9122020555186103]}
==========================================================================================
Layer (type:depth-idx)                   Output Shape              Param #
==========================================================================================
TAPPredictor                             [64, 1]                   --
├─Sequential: 1-1                        [64, 1]                   --
│    └─Conv1d: 2-1                       [64, 1024, 183]           8,192
│    └─BatchNorm1d: 2-2                  [64, 1024, 183]           2,048
│    └─Tanh: 2-3                         [64, 1024, 183]           --
│    └─MaxPool1d: 2-4                    [64, 1024, 26]            --
│    └─Dropout: 2-5                      [64, 1024, 26]            --
│    └─Flatten: 2-6                      [64, 26624]               --
│    └─Linear: 2-7                       [64, 1]                   26,625
==========================================================================================
Total params: 36,865
Trainable params: 36,865
Non-trainable params: 0
Total mult-adds (M): 97.78
==========================================================================================
Input size (MB): 0.33
Forward/backward pass size (MB): 191.89
Params size (MB): 0.15
Estimated Total Size (MB): 192.37
==========================================================================================
…
