…
Early stopping triggered
Early stopping triggered!
Time taken:  538.8604502677917
{'time_elapsed': [538.8604502677917], 'epoch': [75], 'fold': [0], 'f1_train': [1.0], 'auroc_train': [1.0], 'auprc_train': [1.0], 'f1_test': [0.7697841726618705], 'auroc_test': [0.8269513991163476], 'auprc_test': [0.9220781011594225]}
==========================================================================================
Layer (type:depth-idx)                   Output Shape              Param #
==========================================================================================
TAPPredictor                             [64, 1]                   --
├─Sequential: 1-1                        [64, 1]                   --
│    └─Conv1d: 2-1                       [64, 256, 1280]           1,024
│    └─BatchNorm1d: 2-2                  [64, 256, 1280]           512
│    └─Tanh: 2-3                         [64, 256, 1280]           --
│    └─MaxPool1d: 2-4                    [64, 256, 1278]           --
│    └─Dropout: 2-5                      [64, 256, 1278]           --
│    └─Flatten: 2-6                      [64, 327168]              --
│    └─Linear: 2-7                       [64, 1]                   327,169
==========================================================================================
Total params: 328,705
Trainable params: 328,705
Non-trainable params: 0
Total mult-adds (M): 104.86
==========================================================================================
Input size (MB): 0.33
Forward/backward pass size (MB): 335.54
Params size (MB): 1.31
Estimated Total Size (MB): 337.19
…
Early stopping triggered!
Time taken:  67.00481796264648
{'time_elapsed': [67.00481796264648], 'epoch': [65], 'fold': [0], 'f1_train': [0.9946078283340751], 'auroc_train': [1.0], 'auprc_train': [1.0], 'f1_test': [0.7377691212466089], 'auroc_test': [0.8090328915071183], 'auprc_test': [0.915249186281298]}
==========================================================================================
Layer (type:depth-idx)                   Output Shape              Param #
==========================================================================================
TAPPredictor                             [64, 1]                   --
├─Sequential: 1-1                        [64, 1]                   --
│    └─Conv1d: 2-1                       [64, 256, 427]            1,024
│    └─BatchNorm1d: 2-2                  [64, 256, 427]            512
│    └─Tanh: 2-3                         [64, 256, 427]            --
│    └─MaxPool1d: 2-4                    [64, 256, 142]            --
│    └─Dropout: 2-5                      [64, 256, 142]            --
│    └─Flatten: 2-6                      [64, 36352]               --
│    └─Linear: 2-7                       [64, 1]                   36,353
==========================================================================================
Total params: 37,889
Trainable params: 37,889
Non-trainable params: 0
Total mult-adds (M): 30.34
==========================================================================================
Input size (MB): 0.33
Forward/backward pass size (MB): 111.94
Params size (MB): 0.15
Estimated Total Size (MB): 112.42
==========================================================================================
…
