…
Time taken:  173.2045783996582
{'time_elapsed': [173.2045783996582], 'epoch': [370], 'fold': [0], 'f1_train': [0.9520940485084857], 'auroc_train': [0.9957230891866204], 'auprc_train': [0.9980153947192492], 'f1_test': [0.735514445586388], 'auroc_test': [0.7766323024054982], 'auprc_test': [0.8913633948198606]}
==========================================================================================
Layer (type:depth-idx)                   Output Shape              Param #
==========================================================================================
TAPPredictor                             [32, 1]                   --
Sequential: 1-1                        [32, 1]                   --
    Conv1d: 2-1                       [32, 128, 256]            768
    BatchNorm1d: 2-2                  [32, 128, 256]            256
    Tanh: 2-3                         [32, 128, 256]            --
    MaxPool1d: 2-4                    [32, 128, 51]             --
    Dropout: 2-5                      [32, 128, 51]             --
    Conv1d: 2-6                       [32, 128, 10]             82,048
    BatchNorm1d: 2-7                  [32, 128, 10]             256
    Tanh: 2-8                         [32, 128, 10]             --
    MaxPool1d: 2-9                    [32, 128, 2]              --
    Dropout: 2-10                     [32, 128, 2]              --
    Flatten: 2-11                     [32, 256]                 --
    Linear: 2-12                      [32, 1]                   257
==========================================================================================
Total params: 83,585
Trainable params: 83,585
Non-trainable params: 0
Total mult-adds (M): 32.57
==========================================================================================
Input size (MB): 0.16
Forward/backward pass size (MB): 17.43
Params size (MB): 0.33
Estimated Total Size (MB): 17.93
==========================================================================================
…
