…
Time taken:  2124.8090541362762
{'time_elapsed': [2124.8090541362762], 'epoch': [67], 'fold': [0], 'f1_train': [0.8813932782568464], 'auroc_train': [0.9715485789618911], 'auprc_train': [0.9870177343502096], 'f1_test': [0.7510257046352308], 'auroc_test': [0.8190967108492883], 'auprc_test': [0.9211563401682885]}
==========================================================================================
Layer (type:depth-idx)                   Output Shape              Param #
==========================================================================================
TAPPredictor                             [32, 1]                   --
├─Sequential: 1-1                        [32, 1]                   --
│    └─Conv1d: 2-1                       [32, 1024, 1276]          8,192
│    └─BatchNorm1d: 2-2                  [32, 1024, 1276]          2,048
│    └─Tanh: 2-3                         [32, 1024, 1276]          --
│    └─MaxPool1d: 2-4                    [32, 1024, 1270]          --
│    └─Dropout: 2-5                      [32, 1024, 1270]          --
│    └─Flatten: 2-6                      [32, 1300480]             --
│    └─Linear: 2-7                       [32, 1]                   1,300,481
==========================================================================================
Total params: 1,310,721
Trainable params: 1,310,721
Non-trainable params: 0
Total mult-adds (M): 376.18
==========================================================================================
Input size (MB): 0.16
Forward/backward pass size (MB): 668.99
Params size (MB): 5.24
Estimated Total Size (MB): 674.40
…
Time taken:  751.1313750743866
{'time_elapsed': [751.1313750743866], 'epoch': [357], 'fold': [0], 'f1_train': [0.8895443124664472], 'auroc_train': [0.970920072354907], 'auprc_train': [0.9857707917214702], 'f1_test': [0.7428255465713769], 'auroc_test': [0.8114874815905744], 'auprc_test': [0.9154447786338252]}
==========================================================================================
Layer (type:depth-idx)                   Output Shape              Param #
==========================================================================================
TAPPredictor                             [32, 1]                   --
├─Sequential: 1-1                        [32, 1]                   --
│    └─Conv1d: 2-1                       [32, 1024, 183]           8,192
│    └─BatchNorm1d: 2-2                  [32, 1024, 183]           2,048
│    └─Tanh: 2-3                         [32, 1024, 183]           --
│    └─MaxPool1d: 2-4                    [32, 1024, 26]            --
│    └─Dropout: 2-5                      [32, 1024, 26]            --
│    └─Flatten: 2-6                      [32, 26624]               --
│    └─Linear: 2-7                       [32, 1]                   26,625
==========================================================================================
Total params: 36,865
Trainable params: 36,865
Non-trainable params: 0
Total mult-adds (M): 48.89
==========================================================================================
Input size (MB): 0.16
Forward/backward pass size (MB): 95.94
Params size (MB): 0.15
Estimated Total Size (MB): 96.26
==========================================================================================
…
