…
Early stopping triggered
Early stopping triggered!
Time taken:  574.1708829402924
{'time_elapsed': [574.1708829402924], 'epoch': [84], 'fold': [0], 'f1_train': [1.0], 'auroc_train': [1.0], 'auprc_train': [1.0], 'f1_test': [0.7841726618705036], 'auroc_test': [0.8267059401080019], 'auprc_test': [0.922485767489662]}
==========================================================================================
Layer (type:depth-idx)                   Output Shape              Param #
==========================================================================================
TAPPredictor                             [64, 1]                   --
├─Sequential: 1-1                        [64, 1]                   --
│    └─Conv1d: 2-1                       [64, 256, 1280]           1,024
│    └─BatchNorm1d: 2-2                  [64, 256, 1280]           512
│    └─Tanh: 2-3                         [64, 256, 1280]           --
│    └─MaxPool1d: 2-4                    [64, 256, 1278]           --
│    └─Dropout: 2-5                      [64, 256, 1278]           --
│    └─Flatten: 2-6                      [64, 327168]              --
│    └─Linear: 2-7                       [64, 1]                   327,169
==========================================================================================
Total params: 328,705
Trainable params: 328,705
Non-trainable params: 0
Total mult-adds (M): 104.86
==========================================================================================
Input size (MB): 0.33
Forward/backward pass size (MB): 335.54
Params size (MB): 1.31
Estimated Total Size (MB): 337.19
…
Early stopping triggered!
Time taken:  82.09137153625488
{'time_elapsed': [82.09137153625488], 'epoch': [70], 'fold': [0], 'f1_train': [0.9981966903621715], 'auroc_train': [1.0], 'auprc_train': [1.0], 'f1_test': [0.76000113614692], 'auroc_test': [0.8063328424153167], 'auprc_test': [0.910978797829874]}
==========================================================================================
Layer (type:depth-idx)                   Output Shape              Param #
==========================================================================================
TAPPredictor                             [64, 1]                   --
├─Sequential: 1-1                        [64, 1]                   --
│    └─Conv1d: 2-1                       [64, 256, 427]            1,024
│    └─BatchNorm1d: 2-2                  [64, 256, 427]            512
│    └─Tanh: 2-3                         [64, 256, 427]            --
│    └─MaxPool1d: 2-4                    [64, 256, 142]            --
│    └─Dropout: 2-5                      [64, 256, 142]            --
│    └─Flatten: 2-6                      [64, 36352]               --
│    └─Linear: 2-7                       [64, 1]                   36,353
==========================================================================================
Total params: 37,889
Trainable params: 37,889
Non-trainable params: 0
Total mult-adds (M): 30.34
==========================================================================================
Input size (MB): 0.33
Forward/backward pass size (MB): 111.94
Params size (MB): 0.15
Estimated Total Size (MB): 112.42
==========================================================================================
…
