…
Time taken:  172.82838797569275
{'time_elapsed': [172.82838797569275], 'epoch': [192], 'fold': [0], 'f1_train': [0.6902834008097165], 'auroc_train': [0.8777777777777778], 'auprc_train': [0.8506459337763284], 'f1_test': [0.5555555555555556], 'auroc_test': [0.7000000000000001], 'auprc_test': [0.6672619047619047]}
==========================================================================================
Layer (type:depth-idx)                   Output Shape              Param #
==========================================================================================
TDPredictor                              [32, 1]                   --
Sequential: 1-1                        [32, 1]                   --
    Conv1d: 2-1                       [32, 256, 1280]           1,024
    BatchNorm1d: 2-2                  [32, 256, 1280]           512
    Tanh: 2-3                         [32, 256, 1280]           --
    MaxPool1d: 2-4                    [32, 256, 1278]           --
    Dropout: 2-5                      [32, 256, 1278]           --
    Flatten: 2-6                      [32, 327168]              --
    Linear: 2-7                       [32, 1]                   327,169
==========================================================================================
Total params: 328,705
Trainable params: 328,705
Non-trainable params: 0
Total mult-adds (M): 52.43
==========================================================================================
Input size (MB): 0.16
Forward/backward pass size (MB): 167.77
Params size (MB): 1.31
Estimated Total Size (MB): 169.25
…
