…
Early stopping triggered!
Time taken:  310.9162862300873
{'time_elapsed': [310.9162862300873], 'epoch': [171], 'fold': [0], 'f1_train': [0.7449392712550608], 'auroc_train': [0.9083333333333333], 'auprc_train': [0.8960369944300215], 'f1_test': [0.5555555555555556], 'auroc_test': [0.75], 'auprc_test': [0.6916666666666667]}
==========================================================================================
Layer (type:depth-idx)                   Output Shape              Param #
==========================================================================================
TDPredictor                              [16, 1]                   --
Sequential: 1-1                        [16, 1]                   --
    Conv1d: 2-1                       [16, 512, 1280]           2,048
    BatchNorm1d: 2-2                  [16, 512, 1280]           1,024
    Tanh: 2-3                         [16, 512, 1280]           --
    MaxPool1d: 2-4                    [16, 512, 1278]           --
    Dropout: 2-5                      [16, 512, 1278]           --
    Flatten: 2-6                      [16, 654336]              --
    Linear: 2-7                       [16, 1]                   654,337
==========================================================================================
Total params: 657,409
Trainable params: 657,409
Non-trainable params: 0
Total mult-adds (M): 52.43
==========================================================================================
Input size (MB): 0.08
Forward/backward pass size (MB): 167.77
Params size (MB): 2.63
Estimated Total Size (MB): 170.48
…
