…
Early stopping triggered!
Time taken:  53.13034248352051
{'time_elapsed': [53.13034248352051], 'epoch': [50], 'fold': [0], 'f1_train': [0.5033444816053512], 'auroc_train': [0.826388888888889], 'auprc_train': [0.7559298857586925], 'f1_test': [0.5555555555555556], 'auroc_test': [0.65], 'auprc_test': [0.7285714285714286]}
==========================================================================================
Layer (type:depth-idx)                   Output Shape              Param #
==========================================================================================
TDPredictor                              [32, 1]                   --
├─Sequential: 1-1                        [32, 1]                   --
│    └─Conv1d: 2-1                       [32, 256, 1280]           1,024
│    └─BatchNorm1d: 2-2                  [32, 256, 1280]           512
│    └─Tanh: 2-3                         [32, 256, 1280]           --
│    └─MaxPool1d: 2-4                    [32, 256, 1278]           --
│    └─Dropout: 2-5                      [32, 256, 1278]           --
│    └─Flatten: 2-6                      [32, 327168]              --
│    └─Linear: 2-7                       [32, 1]                   327,169
==========================================================================================
Total params: 328,705
Trainable params: 328,705
Non-trainable params: 0
Total mult-adds (M): 52.43
==========================================================================================
Input size (MB): 0.16
Forward/backward pass size (MB): 167.77
Params size (MB): 1.31
Estimated Total Size (MB): 169.25
…
