…
Early stopping triggered!
Time taken:  50.35408163070679
{'time_elapsed': [50.35408163070679], 'epoch': [161], 'fold': [0], 'f1_train': [0.7590234489062678], 'auroc_train': [0.9111111111111111], 'auprc_train': [0.8875654936621344], 'f1_test': [0.5555555555555556], 'auroc_test': [0.75], 'auprc_test': [0.6916666666666667]}
==========================================================================================
Layer (type:depth-idx)                   Output Shape              Param #
==========================================================================================
TDPredictor                              [16, 1]                   --
├─Sequential: 1-1                        [16, 1]                   --
│    └─Conv1d: 2-1                       [16, 64, 1278]            384
│    └─BatchNorm1d: 2-2                  [16, 64, 1278]            128
│    └─Tanh: 2-3                         [16, 64, 1278]            --
│    └─MaxPool1d: 2-4                    [16, 64, 1274]            --
│    └─Dropout: 2-5                      [16, 64, 1274]            --
│    └─Flatten: 2-6                      [16, 81536]               --
│    └─Linear: 2-7                       [16, 1]                   81,537
==========================================================================================
Total params: 82,049
Trainable params: 82,049
Non-trainable params: 0
Total mult-adds (M): 9.16
==========================================================================================
Input size (MB): 0.08
Forward/backward pass size (MB): 20.94
Params size (MB): 0.33
Estimated Total Size (MB): 21.35
==========================================================================================
…
