…
epoch:  199
tensor([ 0.1177, -0.7145,  0.6932, -0.5487,  0.1532, -0.7353, -1.0032,  0.2652,
        -0.9334]) tensor([0., 0., 1., 1., 1., 1., 0., 0., 0.])
tensor(0.8535)
epoch:  200 val_f1:  0.5555555555555556 val_auroc:  0.7000000000000001 val_auprc:  0.6672619047619047
EarlyStopping counter: 26 out of 50
==========================================================================================
Layer (type:depth-idx)                   Output Shape              Param #
==========================================================================================
TDPredictor                              [32, 1]                   --
Sequential: 1-1                        [32, 1]                   --
    Conv1d: 2-1                       [32, 256, 1280]           1,024
    BatchNorm1d: 2-2                  [32, 256, 1280]           512
    Tanh: 2-3                         [32, 256, 1280]           --
    MaxPool1d: 2-4                    [32, 256, 1278]           --
    Dropout: 2-5                      [32, 256, 1278]           --
    Flatten: 2-6                      [32, 327168]              --
    Linear: 2-7                       [32, 1]                   327,169
==========================================================================================
Total params: 328,705
Trainable params: 328,705
Non-trainable params: 0
Total mult-adds (M): 52.43
==========================================================================================
Input size (MB): 0.16
Forward/backward pass size (MB): 167.77
Params size (MB): 1.31
Estimated Total Size (MB): 169.25
…
