…
Early stopping triggered!
Time taken:  200.29978156089783
{'time_elapsed': [200.29978156089783], 'epoch': [93], 'fold': [0], 'f1_train': [0.4688644688644689], 'auroc_train': [0.9145833333333333], 'auprc_train': [0.8617611820084154], 'f1_test': [0.39682539682539686], 'auroc_test': [0.65], 'auprc_test': [0.4625]}
==========================================================================================
Layer (type:depth-idx)                   Output Shape              Param #
==========================================================================================
TDPredictor                              [32, 1]                   --
├─Sequential: 1-1                        [32, 1]                   --
│    └─Conv1d: 2-1                       [32, 512, 1278]           3,072
│    └─BatchNorm1d: 2-2                  [32, 512, 1278]           1,024
│    └─Tanh: 2-3                         [32, 512, 1278]           --
│    └─MaxPool1d: 2-4                    [32, 512, 1274]           --
│    └─Dropout: 2-5                      [32, 512, 1274]           --
│    └─Flatten: 2-6                      [32, 652288]              --
│    └─Linear: 2-7                       [32, 1]                   652,289
==========================================================================================
Total params: 656,385
Trainable params: 656,385
Non-trainable params: 0
Total mult-adds (M): 146.54
==========================================================================================
Input size (MB): 0.16
Forward/backward pass size (MB): 335.02
Params size (MB): 2.63
Estimated Total Size (MB): 337.81
…
