…
EarlyStopping counter: 31 out of 50
epoch:  199
tensor([ 0.1886, -0.8587,  0.8259, -0.6317,  0.1622, -0.7489, -1.0669,  0.4006,
        -1.0779]) tensor([0., 0., 1., 1., 1., 1., 0., 0., 0.])
tensor(0.8581)
epoch:  200 val_f1:  0.5555555555555556 val_auroc:  0.7 val_auprc:  0.65
EarlyStopping counter: 32 out of 50
==========================================================================================
Layer (type:depth-idx)                   Output Shape              Param #
==========================================================================================
TDPredictor                              [16, 1]                   --
Sequential: 1-1                        [16, 1]                   --
    Conv1d: 2-1                       [16, 512, 1278]           3,072
    BatchNorm1d: 2-2                  [16, 512, 1278]           1,024
    Tanh: 2-3                         [16, 512, 1278]           --
    MaxPool1d: 2-4                    [16, 512, 1274]           --
    Dropout: 2-5                      [16, 512, 1274]           --
    Flatten: 2-6                      [16, 652288]              --
    Linear: 2-7                       [16, 1]                   652,289
==========================================================================================
Total params: 656,385
Trainable params: 656,385
Non-trainable params: 0
Total mult-adds (M): 73.27
==========================================================================================
Input size (MB): 0.08
Forward/backward pass size (MB): 167.51
Params size (MB): 2.63
Estimated Total Size (MB): 170.22
…
