…
Early stopping triggered!
Time taken:  86.50010585784912
{'time_elapsed': [86.50010585784912], 'epoch': [183], 'fold': [0], 'f1_train': [0.7042071852198435], 'auroc_train': [0.9013888888888889], 'auprc_train': [0.8819668533573686], 'f1_test': [0.5555555555555556], 'auroc_test': [0.75], 'auprc_test': [0.6916666666666667]}
==========================================================================================
Layer (type:depth-idx)                   Output Shape              Param #
==========================================================================================
TDPredictor                              [32, 1]                   --
Sequential: 1-1                        [32, 1]                   --
    Conv1d: 2-1                       [32, 128, 1278]           768
    BatchNorm1d: 2-2                  [32, 128, 1278]           256
    Tanh: 2-3                         [32, 128, 1278]           --
    MaxPool1d: 2-4                    [32, 128, 1274]           --
    Dropout: 2-5                      [32, 128, 1274]           --
    Flatten: 2-6                      [32, 163072]              --
    Linear: 2-7                       [32, 1]                   163,073
==========================================================================================
Total params: 164,097
Trainable params: 164,097
Non-trainable params: 0
Total mult-adds (M): 36.63
==========================================================================================
Input size (MB): 0.16
Forward/backward pass size (MB): 83.76
Params size (MB): 0.66
Estimated Total Size (MB): 84.58
==========================================================================================
…
