…
Early stopping triggered!
Time taken:  27.3446843624115
{'time_elapsed': [27.3446843624115], 'epoch': [123], 'fold': [0], 'f1_train': [0.7179487179487181], 'auroc_train': [0.90625], 'auprc_train': [0.8917935724887964], 'f1_test': [0.5555555555555556], 'auroc_test': [0.7000000000000001], 'auprc_test': [0.6672619047619047]}
==========================================================================================
Layer (type:depth-idx)                   Output Shape              Param #
==========================================================================================
TDPredictor                              [16, 1]                   --
├─Sequential: 1-1                        [16, 1]                   --
│    └─Conv1d: 2-1                       [16, 64, 1280]            256
│    └─BatchNorm1d: 2-2                  [16, 64, 1280]            128
│    └─Tanh: 2-3                         [16, 64, 1280]            --
│    └─MaxPool1d: 2-4                    [16, 64, 1278]            --
│    └─Dropout: 2-5                      [16, 64, 1278]            --
│    └─Flatten: 2-6                      [16, 81792]               --
│    └─Linear: 2-7                       [16, 1]                   81,793
==========================================================================================
Total params: 82,177
Trainable params: 82,177
Non-trainable params: 0
Total mult-adds (M): 6.55
==========================================================================================
Input size (MB): 0.08
Forward/backward pass size (MB): 20.97
Params size (MB): 0.33
Estimated Total Size (MB): 21.38
==========================================================================================
…
