…
Early stopping triggered!
Time taken:  62.08944010734558
{'time_elapsed': [62.08944010734558], 'epoch': [51], 'fold': [0], 'f1_train': [0.6939271255060729], 'auroc_train': [0.8444444444444444], 'auprc_train': [0.7038887557256458], 'f1_test': [0.5555555555555556], 'auroc_test': [0.6], 'auprc_test': [0.44166666666666665]}
==========================================================================================
Layer (type:depth-idx)                   Output Shape              Param #
==========================================================================================
TDPredictor                              [32, 1]                   --
├─Sequential: 1-1                        [32, 1]                   --
│    └─Conv1d: 2-1                       [32, 256, 1278]           1,536
│    └─BatchNorm1d: 2-2                  [32, 256, 1278]           512
│    └─Tanh: 2-3                         [32, 256, 1278]           --
│    └─MaxPool1d: 2-4                    [32, 256, 1274]           --
│    └─Dropout: 2-5                      [32, 256, 1274]           --
│    └─Flatten: 2-6                      [32, 326144]              --
│    └─Linear: 2-7                       [32, 1]                   326,145
==========================================================================================
Total params: 328,193
Trainable params: 328,193
Non-trainable params: 0
Total mult-adds (M): 73.27
==========================================================================================
Input size (MB): 0.16
Forward/backward pass size (MB): 167.51
Params size (MB): 1.31
Estimated Total Size (MB): 168.99
…
