…
Early stopping triggered!
Time taken:  17.419289350509644
{'time_elapsed': [17.419289350509644], 'epoch': [51], 'fold': [0], 'f1_train': [0.6761633428300096], 'auroc_train': [0.9236111111111112], 'auprc_train': [0.9094062880874467], 'f1_test': [0.5555555555555556], 'auroc_test': [0.55], 'auprc_test': [0.6071428571428571]}
==========================================================================================
Layer (type:depth-idx)                   Output Shape              Param #
==========================================================================================
TDPredictor                              [32, 1]                   --
├─Sequential: 1-1                        [32, 1]                   --
│    └─Conv1d: 2-1                       [32, 64, 1280]            256
│    └─BatchNorm1d: 2-2                  [32, 64, 1280]            128
│    └─Tanh: 2-3                         [32, 64, 1280]            --
│    └─MaxPool1d: 2-4                    [32, 64, 1278]            --
│    └─Dropout: 2-5                      [32, 64, 1278]            --
│    └─Flatten: 2-6                      [32, 81792]               --
│    └─Linear: 2-7                       [32, 1]                   81,793
==========================================================================================
Total params: 82,177
Trainable params: 82,177
Non-trainable params: 0
Total mult-adds (M): 13.11
==========================================================================================
Input size (MB): 0.16
Forward/backward pass size (MB): 41.94
Params size (MB): 0.33
Estimated Total Size (MB): 42.44
==========================================================================================
…
