…
Early stopping triggered!
Time taken:  506.28446221351624
{'time_elapsed': [506.28446221351624], 'epoch': [170], 'fold': [0], 'f1_train': [0.745956087419502], 'auroc_train': [0.9034722222222222], 'auprc_train': [0.884329507300546], 'f1_test': [0.5555555555555556], 'auroc_test': [0.75], 'auprc_test': [0.6916666666666667]}
==========================================================================================
Layer (type:depth-idx)                   Output Shape              Param #
==========================================================================================
TDPredictor                              [16, 1]                   --
Sequential: 1-1                        [16, 1]                   --
    Conv1d: 2-1                       [16, 1024, 1280]          4,096
    BatchNorm1d: 2-2                  [16, 1024, 1280]          2,048
    Tanh: 2-3                         [16, 1024, 1280]          --
    MaxPool1d: 2-4                    [16, 1024, 1278]          --
    Dropout: 2-5                      [16, 1024, 1278]          --
    Flatten: 2-6                      [16, 1308672]             --
    Linear: 2-7                       [16, 1]                   1,308,673
==========================================================================================
Total params: 1,314,817
Trainable params: 1,314,817
Non-trainable params: 0
Total mult-adds (M): 104.86
==========================================================================================
Input size (MB): 0.08
Forward/backward pass size (MB): 335.54
Params size (MB): 5.26
Estimated Total Size (MB): 340.89
…
