…
Early stopping triggered
Early stopping triggered!
Time taken:  381.00913858413696
{'time_elapsed': [381.00913858413696], 'epoch': [92], 'fold': [0], 'f1_train': [1.0], 'auroc_train': [1.0], 'auprc_train': [1.0], 'f1_test': [0.43001443001442996], 'auroc_test': [0.6], 'auprc_test': [0.6005952380952381]}
==========================================================================================
Layer (type:depth-idx)                   Output Shape              Param #
==========================================================================================
TDPredictor                              [16, 1]                   --
├─Sequential: 1-1                        [16, 1]                   --
│    └─Conv1d: 2-1                       [16, 1024, 1278]          6,144
│    └─BatchNorm1d: 2-2                  [16, 1024, 1278]          2,048
│    └─Tanh: 2-3                         [16, 1024, 1278]          --
│    └─MaxPool1d: 2-4                    [16, 1024, 1274]          --
│    └─Dropout: 2-5                      [16, 1024, 1274]          --
│    └─Flatten: 2-6                      [16, 1304576]             --
│    └─Linear: 2-7                       [16, 1]                   1,304,577
==========================================================================================
Total params: 1,312,769
Trainable params: 1,312,769
Non-trainable params: 0
Total mult-adds (M): 146.54
==========================================================================================
Input size (MB): 0.08
Forward/backward pass size (MB): 335.02
Params size (MB): 5.25
Estimated Total Size (MB): 340.35
…
