…
Early stopping triggered!
Time taken:  50.46540021896362
{'time_elapsed': [50.46540021896362], 'epoch': [50], 'fold': [0], 'f1_train': [0.9366018596787827], 'auroc_train': [0.9965277777777778], 'auprc_train': [0.9951680672268908], 'f1_test': [0.43001443001442996], 'auroc_test': [0.6], 'auprc_test': [0.6005952380952381]}
==========================================================================================
Layer (type:depth-idx)                   Output Shape              Param #
==========================================================================================
TDPredictor                              [16, 1]                   --
├─Sequential: 1-1                        [16, 1]                   --
│    └─Conv1d: 2-1                       [16, 256, 1280]           1,024
│    └─BatchNorm1d: 2-2                  [16, 256, 1280]           512
│    └─Tanh: 2-3                         [16, 256, 1280]           --
│    └─MaxPool1d: 2-4                    [16, 256, 1278]           --
│    └─Dropout: 2-5                      [16, 256, 1278]           --
│    └─Flatten: 2-6                      [16, 327168]              --
│    └─Linear: 2-7                       [16, 1]                   327,169
==========================================================================================
Total params: 328,705
Trainable params: 328,705
Non-trainable params: 0
Total mult-adds (M): 26.21
==========================================================================================
Input size (MB): 0.08
Forward/backward pass size (MB): 83.89
Params size (MB): 1.31
Estimated Total Size (MB): 85.28
==========================================================================================
…
