…
Early stopping triggered!
Time taken:  217.43531250953674
{'time_elapsed': [217.43531250953674], 'epoch': [51], 'fold': [0], 'f1_train': [0.4688644688644689], 'auroc_train': [0.8736111111111111], 'auprc_train': [0.7849745581653529], 'f1_test': [0.39682539682539686], 'auroc_test': [0.65], 'auprc_test': [0.4625]}
==========================================================================================
Layer (type:depth-idx)                   Output Shape              Param #
==========================================================================================
TDPredictor                              [16, 1]                   --
├─Sequential: 1-1                        [16, 1]                   --
│    └─Conv1d: 2-1                       [16, 1024, 1278]          6,144
│    └─BatchNorm1d: 2-2                  [16, 1024, 1278]          2,048
│    └─Tanh: 2-3                         [16, 1024, 1278]          --
│    └─MaxPool1d: 2-4                    [16, 1024, 1274]          --
│    └─Dropout: 2-5                      [16, 1024, 1274]          --
│    └─Flatten: 2-6                      [16, 1304576]             --
│    └─Linear: 2-7                       [16, 1]                   1,304,577
==========================================================================================
Total params: 1,312,769
Trainable params: 1,312,769
Non-trainable params: 0
Total mult-adds (M): 146.54
==========================================================================================
Input size (MB): 0.08
Forward/backward pass size (MB): 335.02
Params size (MB): 5.25
Estimated Total Size (MB): 340.35
…
