…
Early stopping triggered!
Time taken:  20.71384072303772
{'time_elapsed': [20.71384072303772], 'epoch': [50], 'fold': [0], 'f1_train': [0.872498812100734], 'auroc_train': [0.9437500000000001], 'auprc_train': [0.9287234617198894], 'f1_test': [0.43001443001442996], 'auroc_test': [0.5], 'auprc_test': [0.5654761904761905]}
==========================================================================================
Layer (type:depth-idx)                   Output Shape              Param #
==========================================================================================
TDPredictor                              [32, 1]                   --
├─Sequential: 1-1                        [32, 1]                   --
│    └─Conv1d: 2-1                       [32, 64, 1280]            256
│    └─BatchNorm1d: 2-2                  [32, 64, 1280]            128
│    └─Tanh: 2-3                         [32, 64, 1280]            --
│    └─MaxPool1d: 2-4                    [32, 64, 1278]            --
│    └─Dropout: 2-5                      [32, 64, 1278]            --
│    └─Flatten: 2-6                      [32, 81792]               --
│    └─Linear: 2-7                       [32, 1]                   81,793
==========================================================================================
Total params: 82,177
Trainable params: 82,177
Non-trainable params: 0
Total mult-adds (M): 13.11
==========================================================================================
Input size (MB): 0.16
Forward/backward pass size (MB): 41.94
Params size (MB): 0.33
Estimated Total Size (MB): 42.44
==========================================================================================
…
