…
Early stopping triggered!
Time taken:  54.76494598388672
{'time_elapsed': [54.76494598388672], 'epoch': [51], 'fold': [0], 'f1_train': [0.6083153807453657], 'auroc_train': [0.9923611111111111], 'auprc_train': [0.9885196055567614], 'f1_test': [0.5444444444444445], 'auroc_test': [0.6], 'auprc_test': [0.6077380952380953]}
==========================================================================================
Layer (type:depth-idx)                   Output Shape              Param #
==========================================================================================
TDPredictor                              [16, 1]                   --
├─Sequential: 1-1                        [16, 1]                   --
│    └─Conv1d: 2-1                       [16, 256, 1280]           1,024
│    └─BatchNorm1d: 2-2                  [16, 256, 1280]           512
│    └─Tanh: 2-3                         [16, 256, 1280]           --
│    └─MaxPool1d: 2-4                    [16, 256, 1278]           --
│    └─Dropout: 2-5                      [16, 256, 1278]           --
│    └─Flatten: 2-6                      [16, 327168]              --
│    └─Linear: 2-7                       [16, 1]                   327,169
==========================================================================================
Total params: 328,705
Trainable params: 328,705
Non-trainable params: 0
Total mult-adds (M): 26.21
==========================================================================================
Input size (MB): 0.08
Forward/backward pass size (MB): 83.89
Params size (MB): 1.31
Estimated Total Size (MB): 85.28
==========================================================================================
…
