…
Early stopping triggered!
Time taken:  217.93261241912842
{'time_elapsed': [217.93261241912842], 'epoch': [55], 'fold': [0], 'f1_train': [0.4688644688644689], 'auroc_train': [0.8333333333333333], 'auprc_train': [0.7102212861565856], 'f1_test': [0.39682539682539686], 'auroc_test': [0.65], 'auprc_test': [0.4625]}
==========================================================================================
Layer (type:depth-idx)                   Output Shape              Param #
==========================================================================================
TDPredictor                              [32, 1]                   --
├─Sequential: 1-1                        [32, 1]                   --
│    └─Conv1d: 2-1                       [32, 1024, 1280]          4,096
│    └─BatchNorm1d: 2-2                  [32, 1024, 1280]          2,048
│    └─Tanh: 2-3                         [32, 1024, 1280]          --
│    └─MaxPool1d: 2-4                    [32, 1024, 1278]          --
│    └─Dropout: 2-5                      [32, 1024, 1278]          --
│    └─Flatten: 2-6                      [32, 1308672]             --
│    └─Linear: 2-7                       [32, 1]                   1,308,673
==========================================================================================
Total params: 1,314,817
Trainable params: 1,314,817
Non-trainable params: 0
Total mult-adds (M): 209.72
==========================================================================================
Input size (MB): 0.16
Forward/backward pass size (MB): 671.09
Params size (MB): 5.26
Estimated Total Size (MB): 676.51
…
