…
EarlyStopping counter: 8 out of 50
epoch:  199
tensor([ 0.6630, -0.1292,  1.1749,  0.0421,  0.7113, -0.1082, -0.4064,  0.8118,
        -0.3633]) tensor([0., 0., 1., 1., 1., 1., 0., 0., 0.])
tensor(0.8078)
epoch:  200 val_f1:  0.6666666666666665 val_auroc:  0.75 val_auprc:  0.6916666666666667
Validation loss improved to 0.807810
==========================================================================================
Layer (type:depth-idx)                   Output Shape              Param #
==========================================================================================
TDPredictor                              [32, 1]                   --
Sequential: 1-1                        [32, 1]                   --
    Conv1d: 2-1                       [32, 1024, 1280]          4,096
    BatchNorm1d: 2-2                  [32, 1024, 1280]          2,048
    Tanh: 2-3                         [32, 1024, 1280]          --
    MaxPool1d: 2-4                    [32, 1024, 1278]          --
    Dropout: 2-5                      [32, 1024, 1278]          --
    Flatten: 2-6                      [32, 1308672]             --
    Linear: 2-7                       [32, 1]                   1,308,673
==========================================================================================
Total params: 1,314,817
Trainable params: 1,314,817
Non-trainable params: 0
Total mult-adds (M): 209.72
==========================================================================================
Input size (MB): 0.16
Forward/backward pass size (MB): 671.09
Params size (MB): 5.26
Estimated Total Size (MB): 676.51
…
