…
EarlyStopping counter: 3 out of 50
epoch:  199
tensor([ 0.2549, -0.2378,  0.5487, -0.1110,  0.2550, -0.1968, -0.4004,  0.3890,
        -0.3680]) tensor([0., 0., 1., 1., 1., 1., 0., 0., 0.])
tensor(0.8308)
epoch:  200 val_f1:  0.5555555555555556 val_auroc:  0.75 val_auprc:  0.6916666666666667
EarlyStopping counter: 4 out of 50
==========================================================================================
Layer (type:depth-idx)                   Output Shape              Param #
==========================================================================================
TDPredictor                              [32, 1]                   --
Sequential: 1-1                        [32, 1]                   --
    Conv1d: 2-1                       [32, 512, 1278]           3,072
    BatchNorm1d: 2-2                  [32, 512, 1278]           1,024
    Tanh: 2-3                         [32, 512, 1278]           --
    MaxPool1d: 2-4                    [32, 512, 1274]           --
    Dropout: 2-5                      [32, 512, 1274]           --
    Flatten: 2-6                      [32, 652288]              --
    Linear: 2-7                       [32, 1]                   652,289
==========================================================================================
Total params: 656,385
Trainable params: 656,385
Non-trainable params: 0
Total mult-adds (M): 146.54
==========================================================================================
Input size (MB): 0.16
Forward/backward pass size (MB): 335.02
Params size (MB): 2.63
Estimated Total Size (MB): 337.81
…
