…
Early stopping triggered!
Time taken:  106.38789868354797
{'time_elapsed': [106.38789868354797], 'epoch': [50], 'fold': [0], 'f1_train': [0.6709401709401709], 'auroc_train': [0.7979166666666667], 'auprc_train': [0.6540360970641821], 'f1_test': [0.43001443001442996], 'auroc_test': [0.6], 'auprc_test': [0.44166666666666665]}
==========================================================================================
Layer (type:depth-idx)                   Output Shape              Param #
==========================================================================================
TDPredictor                              [32, 1]                   --
├─Sequential: 1-1                        [32, 1]                   --
│    └─Conv1d: 2-1                       [32, 512, 1278]           3,072
│    └─BatchNorm1d: 2-2                  [32, 512, 1278]           1,024
│    └─Tanh: 2-3                         [32, 512, 1278]           --
│    └─MaxPool1d: 2-4                    [32, 512, 1274]           --
│    └─Dropout: 2-5                      [32, 512, 1274]           --
│    └─Flatten: 2-6                      [32, 652288]              --
│    └─Linear: 2-7                       [32, 1]                   652,289
==========================================================================================
Total params: 656,385
Trainable params: 656,385
Non-trainable params: 0
Total mult-adds (M): 146.54
==========================================================================================
Input size (MB): 0.16
Forward/backward pass size (MB): 335.02
Params size (MB): 2.63
Estimated Total Size (MB): 337.81
…
