…
Early stopping triggered!
Time taken:  74.62461996078491
{'time_elapsed': [74.62461996078491], 'epoch': [68], 'fold': [0], 'f1_train': [0.8314726209463051], 'auroc_train': [0.9229166666666666], 'auprc_train': [0.8716978905004423], 'f1_test': [0.43001443001442996], 'auroc_test': [0.6], 'auprc_test': [0.44166666666666665]}
==========================================================================================
Layer (type:depth-idx)                   Output Shape              Param #
==========================================================================================
TDPredictor                              [32, 1]                   --
├─Sequential: 1-1                        [32, 1]                   --
│    └─Conv1d: 2-1                       [32, 256, 1280]           1,024
│    └─BatchNorm1d: 2-2                  [32, 256, 1280]           512
│    └─Tanh: 2-3                         [32, 256, 1280]           --
│    └─MaxPool1d: 2-4                    [32, 256, 1278]           --
│    └─Dropout: 2-5                      [32, 256, 1278]           --
│    └─Flatten: 2-6                      [32, 327168]              --
│    └─Linear: 2-7                       [32, 1]                   327,169
==========================================================================================
Total params: 328,705
Trainable params: 328,705
Non-trainable params: 0
Total mult-adds (M): 52.43
==========================================================================================
Input size (MB): 0.16
Forward/backward pass size (MB): 167.77
Params size (MB): 1.31
Estimated Total Size (MB): 169.25
…
