…
Early stopping triggered!
Time taken:  83.04614424705505
{'time_elapsed': [83.04614424705505], 'epoch': [164], 'fold': [0], 'f1_train': [0.7848320693391116], 'auroc_train': [0.9034722222222222], 'auprc_train': [0.8849410999765914], 'f1_test': [0.5555555555555556], 'auroc_test': [0.75], 'auprc_test': [0.6916666666666667]}
==========================================================================================
Layer (type:depth-idx)                   Output Shape              Param #
==========================================================================================
TDPredictor                              [16, 1]                   --
├─Sequential: 1-1                        [16, 1]                   --
│    └─Conv1d: 2-1                       [16, 128, 1278]           768
│    └─BatchNorm1d: 2-2                  [16, 128, 1278]           256
│    └─Tanh: 2-3                         [16, 128, 1278]           --
│    └─MaxPool1d: 2-4                    [16, 128, 1274]           --
│    └─Dropout: 2-5                      [16, 128, 1274]           --
│    └─Flatten: 2-6                      [16, 163072]              --
│    └─Linear: 2-7                       [16, 1]                   163,073
==========================================================================================
Total params: 164,097
Trainable params: 164,097
Non-trainable params: 0
Total mult-adds (M): 18.32
==========================================================================================
Input size (MB): 0.08
Forward/backward pass size (MB): 41.88
Params size (MB): 0.66
Estimated Total Size (MB): 42.62
==========================================================================================
…
