…
Time taken:  24.042987823486328
{'time_elapsed': [24.042987823486328], 'epoch': [51], 'fold': [0], 'f1_train': [0.9871369238833856], 'auroc_train': [0.9958333333333333], 'auprc_train': [0.9943650793650793], 'f1_test': [0.43001443001442996], 'auroc_test': [0.5499999999999999], 'auprc_test': [0.5827380952380953]}
==========================================================================================
Layer (type:depth-idx)                   Output Shape              Param #
==========================================================================================
TDPredictor                              [16, 1]                   --
├─Sequential: 1-1                        [16, 1]                   --
│    └─Conv1d: 2-1                       [16, 64, 1280]            256
│    └─BatchNorm1d: 2-2                  [16, 64, 1280]            128
│    └─Tanh: 2-3                         [16, 64, 1280]            --
│    └─MaxPool1d: 2-4                    [16, 64, 1278]            --
│    └─Dropout: 2-5                      [16, 64, 1278]            --
│    └─Flatten: 2-6                      [16, 81792]               --
│    └─Linear: 2-7                       [16, 1]                   81,793
==========================================================================================
Total params: 82,177
Trainable params: 82,177
Non-trainable params: 0
Total mult-adds (M): 6.55
==========================================================================================
Input size (MB): 0.08
Forward/backward pass size (MB): 20.97
Params size (MB): 0.33
Estimated Total Size (MB): 21.38
==========================================================================================
…
