…
EarlyStopping counter: 1 out of 50
epoch:  199
tensor([ 0.0008, -0.4511,  0.2891, -0.3237, -0.0198, -0.3811, -0.6270,  0.1341,
        -0.5782]) tensor([0., 0., 1., 1., 1., 1., 0., 0., 0.])
tensor(0.8526)
epoch:  200 val_f1:  0.43001443001442996 val_auroc:  0.7 val_auprc:  0.65
EarlyStopping counter: 2 out of 50
==========================================================================================
Layer (type:depth-idx)                   Output Shape              Param #
==========================================================================================
TDPredictor                              [32, 1]                   --
Sequential: 1-1                        [32, 1]                   --
    Conv1d: 2-1                       [32, 1024, 1278]          6,144
    BatchNorm1d: 2-2                  [32, 1024, 1278]          2,048
    Tanh: 2-3                         [32, 1024, 1278]          --
    MaxPool1d: 2-4                    [32, 1024, 1274]          --
    Dropout: 2-5                      [32, 1024, 1274]          --
    Flatten: 2-6                      [32, 1304576]             --
    Linear: 2-7                       [32, 1]                   1,304,577
==========================================================================================
Total params: 1,312,769
Trainable params: 1,312,769
Non-trainable params: 0
Total mult-adds (M): 293.08
==========================================================================================
Input size (MB): 0.16
Forward/backward pass size (MB): 670.04
Params size (MB): 5.25
Estimated Total Size (MB): 675.46
…
