…
Time taken:  120.03498911857605
{'time_elapsed': [120.03498911857605], 'epoch': [59], 'fold': [0], 'f1_train': [0.6205128205128206], 'auroc_train': [0.9923611111111111], 'auprc_train': [0.9897122212407653], 'f1_test': [0.6051282051282052], 'auroc_test': [0.5499999999999999], 'auprc_test': [0.5827380952380953]}
==========================================================================================
Layer (type:depth-idx)                   Output Shape              Param #
==========================================================================================
TDPredictor                              [16, 1]                   --
├─Sequential: 1-1                        [16, 1]                   --
│    └─Conv1d: 2-1                       [16, 512, 1278]           3,072
│    └─BatchNorm1d: 2-2                  [16, 512, 1278]           1,024
│    └─Tanh: 2-3                         [16, 512, 1278]           --
│    └─MaxPool1d: 2-4                    [16, 512, 1274]           --
│    └─Dropout: 2-5                      [16, 512, 1274]           --
│    └─Flatten: 2-6                      [16, 652288]              --
│    └─Linear: 2-7                       [16, 1]                   652,289
==========================================================================================
Total params: 656,385
Trainable params: 656,385
Non-trainable params: 0
Total mult-adds (M): 73.27
==========================================================================================
Input size (MB): 0.08
Forward/backward pass size (MB): 167.51
Params size (MB): 2.63
Estimated Total Size (MB): 170.22
…
