…
Early stopping triggered!
Time taken:  18.2169406414032
{'time_elapsed': [18.2169406414032], 'epoch': [50], 'fold': [0], 'f1_train': [0.7042071852198435], 'auroc_train': [0.9194444444444445], 'auprc_train': [0.8961044370696502], 'f1_test': [0.5555555555555556], 'auroc_test': [0.55], 'auprc_test': [0.6071428571428571]}
==========================================================================================
Layer (type:depth-idx)                   Output Shape              Param #
==========================================================================================
TDPredictor                              [32, 1]                   --
├─Sequential: 1-1                        [32, 1]                   --
│    └─Conv1d: 2-1                       [32, 64, 1278]            384
│    └─BatchNorm1d: 2-2                  [32, 64, 1278]            128
│    └─Tanh: 2-3                         [32, 64, 1278]            --
│    └─MaxPool1d: 2-4                    [32, 64, 1274]            --
│    └─Dropout: 2-5                      [32, 64, 1274]            --
│    └─Flatten: 2-6                      [32, 81536]               --
│    └─Linear: 2-7                       [32, 1]                   81,537
==========================================================================================
Total params: 82,049
Trainable params: 82,049
Non-trainable params: 0
Total mult-adds (M): 18.32
==========================================================================================
Input size (MB): 0.16
Forward/backward pass size (MB): 41.88
Params size (MB): 0.33
Estimated Total Size (MB): 42.37
==========================================================================================
…
