…
EarlyStopping counter: 33 out of 50
epoch:  199
tensor([ 0.2381, -0.8010,  1.0110, -0.5716,  0.3067, -0.6520, -1.0032,  0.4926,
        -0.9743]) tensor([0., 0., 1., 1., 1., 1., 0., 0., 0.])
tensor(0.8351)
epoch:  200 val_f1:  0.5555555555555556 val_auroc:  0.75 val_auprc:  0.6916666666666667
EarlyStopping counter: 34 out of 50
==========================================================================================
Layer (type:depth-idx)                   Output Shape              Param #
==========================================================================================
TDPredictor                              [16, 1]                   --
Sequential: 1-1                        [16, 1]                   --
    Conv1d: 2-1                       [16, 128, 1278]           768
    BatchNorm1d: 2-2                  [16, 128, 1278]           256
    Tanh: 2-3                         [16, 128, 1278]           --
    MaxPool1d: 2-4                    [16, 128, 1274]           --
    Dropout: 2-5                      [16, 128, 1274]           --
    Flatten: 2-6                      [16, 163072]              --
    Linear: 2-7                       [16, 1]                   163,073
==========================================================================================
Total params: 164,097
Trainable params: 164,097
Non-trainable params: 0
Total mult-adds (M): 18.32
==========================================================================================
Input size (MB): 0.08
Forward/backward pass size (MB): 41.88
Params size (MB): 0.66
Estimated Total Size (MB): 42.62
==========================================================================================
…
