…
EarlyStopping counter: 47 out of 50
epoch:  199
tensor([-0.1123, -0.8204,  0.3942, -0.6444, -0.0115, -0.7289, -1.0262,  0.0503,
        -0.9842]) tensor([0., 0., 1., 1., 1., 1., 0., 0., 0.])
tensor(0.8657)
epoch:  200 val_f1:  0.5185185185185185 val_auroc:  0.75 val_auprc:  0.6916666666666667
EarlyStopping counter: 48 out of 50
==========================================================================================
Layer (type:depth-idx)                   Output Shape              Param #
==========================================================================================
TDPredictor                              [32, 1]                   --
Sequential: 1-1                        [32, 1]                   --
    Conv1d: 2-1                       [32, 256, 1278]           1,536
    BatchNorm1d: 2-2                  [32, 256, 1278]           512
    Tanh: 2-3                         [32, 256, 1278]           --
    MaxPool1d: 2-4                    [32, 256, 1274]           --
    Dropout: 2-5                      [32, 256, 1274]           --
    Flatten: 2-6                      [32, 326144]              --
    Linear: 2-7                       [32, 1]                   326,145
==========================================================================================
Total params: 328,193
Trainable params: 328,193
Non-trainable params: 0
Total mult-adds (M): 73.27
==========================================================================================
Input size (MB): 0.16
Forward/backward pass size (MB): 167.51
Params size (MB): 1.31
Estimated Total Size (MB): 168.99
…
