…
Early stopping triggered!
Time taken:  179.28674912452698
{'time_elapsed': [179.28674912452698], 'epoch': [54], 'fold': [0], 'f1_train': [0.4688644688644689], 'auroc_train': [0.7777777777777778], 'auprc_train': [0.6127425192673458], 'f1_test': [0.39682539682539686], 'auroc_test': [0.65], 'auprc_test': [0.4625]}
==========================================================================================
Layer (type:depth-idx)                   Output Shape              Param #
==========================================================================================
TDPredictor                              [32, 1]                   --
├─Sequential: 1-1                        [32, 1]                   --
│    └─Conv1d: 2-1                       [32, 1024, 1278]          6,144
│    └─BatchNorm1d: 2-2                  [32, 1024, 1278]          2,048
│    └─Tanh: 2-3                         [32, 1024, 1278]          --
│    └─MaxPool1d: 2-4                    [32, 1024, 1274]          --
│    └─Dropout: 2-5                      [32, 1024, 1274]          --
│    └─Flatten: 2-6                      [32, 1304576]             --
│    └─Linear: 2-7                       [32, 1]                   1,304,577
==========================================================================================
Total params: 1,312,769
Trainable params: 1,312,769
Non-trainable params: 0
Total mult-adds (M): 293.08
==========================================================================================
Input size (MB): 0.16
Forward/backward pass size (MB): 670.04
Params size (MB): 5.25
Estimated Total Size (MB): 675.46
…
