…
epoch:  199
tensor([-0.0952, -0.8359,  0.4371, -0.6565, -0.0187, -0.8782, -1.1604,  0.0614,
        -1.1201]) tensor([0., 0., 1., 1., 1., 1., 0., 0., 0.])
tensor(0.8764)
epoch:  200 val_f1:  0.5185185185185185 val_auroc:  0.7000000000000001 val_auprc:  0.6672619047619047
EarlyStopping counter: 17 out of 50
==========================================================================================
Layer (type:depth-idx)                   Output Shape              Param #
==========================================================================================
TDPredictor                              [32, 1]                   --
Sequential: 1-1                        [32, 1]                   --
    Conv1d: 2-1                       [32, 512, 1280]           2,048
    BatchNorm1d: 2-2                  [32, 512, 1280]           1,024
    Tanh: 2-3                         [32, 512, 1280]           --
    MaxPool1d: 2-4                    [32, 512, 1278]           --
    Dropout: 2-5                      [32, 512, 1278]           --
    Flatten: 2-6                      [32, 654336]              --
    Linear: 2-7                       [32, 1]                   654,337
==========================================================================================
Total params: 657,409
Trainable params: 657,409
Non-trainable params: 0
Total mult-adds (M): 104.86
==========================================================================================
Input size (MB): 0.16
Forward/backward pass size (MB): 335.54
Params size (MB): 2.63
Estimated Total Size (MB): 338.34
…
