…
Early stopping triggered!
Time taken:  70.41842937469482
{'time_elapsed': [70.41842937469482], 'epoch': [144], 'fold': [0], 'f1_train': [0.7449392712550608], 'auroc_train': [0.8993055555555556], 'auprc_train': [0.8792304570433083], 'f1_test': [0.5555555555555556], 'auroc_test': [0.7], 'auprc_test': [0.65]}
==========================================================================================
Layer (type:depth-idx)                   Output Shape              Param #
==========================================================================================
TDPredictor                              [16, 1]                   --
├─Sequential: 1-1                        [16, 1]                   --
│    └─Conv1d: 2-1                       [16, 128, 1280]           512
│    └─BatchNorm1d: 2-2                  [16, 128, 1280]           256
│    └─Tanh: 2-3                         [16, 128, 1280]           --
│    └─MaxPool1d: 2-4                    [16, 128, 1278]           --
│    └─Dropout: 2-5                      [16, 128, 1278]           --
│    └─Flatten: 2-6                      [16, 163584]              --
│    └─Linear: 2-7                       [16, 1]                   163,585
==========================================================================================
Total params: 164,353
Trainable params: 164,353
Non-trainable params: 0
Total mult-adds (M): 13.11
==========================================================================================
Input size (MB): 0.08
Forward/backward pass size (MB): 41.94
Params size (MB): 0.66
Estimated Total Size (MB): 42.68
==========================================================================================
…
