…
Early stopping triggered!
Time taken:  500.81749725341797
{'time_elapsed': [500.81749725341797], 'epoch': [144], 'fold': [0], 'f1_train': [0.7975977510861232], 'auroc_train': [0.9340277777777778], 'auprc_train': [0.9295755081649618], 'f1_test': [0.5555555555555556], 'auroc_test': [0.7], 'auprc_test': [0.65]}
==========================================================================================
Layer (type:depth-idx)                   Output Shape              Param #
==========================================================================================
TDPredictor                              [16, 1]                   --
├─Sequential: 1-1                        [16, 1]                   --
│    └─Conv1d: 2-1                       [16, 256, 1280]           1,024
│    └─BatchNorm1d: 2-2                  [16, 256, 1280]           512
│    └─Tanh: 2-3                         [16, 256, 1280]           --
│    └─MaxPool1d: 2-4                    [16, 256, 1278]           --
│    └─Dropout: 2-5                      [16, 256, 1278]           --
│    └─Conv1d: 2-6                       [16, 256, 1278]           196,864
│    └─BatchNorm1d: 2-7                  [16, 256, 1278]           512
│    └─Tanh: 2-8                         [16, 256, 1278]           --
│    └─MaxPool1d: 2-9                    [16, 256, 1276]           --
│    └─Dropout: 2-10                     [16, 256, 1276]           --
│    └─Conv1d: 2-11                      [16, 256, 1276]           196,864
│    └─BatchNorm1d: 2-12                 [16, 256, 1276]           512
│    └─Tanh: 2-13                        [16, 256, 1276]           --
│    └─MaxPool1d: 2-14                   [16, 256, 1274]           --
│    └─Dropout: 2-15                     [16, 256, 1274]           --
│    └─Flatten: 2-16                     [16, 326144]              --
│    └─Linear: 2-17                      [16, 1]                   326,145
==========================================================================================
Total params: 722,433
Trainable params: 722,433
Non-trainable params: 0
Total mult-adds (G): 8.07
==========================================================================================
Input size (MB): 0.08
Forward/backward pass size (MB): 251.27
Params size (MB): 2.89
Estimated Total Size (MB): 254.24
==========================================================================================
…
