…
EarlyStopping counter: 20 out of 50
epoch:  199
tensor([ 0.1133, -0.5751,  0.6762, -0.4159,  0.2347, -0.5648, -0.7464,  0.2911,
        -0.7365]) tensor([0., 0., 1., 1., 1., 1., 0., 0., 0.])
tensor(0.8351)
epoch:  200 val_f1:  0.5555555555555556 val_auroc:  0.75 val_auprc:  0.6916666666666667
EarlyStopping counter: 21 out of 50
==========================================================================================
Layer (type:depth-idx)                   Output Shape              Param #
==========================================================================================
TDPredictor                              [32, 1]                   --
Sequential: 1-1                        [32, 1]                   --
    Conv1d: 2-1                       [32, 64, 1278]            384
    BatchNorm1d: 2-2                  [32, 64, 1278]            128
    Tanh: 2-3                         [32, 64, 1278]            --
    MaxPool1d: 2-4                    [32, 64, 1274]            --
    Dropout: 2-5                      [32, 64, 1274]            --
    Flatten: 2-6                      [32, 81536]               --
    Linear: 2-7                       [32, 1]                   81,537
==========================================================================================
Total params: 82,049
Trainable params: 82,049
Non-trainable params: 0
Total mult-adds (M): 18.32
==========================================================================================
Input size (MB): 0.16
Forward/backward pass size (MB): 41.88
Params size (MB): 0.33
Estimated Total Size (MB): 42.37
==========================================================================================
…
