…
Early stopping triggered!
Time taken:  99.13368511199951
{'time_elapsed': [99.13368511199951], 'epoch': [50], 'fold': [0], 'f1_train': [0.42743221690590116], 'auroc_train': [0.8607638888888889], 'auprc_train': [0.7678335820323351], 'f1_test': [0.2735042735042735], 'auroc_test': [0.7], 'auprc_test': [0.65]}
==========================================================================================
Layer (type:depth-idx)                   Output Shape              Param #
==========================================================================================
TDPredictor                              [32, 1]                   --
├─Sequential: 1-1                        [32, 1]                   --
│    └─Conv1d: 2-1                       [32, 512, 1280]           2,048
│    └─BatchNorm1d: 2-2                  [32, 512, 1280]           1,024
│    └─Tanh: 2-3                         [32, 512, 1280]           --
│    └─MaxPool1d: 2-4                    [32, 512, 1278]           --
│    └─Dropout: 2-5                      [32, 512, 1278]           --
│    └─Flatten: 2-6                      [32, 654336]              --
│    └─Linear: 2-7                       [32, 1]                   654,337
==========================================================================================
Total params: 657,409
Trainable params: 657,409
Non-trainable params: 0
Total mult-adds (M): 104.86
==========================================================================================
Input size (MB): 0.16
Forward/backward pass size (MB): 335.54
Params size (MB): 2.63
Estimated Total Size (MB): 338.34
…
