…
Early stopping triggered!
Time taken:  24.976183652877808
{'time_elapsed': [24.976183652877808], 'epoch': [55], 'fold': [0], 'f1_train': [0.9743589743589743], 'auroc_train': [0.9951388888888888], 'auprc_train': [0.9936061061061061], 'f1_test': [0.43001443001442996], 'auroc_test': [0.6], 'auprc_test': [0.6077380952380953]}
==========================================================================================
Layer (type:depth-idx)                   Output Shape              Param #
==========================================================================================
TDPredictor                              [16, 1]                   --
├─Sequential: 1-1                        [16, 1]                   --
│    └─Conv1d: 2-1                       [16, 64, 1278]            384
│    └─BatchNorm1d: 2-2                  [16, 64, 1278]            128
│    └─Tanh: 2-3                         [16, 64, 1278]            --
│    └─MaxPool1d: 2-4                    [16, 64, 1274]            --
│    └─Dropout: 2-5                      [16, 64, 1274]            --
│    └─Flatten: 2-6                      [16, 81536]               --
│    └─Linear: 2-7                       [16, 1]                   81,537
==========================================================================================
Total params: 82,049
Trainable params: 82,049
Non-trainable params: 0
Total mult-adds (M): 9.16
==========================================================================================
Input size (MB): 0.08
Forward/backward pass size (MB): 20.94
Params size (MB): 0.33
Estimated Total Size (MB): 21.35
==========================================================================================
…
