…
Early stopping triggered!
Time taken:  182.57288551330566
{'time_elapsed': [182.57288551330566], 'epoch': [187], 'fold': [0], 'f1_train': [0.7849921193249529], 'auroc_train': [0.9152777777777777], 'auprc_train': [0.8987783339555828], 'f1_test': [0.5555555555555556], 'auroc_test': [0.75], 'auprc_test': [0.6916666666666667]}
==========================================================================================
Layer (type:depth-idx)                   Output Shape              Param #
==========================================================================================
TDPredictor                              [16, 1]                   --
Sequential: 1-1                        [16, 1]                   --
    Conv1d: 2-1                       [16, 256, 1278]           1,536
    BatchNorm1d: 2-2                  [16, 256, 1278]           512
    Tanh: 2-3                         [16, 256, 1278]           --
    MaxPool1d: 2-4                    [16, 256, 1274]           --
    Dropout: 2-5                      [16, 256, 1274]           --
    Flatten: 2-6                      [16, 326144]              --
    Linear: 2-7                       [16, 1]                   326,145
==========================================================================================
Total params: 328,193
Trainable params: 328,193
Non-trainable params: 0
Total mult-adds (M): 36.63
==========================================================================================
Input size (MB): 0.08
Forward/backward pass size (MB): 83.76
Params size (MB): 1.31
Estimated Total Size (MB): 85.15
==========================================================================================
…
