…
Time taken:  49.523547649383545
{'time_elapsed': [49.523547649383545], 'epoch': [196], 'fold': [0], 'f1_train': [0.7179487179487181], 'auroc_train': [0.9069444444444444], 'auprc_train': [0.8928543512162418], 'f1_test': [0.5555555555555556], 'auroc_test': [0.7000000000000001], 'auprc_test': [0.6672619047619047]}
==========================================================================================
Layer (type:depth-idx)                   Output Shape              Param #
==========================================================================================
TDPredictor                              [32, 1]                   --
Sequential: 1-1                        [32, 1]                   --
    Conv1d: 2-1                       [32, 64, 1280]            256
    BatchNorm1d: 2-2                  [32, 64, 1280]            128
    Tanh: 2-3                         [32, 64, 1280]            --
    MaxPool1d: 2-4                    [32, 64, 1278]            --
    Dropout: 2-5                      [32, 64, 1278]            --
    Flatten: 2-6                      [32, 81792]               --
    Linear: 2-7                       [32, 1]                   81,793
==========================================================================================
Total params: 82,177
Trainable params: 82,177
Non-trainable params: 0
Total mult-adds (M): 13.11
==========================================================================================
Input size (MB): 0.16
Forward/backward pass size (MB): 41.94
Params size (MB): 0.33
Estimated Total Size (MB): 42.44
==========================================================================================
…
