…
EarlyStopping counter: 12 out of 50
epoch:  199
tensor([ 0.7054, -0.2582,  1.3189, -0.0323,  0.6886, -0.1112, -0.4656,  0.9133,
        -0.4494]) tensor([0., 0., 1., 1., 1., 1., 0., 0., 0.])
tensor(0.8085)
epoch:  200 val_f1:  0.5555555555555556 val_auroc:  0.7 val_auprc:  0.65
EarlyStopping counter: 13 out of 50
==========================================================================================
Layer (type:depth-idx)                   Output Shape              Param #
==========================================================================================
TDPredictor                              [16, 1]                   --
Sequential: 1-1                        [16, 1]                   --
    Conv1d: 2-1                       [16, 1024, 1278]          6,144
    BatchNorm1d: 2-2                  [16, 1024, 1278]          2,048
    Tanh: 2-3                         [16, 1024, 1278]          --
    MaxPool1d: 2-4                    [16, 1024, 1274]          --
    Dropout: 2-5                      [16, 1024, 1274]          --
    Flatten: 2-6                      [16, 1304576]             --
    Linear: 2-7                       [16, 1]                   1,304,577
==========================================================================================
Total params: 1,312,769
Trainable params: 1,312,769
Non-trainable params: 0
Total mult-adds (M): 146.54
==========================================================================================
Input size (MB): 0.08
Forward/backward pass size (MB): 335.02
Params size (MB): 5.25
Estimated Total Size (MB): 340.35
…
