…
Time taken:  57.47819137573242
{'time_elapsed': [57.47819137573242], 'epoch': [163], 'fold': [0], 'f1_train': [0.7590234489062678], 'auroc_train': [0.8798611111111111], 'auprc_train': [0.8511247657428862], 'f1_test': [0.5555555555555556], 'auroc_test': [0.7000000000000001], 'auprc_test': [0.6672619047619047]}
==========================================================================================
Layer (type:depth-idx)                   Output Shape              Param #
==========================================================================================
TDPredictor                              [32, 1]                   --
├─Sequential: 1-1                        [32, 1]                   --
│    └─Conv1d: 2-1                       [32, 128, 1280]           512
│    └─BatchNorm1d: 2-2                  [32, 128, 1280]           256
│    └─Tanh: 2-3                         [32, 128, 1280]           --
│    └─MaxPool1d: 2-4                    [32, 128, 1278]           --
│    └─Dropout: 2-5                      [32, 128, 1278]           --
│    └─Flatten: 2-6                      [32, 163584]              --
│    └─Linear: 2-7                       [32, 1]                   163,585
==========================================================================================
Total params: 164,353
Trainable params: 164,353
Non-trainable params: 0
Total mult-adds (M): 26.21
==========================================================================================
Input size (MB): 0.16
Forward/backward pass size (MB): 83.89
Params size (MB): 0.66
Estimated Total Size (MB): 84.71
==========================================================================================
…
