…
EarlyStopping counter: 45 out of 50
epoch:  199
tensor([-0.2140, -1.2222,  0.5016, -1.0017, -0.1415, -1.1653, -1.4548, -0.0235,
        -1.4938]) tensor([0., 0., 1., 1., 1., 1., 0., 0., 0.])
tensor(0.9255)
epoch:  200 val_f1:  0.6051282051282052 val_auroc:  0.75 val_auprc:  0.6916666666666667
EarlyStopping counter: 46 out of 50
==========================================================================================
Layer (type:depth-idx)                   Output Shape              Param #
==========================================================================================
TDPredictor                              [16, 1]                   --
Sequential: 1-1                        [16, 1]                   --
    Conv1d: 2-1                       [16, 1024, 1278]          6,144
    BatchNorm1d: 2-2                  [16, 1024, 1278]          2,048
    Tanh: 2-3                         [16, 1024, 1278]          --
    MaxPool1d: 2-4                    [16, 1024, 1274]          --
    Dropout: 2-5                      [16, 1024, 1274]          --
    Flatten: 2-6                      [16, 1304576]             --
    Linear: 2-7                       [16, 1]                   1,304,577
==========================================================================================
Total params: 1,312,769
Trainable params: 1,312,769
Non-trainable params: 0
Total mult-adds (M): 146.54
==========================================================================================
Input size (MB): 0.08
Forward/backward pass size (MB): 335.02
Params size (MB): 5.25
Estimated Total Size (MB): 340.35
…
