…
EarlyStopping counter: 5 out of 50
epoch:  199
tensor([ 0.1157, -0.4921,  0.6317, -0.3480,  0.2349, -0.4578, -0.6922,  0.3071,
        -0.6560]) tensor([0., 0., 1., 1., 1., 1., 0., 0., 0.])
tensor(0.8283)
epoch:  200 val_f1:  0.5555555555555556 val_auroc:  0.75 val_auprc:  0.6916666666666667
EarlyStopping counter: 6 out of 50
==========================================================================================
Layer (type:depth-idx)                   Output Shape              Param #
==========================================================================================
TDPredictor                              [32, 1]                   --
Sequential: 1-1                        [32, 1]                   --
    Conv1d: 2-1                       [32, 128, 1278]           768
    BatchNorm1d: 2-2                  [32, 128, 1278]           256
    Tanh: 2-3                         [32, 128, 1278]           --
    MaxPool1d: 2-4                    [32, 128, 1274]           --
    Dropout: 2-5                      [32, 128, 1274]           --
    Flatten: 2-6                      [32, 163072]              --
    Linear: 2-7                       [32, 1]                   163,073
==========================================================================================
Total params: 164,097
Trainable params: 164,097
Non-trainable params: 0
Total mult-adds (M): 36.63
==========================================================================================
Input size (MB): 0.16
Forward/backward pass size (MB): 83.76
Params size (MB): 0.66
Estimated Total Size (MB): 84.58
==========================================================================================
…
