…
Early stopping triggered!
Time taken:  33.75786018371582
{'time_elapsed': [33.75786018371582], 'epoch': [50], 'fold': [0], 'f1_train': [0.745956087419502], 'auroc_train': [0.9069444444444444], 'auprc_train': [0.8391625888237894], 'f1_test': [0.5555555555555556], 'auroc_test': [0.65], 'auprc_test': [0.4625]}
==========================================================================================
Layer (type:depth-idx)                   Output Shape              Param #
==========================================================================================
TDPredictor                              [32, 1]                   --
├─Sequential: 1-1                        [32, 1]                   --
│    └─Conv1d: 2-1                       [32, 128, 1278]           768
│    └─BatchNorm1d: 2-2                  [32, 128, 1278]           256
│    └─Tanh: 2-3                         [32, 128, 1278]           --
│    └─MaxPool1d: 2-4                    [32, 128, 1274]           --
│    └─Dropout: 2-5                      [32, 128, 1274]           --
│    └─Flatten: 2-6                      [32, 163072]              --
│    └─Linear: 2-7                       [32, 1]                   163,073
==========================================================================================
Total params: 164,097
Trainable params: 164,097
Non-trainable params: 0
Total mult-adds (M): 36.63
==========================================================================================
Input size (MB): 0.16
Forward/backward pass size (MB): 83.76
Params size (MB): 0.66
Estimated Total Size (MB): 84.58
==========================================================================================
…
