…
epoch:  199
tensor([ 0.0132, -0.7422,  0.5499, -0.5698,  0.1103, -0.7626, -1.0772,  0.1538,
        -1.0234]) tensor([0., 0., 1., 1., 1., 1., 0., 0., 0.])
tensor(0.8529)
epoch:  200 val_f1:  0.5555555555555556 val_auroc:  0.7000000000000001 val_auprc:  0.6672619047619047
EarlyStopping counter: 2 out of 50
==========================================================================================
Layer (type:depth-idx)                   Output Shape              Param #
==========================================================================================
TDPredictor                              [32, 1]                   --
Sequential: 1-1                        [32, 1]                   --
    Conv1d: 2-1                       [32, 512, 1280]           2,048
    BatchNorm1d: 2-2                  [32, 512, 1280]           1,024
    Tanh: 2-3                         [32, 512, 1280]           --
    MaxPool1d: 2-4                    [32, 512, 1278]           --
    Dropout: 2-5                      [32, 512, 1278]           --
    Flatten: 2-6                      [32, 654336]              --
    Linear: 2-7                       [32, 1]                   654,337
==========================================================================================
Total params: 657,409
Trainable params: 657,409
Non-trainable params: 0
Total mult-adds (M): 104.86
==========================================================================================
Input size (MB): 0.16
Forward/backward pass size (MB): 335.54
Params size (MB): 2.63
Estimated Total Size (MB): 338.34
…
