…
{'time_elapsed': [12710.314143180847], 'epoch': [56], 'fold': [3], 'f1_train': [0.616672228846281], 'auroc_train': [0.6445325246130946], 'auprc_train': [0.4661738669764972], 'f1_test': [0.5991521916784819], 'auroc_test': [0.618256780970237], 'auprc_test': [0.43972106174736986]}
   time_elapsed  epoch  fold  ...   f1_test  auroc_test  auprc_test
0  12710.314143     56     3  ...  0.599152    0.618257    0.439721

[1 rows x 9 columns]
==========================================================================================
Layer (type:depth-idx)                   Output Shape              Param #
==========================================================================================
PGPredictor                              [512, 1]                  --
Sequential: 1-1                        [512, 1]                  --
    Conv1d: 2-1                       [512, 256, 1274]          2,048
    BatchNorm1d: 2-2                  [512, 256, 1274]          512
    Tanh: 2-3                         [512, 256, 1274]          --
    MaxPool1d: 2-4                    [512, 256, 182]           --
    Dropout: 2-5                      [512, 256, 182]           --
    Flatten: 2-6                      [512, 46592]              --
    Linear: 2-7                       [512, 1]                  46,593
==========================================================================================
Total params: 49,153
Trainable params: 49,153
Non-trainable params: 0
Total mult-adds (G): 1.36
==========================================================================================
Input size (MB): 2.62
Forward/backward pass size (MB): 2671.78
Params size (MB): 0.20
Estimated Total Size (MB): 2674.59
==========================================================================================
