…
{'time_elapsed': [13288.591443538666], 'epoch': [56], 'fold': [2], 'f1_train': [0.6000821566181587], 'auroc_train': [0.6435259205959001], 'auprc_train': [0.46633990632437666], 'f1_test': [0.5783425763434841], 'auroc_test': [0.6123650762069683], 'auprc_test': [0.4303338318416638]}
   time_elapsed  epoch  fold  ...   f1_test  auroc_test  auprc_test
0  13288.591444     56     2  ...  0.578343    0.612365    0.430334

[1 rows x 9 columns]
==========================================================================================
Layer (type:depth-idx)                   Output Shape              Param #
==========================================================================================
PGPredictor                              [512, 1]                  --
Sequential: 1-1                        [512, 1]                  --
    Conv1d: 2-1                       [512, 256, 1274]          2,048
    BatchNorm1d: 2-2                  [512, 256, 1274]          512
    Tanh: 2-3                         [512, 256, 1274]          --
    MaxPool1d: 2-4                    [512, 256, 182]           --
    Dropout: 2-5                      [512, 256, 182]           --
    Flatten: 2-6                      [512, 46592]              --
    Linear: 2-7                       [512, 1]                  46,593
==========================================================================================
Total params: 49,153
Trainable params: 49,153
Non-trainable params: 0
Total mult-adds (G): 1.36
==========================================================================================
Input size (MB): 2.62
Forward/backward pass size (MB): 2671.78
Params size (MB): 0.20
Estimated Total Size (MB): 2674.59
==========================================================================================
