…
{'time_elapsed': [14646.745443582535], 'epoch': [64], 'fold': [3], 'f1_train': [0.604527036813563], 'auroc_train': [0.6566740528231703], 'auprc_train': [0.4785886246478466], 'f1_test': [0.5832202556432572], 'auroc_test': [0.622571238603981], 'auprc_test': [0.4408909682444295]}
   time_elapsed  epoch  fold  ...  f1_test  auroc_test  auprc_test
0  14646.745444     64     3  ...  0.58322    0.622571    0.440891

[1 rows x 9 columns]
==========================================================================================
Layer (type:depth-idx)                   Output Shape              Param #
==========================================================================================
PGPredictor                              [512, 1]                  --
Sequential: 1-1                        [512, 1]                  --
    Conv1d: 2-1                       [512, 256, 1274]          2,048
    BatchNorm1d: 2-2                  [512, 256, 1274]          512
    Tanh: 2-3                         [512, 256, 1274]          --
    MaxPool1d: 2-4                    [512, 256, 182]           --
    Dropout: 2-5                      [512, 256, 182]           --
    Flatten: 2-6                      [512, 46592]              --
    Linear: 2-7                       [512, 1]                  46,593
==========================================================================================
Total params: 49,153
Trainable params: 49,153
Non-trainable params: 0
Total mult-adds (G): 1.36
==========================================================================================
Input size (MB): 2.62
Forward/backward pass size (MB): 2671.78
Params size (MB): 0.20
Estimated Total Size (MB): 2674.59
==========================================================================================
