…
{'time_elapsed': [18025.89756512642], 'epoch': [66], 'fold': [4], 'f1_train': [0.651039428472232], 'auroc_train': [0.7025021538190317], 'auprc_train': [0.5195894700619862], 'f1_test': [0.6281122128510456], 'auroc_test': [0.6692616389941943], 'auprc_test': [0.47954246741929135]}
   time_elapsed  epoch  fold  ...   f1_test  auroc_test  auprc_test
0  18025.897565     66     4  ...  0.628112    0.669262    0.479542

[1 rows x 9 columns]
==========================================================================================
Layer (type:depth-idx)                   Output Shape              Param #
==========================================================================================
PGPredictor                              [512, 1]                  --
Sequential: 1-1                        [512, 1]                  --
    Conv1d: 2-1                       [512, 256, 1274]          2,048
    BatchNorm1d: 2-2                  [512, 256, 1274]          512
    Tanh: 2-3                         [512, 256, 1274]          --
    MaxPool1d: 2-4                    [512, 256, 182]           --
    Dropout: 2-5                      [512, 256, 182]           --
    Flatten: 2-6                      [512, 46592]              --
    Linear: 2-7                       [512, 1]                  46,593
==========================================================================================
Total params: 49,153
Trainable params: 49,153
Non-trainable params: 0
Total mult-adds (G): 1.36
==========================================================================================
Input size (MB): 2.62
Forward/backward pass size (MB): 2671.78
Params size (MB): 0.20
Estimated Total Size (MB): 2674.59
==========================================================================================
