…
{'time_elapsed': [15036.099999666214], 'epoch': [59], 'fold': [3], 'f1_train': [0.6393829198654299], 'auroc_train': [0.7021005928171986], 'auprc_train': [0.5222911670099286], 'f1_test': [0.6229997148646235], 'auroc_test': [0.6729276471501379], 'auprc_test': [0.48374276983635967]}
   time_elapsed  epoch  fold  ...  f1_test  auroc_test  auprc_test
0       15036.1     59     3  ...    0.623    0.672928    0.483743

[1 rows x 9 columns]
==========================================================================================
Layer (type:depth-idx)                   Output Shape              Param #
==========================================================================================
PGPredictor                              [512, 1]                  --
Sequential: 1-1                        [512, 1]                  --
    Conv1d: 2-1                       [512, 256, 1274]          2,048
    BatchNorm1d: 2-2                  [512, 256, 1274]          512
    Tanh: 2-3                         [512, 256, 1274]          --
    MaxPool1d: 2-4                    [512, 256, 182]           --
    Dropout: 2-5                      [512, 256, 182]           --
    Flatten: 2-6                      [512, 46592]              --
    Linear: 2-7                       [512, 1]                  46,593
==========================================================================================
Total params: 49,153
Trainable params: 49,153
Non-trainable params: 0
Total mult-adds (G): 1.36
==========================================================================================
Input size (MB): 2.62
Forward/backward pass size (MB): 2671.78
Params size (MB): 0.20
Estimated Total Size (MB): 2674.59
==========================================================================================
