…
{'time_elapsed': [15892.848005533218], 'epoch': [64], 'fold': [4], 'f1_train': [0.6014842518251847], 'auroc_train': [0.6441626084059857], 'auprc_train': [0.46766161763667025], 'f1_test': [0.5841524931559494], 'auroc_test': [0.6165617542516598], 'auprc_test': [0.43614372604300466]}
   time_elapsed  epoch  fold  ...   f1_test  auroc_test  auprc_test
0  15892.848006     64     4  ...  0.584152    0.616562    0.436144

[1 rows x 9 columns]
==========================================================================================
Layer (type:depth-idx)                   Output Shape              Param #
==========================================================================================
PGPredictor                              [512, 1]                  --
Sequential: 1-1                        [512, 1]                  --
    Conv1d: 2-1                       [512, 256, 1274]          2,048
    BatchNorm1d: 2-2                  [512, 256, 1274]          512
    Tanh: 2-3                         [512, 256, 1274]          --
    MaxPool1d: 2-4                    [512, 256, 182]           --
    Dropout: 2-5                      [512, 256, 182]           --
    Flatten: 2-6                      [512, 46592]              --
    Linear: 2-7                       [512, 1]                  46,593
==========================================================================================
Total params: 49,153
Trainable params: 49,153
Non-trainable params: 0
Total mult-adds (G): 1.36
==========================================================================================
Input size (MB): 2.62
Forward/backward pass size (MB): 2671.78
Params size (MB): 0.20
Estimated Total Size (MB): 2674.59
==========================================================================================
