…
{'time_elapsed': [25098.753182649612], 'epoch': [103], 'fold': [0], 'f1_train': [0.6193269860762991], 'auroc_train': [0.6731897435022792], 'auprc_train': [0.4956520979683797], 'f1_test': [0.5991608343166132], 'auroc_test': [0.6402656959976769], 'auprc_test': [0.4537017317326544]}
   time_elapsed  epoch  fold  ...   f1_test  auroc_test  auprc_test
0  25098.753183    103     0  ...  0.599161    0.640266    0.453702

[1 rows x 9 columns]
==========================================================================================
Layer (type:depth-idx)                   Output Shape              Param #
==========================================================================================
PGPredictor                              [512, 1]                  --
Sequential: 1-1                        [512, 1]                  --
    Conv1d: 2-1                       [512, 256, 1274]          2,048
    BatchNorm1d: 2-2                  [512, 256, 1274]          512
    Tanh: 2-3                         [512, 256, 1274]          --
    MaxPool1d: 2-4                    [512, 256, 182]           --
    Dropout: 2-5                      [512, 256, 182]           --
    Flatten: 2-6                      [512, 46592]              --
    Linear: 2-7                       [512, 1]                  46,593
==========================================================================================
Total params: 49,153
Trainable params: 49,153
Non-trainable params: 0
Total mult-adds (G): 1.36
==========================================================================================
Input size (MB): 2.62
Forward/backward pass size (MB): 2671.78
Params size (MB): 0.20
Estimated Total Size (MB): 2674.59
==========================================================================================
