…
{'time_elapsed': [15304.202771902084], 'epoch': [60], 'fold': [4], 'f1_train': [0.6175278992085346], 'auroc_train': [0.6442795396445447], 'auprc_train': [0.46557554328009687], 'f1_test': [0.6011774165511865], 'auroc_test': [0.618869745803579], 'auprc_test': [0.437739792769179]}
   time_elapsed  epoch  fold  ...   f1_test  auroc_test  auprc_test
0  15304.202772     60     4  ...  0.601177     0.61887     0.43774

[1 rows x 9 columns]
==========================================================================================
Layer (type:depth-idx)                   Output Shape              Param #
==========================================================================================
PGPredictor                              [512, 1]                  --
Sequential: 1-1                        [512, 1]                  --
    Conv1d: 2-1                       [512, 256, 1274]          2,048
    BatchNorm1d: 2-2                  [512, 256, 1274]          512
    Tanh: 2-3                         [512, 256, 1274]          --
    MaxPool1d: 2-4                    [512, 256, 182]           --
    Dropout: 2-5                      [512, 256, 182]           --
    Flatten: 2-6                      [512, 46592]              --
    Linear: 2-7                       [512, 1]                  46,593
==========================================================================================
Total params: 49,153
Trainable params: 49,153
Non-trainable params: 0
Total mult-adds (G): 1.36
==========================================================================================
Input size (MB): 2.62
Forward/backward pass size (MB): 2671.78
Params size (MB): 0.20
Estimated Total Size (MB): 2674.59
==========================================================================================
