…
{'time_elapsed': [16872.639108896255], 'epoch': [69], 'fold': [3], 'f1_train': [0.634318169618758], 'auroc_train': [0.6809828448917179], 'auprc_train': [0.5008567736600406], 'f1_test': [0.612753142301895], 'auroc_test': [0.6490736279905702], 'auprc_test': [0.4631603206907039]}
   time_elapsed  epoch  fold  ...   f1_test  auroc_test  auprc_test
0  16872.639109     69     3  ...  0.612753    0.649074     0.46316

[1 rows x 9 columns]
==========================================================================================
Layer (type:depth-idx)                   Output Shape              Param #
==========================================================================================
PGPredictor                              [512, 1]                  --
Sequential: 1-1                        [512, 1]                  --
    Conv1d: 2-1                       [512, 256, 1274]          2,048
    BatchNorm1d: 2-2                  [512, 256, 1274]          512
    Tanh: 2-3                         [512, 256, 1274]          --
    MaxPool1d: 2-4                    [512, 256, 182]           --
    Dropout: 2-5                      [512, 256, 182]           --
    Flatten: 2-6                      [512, 46592]              --
    Linear: 2-7                       [512, 1]                  46,593
==========================================================================================
Total params: 49,153
Trainable params: 49,153
Non-trainable params: 0
Total mult-adds (G): 1.36
==========================================================================================
Input size (MB): 2.62
Forward/backward pass size (MB): 2671.78
Params size (MB): 0.20
Estimated Total Size (MB): 2674.59
==========================================================================================
