…
{'time_elapsed': [13958.56637763977], 'epoch': [58], 'fold': [3], 'f1_train': [0.6226492953473493], 'auroc_train': [0.6372438058959943], 'auprc_train': [0.4581636031549114], 'f1_test': [0.6021998678084993], 'auroc_test': [0.6070744804571033], 'auprc_test': [0.4253842561905119]}
   time_elapsed  epoch  fold  ...  f1_test  auroc_test  auprc_test
0  13958.566378     58     3  ...   0.6022    0.607074    0.425384

[1 rows x 9 columns]
==========================================================================================
Layer (type:depth-idx)                   Output Shape              Param #
==========================================================================================
PGPredictor                              [512, 1]                  --
Sequential: 1-1                        [512, 1]                  --
    Conv1d: 2-1                       [512, 256, 1274]          2,048
    BatchNorm1d: 2-2                  [512, 256, 1274]          512
    Tanh: 2-3                         [512, 256, 1274]          --
    MaxPool1d: 2-4                    [512, 256, 182]           --
    Dropout: 2-5                      [512, 256, 182]           --
    Flatten: 2-6                      [512, 46592]              --
    Linear: 2-7                       [512, 1]                  46,593
==========================================================================================
Total params: 49,153
Trainable params: 49,153
Non-trainable params: 0
Total mult-adds (G): 1.36
==========================================================================================
Input size (MB): 2.62
Forward/backward pass size (MB): 2671.78
Params size (MB): 0.20
Estimated Total Size (MB): 2674.59
==========================================================================================
