…
{'time_elapsed': [18128.90650177002], 'epoch': [70], 'fold': [1], 'f1_train': [0.6138267322311304], 'auroc_train': [0.6595231138974578], 'auprc_train': [0.48142894898735694], 'f1_test': [0.5921430311965016], 'auroc_test': [0.6231922083528509], 'auprc_test': [0.43975158236074435]}
   time_elapsed  epoch  fold  ...   f1_test  auroc_test  auprc_test
0  18128.906502     70     1  ...  0.592143    0.623192    0.439752

[1 rows x 9 columns]
==========================================================================================
Layer (type:depth-idx)                   Output Shape              Param #
==========================================================================================
PGPredictor                              [512, 1]                  --
Sequential: 1-1                        [512, 1]                  --
    Conv1d: 2-1                       [512, 256, 1274]          2,048
    BatchNorm1d: 2-2                  [512, 256, 1274]          512
    Tanh: 2-3                         [512, 256, 1274]          --
    MaxPool1d: 2-4                    [512, 256, 182]           --
    Dropout: 2-5                      [512, 256, 182]           --
    Flatten: 2-6                      [512, 46592]              --
    Linear: 2-7                       [512, 1]                  46,593
==========================================================================================
Total params: 49,153
Trainable params: 49,153
Non-trainable params: 0
Total mult-adds (G): 1.36
==========================================================================================
Input size (MB): 2.62
Forward/backward pass size (MB): 2671.78
Params size (MB): 0.20
Estimated Total Size (MB): 2674.59
==========================================================================================
