…
Time taken:  172923.17488384247
{'time_elapsed': [172923.17488384247], 'epoch': [65], 'fold': [2], 'f1_train': [0.6641755142833258], 'auroc_train': [0.7334499697124068], 'auprc_train': [0.5660900108293824], 'f1_test': [0.6210070047147223], 'auroc_test': [0.6644422605648858], 'auprc_test': [0.4720514728112352]}
==========================================================================================
Layer (type:depth-idx)                   Output Shape              Param #
==========================================================================================
PGPredictor                              [512, 1]                  --
Sequential: 1-1                        [512, 1]                  --
    Conv1d: 2-1                       [512, 512, 1268]          7,168
    BatchNorm1d: 2-2                  [512, 512, 1268]          1,024
    Tanh: 2-3                         [512, 512, 1268]          --
    MaxPool1d: 2-4                    [512, 512, 97]            --
    Dropout: 2-5                      [512, 512, 97]            --
    Flatten: 2-6                      [512, 49664]              --
    Linear: 2-7                       [512, 1]                  49,665
==========================================================================================
Total params: 57,857
Trainable params: 57,857
Non-trainable params: 0
Total mult-adds (G): 4.68
==========================================================================================
Input size (MB): 2.62
Forward/backward pass size (MB): 5318.38
Params size (MB): 0.23
Estimated Total Size (MB): 5321.23
==========================================================================================
