…
Time taken:  88648.36891150475
{'time_elapsed': [88648.36891150475], 'epoch': [57], 'fold': [0], 'f1_train': [0.7055295733910955], 'auroc_train': [0.7963924989787389], 'auprc_train': [0.6519176574858342], 'f1_test': [0.603032418209357], 'auroc_test': [0.6417904640155683], 'auprc_test': [0.4534078118184826]}
==========================================================================================
Layer (type:depth-idx)                   Output Shape              Param #
==========================================================================================
PGPredictor                              [1024, 1]                 --
├─Sequential: 1-1                        [1024, 1]                 --
│    └─Conv1d: 2-1                       [1024, 256, 1262]         5,120
│    └─BatchNorm1d: 2-2                  [1024, 256, 1262]         512
│    └─Tanh: 2-3                         [1024, 256, 1262]         --
│    └─MaxPool1d: 2-4                    [1024, 256, 66]           --
│    └─Dropout: 2-5                      [1024, 256, 66]           --
│    └─Flatten: 2-6                      [1024, 16896]             --
│    └─Linear: 2-7                       [1024, 1]                 16,897
==========================================================================================
Total params: 22,529
Trainable params: 22,529
Non-trainable params: 0
Total mult-adds (G): 6.63
==========================================================================================
Input size (MB): 5.24
Forward/backward pass size (MB): 5293.22
Params size (MB): 0.09
Estimated Total Size (MB): 5298.55
==========================================================================================
