…
Time taken:  47435.28978276253
{'time_elapsed': [47435.28978276253], 'epoch': [57], 'fold': [2], 'f1_train': [0.6918331687683132], 'auroc_train': [0.7595836749739957], 'auprc_train': [0.598296391618239], 'f1_test': [0.6267512342883014], 'auroc_test': [0.6632390134462183], 'auprc_test': [0.4755707042830909]}
==========================================================================================
Layer (type:depth-idx)                   Output Shape              Param #
==========================================================================================
PGPredictor                              [512, 1]                  --
Sequential: 1-1                        [512, 1]                  --
    Conv1d: 2-1                       [512, 128, 1274]          1,024
    BatchNorm1d: 2-2                  [512, 128, 1274]          256
    Tanh: 2-3                         [512, 128, 1274]          --
    MaxPool1d: 2-4                    [512, 128, 182]           --
    Dropout: 2-5                      [512, 128, 182]           --
    Flatten: 2-6                      [512, 23296]              --
    Linear: 2-7                       [512, 1]                  23,297
==========================================================================================
Total params: 24,577
Trainable params: 24,577
Non-trainable params: 0
Total mult-adds (M): 680.00
==========================================================================================
Input size (MB): 2.62
Forward/backward pass size (MB): 1335.89
Params size (MB): 0.10
Estimated Total Size (MB): 1338.61
…
