…
Time taken:  143750.0087697506
{'time_elapsed': [143750.0087697506], 'epoch': [64], 'fold': [1], 'f1_train': [0.6492091397386871], 'auroc_train': [0.7290986581273861], 'auprc_train': [0.5564272961051008], 'f1_test': [0.6025353320829628], 'auroc_test': [0.6579811544271603], 'auprc_test': [0.4689845301366762]}
==========================================================================================
Layer (type:depth-idx)                   Output Shape              Param #
==========================================================================================
PGPredictor                              [512, 1]                  --
Sequential: 1-1                        [512, 1]                  --
    Conv1d: 2-1                       [512, 512, 1268]          7,168
    BatchNorm1d: 2-2                  [512, 512, 1268]          1,024
    Tanh: 2-3                         [512, 512, 1268]          --
    MaxPool1d: 2-4                    [512, 512, 97]            --
    Dropout: 2-5                      [512, 512, 97]            --
    Flatten: 2-6                      [512, 49664]              --
    Linear: 2-7                       [512, 1]                  49,665
==========================================================================================
Total params: 57,857
Trainable params: 57,857
Non-trainable params: 0
Total mult-adds (G): 4.68
==========================================================================================
Input size (MB): 2.62
Forward/backward pass size (MB): 5318.38
Params size (MB): 0.23
Estimated Total Size (MB): 5321.23
==========================================================================================
