…
Time taken:  87585.7581744194
{'time_elapsed': [87585.7581744194], 'epoch': [59], 'fold': [2], 'f1_train': [0.721861859753941], 'auroc_train': [0.8015350231912488], 'auprc_train': [0.6570695907250877], 'f1_test': [0.6111494799999566], 'auroc_test': [0.639067005520589], 'auprc_test': [0.44901817834886404]}
==========================================================================================
Layer (type:depth-idx)                   Output Shape              Param #
==========================================================================================
PGPredictor                              [1024, 1]                 --
├─Sequential: 1-1                        [1024, 1]                 --
│    └─Conv1d: 2-1                       [1024, 256, 1262]         5,120
│    └─BatchNorm1d: 2-2                  [1024, 256, 1262]         512
│    └─Tanh: 2-3                         [1024, 256, 1262]         --
│    └─MaxPool1d: 2-4                    [1024, 256, 66]           --
│    └─Dropout: 2-5                      [1024, 256, 66]           --
│    └─Flatten: 2-6                      [1024, 16896]             --
│    └─Linear: 2-7                       [1024, 1]                 16,897
==========================================================================================
Total params: 22,529
Trainable params: 22,529
Non-trainable params: 0
Total mult-adds (G): 6.63
==========================================================================================
Input size (MB): 5.24
Forward/backward pass size (MB): 5293.22
Params size (MB): 0.09
Estimated Total Size (MB): 5298.55
==========================================================================================
