…
Time taken:  206599.17112374306
{'time_elapsed': [206599.17112374306], 'epoch': [69], 'fold': [1], 'f1_train': [0.6891131718919425], 'auroc_train': [0.7725730583598622], 'auprc_train': [0.6198019139973419], 'f1_test': [0.6066526403778437], 'auroc_test': [0.6541014001499613], 'auprc_test': [0.4670627596904347]}
==========================================================================================
Layer (type:depth-idx)                   Output Shape              Param #
==========================================================================================
PGPredictor                              [1024, 1]                 --
Sequential: 1-1                        [1024, 1]                 --
    Conv1d: 2-1                       [1024, 512, 1262]         10,240
    BatchNorm1d: 2-2                  [1024, 512, 1262]         1,024
    Tanh: 2-3                         [1024, 512, 1262]         --
    MaxPool1d: 2-4                    [1024, 512, 66]           --
    Dropout: 2-5                      [1024, 512, 66]           --
    Flatten: 2-6                      [1024, 33792]             --
    Linear: 2-7                       [1024, 1]                 33,793
==========================================================================================
Total params: 45,057
Trainable params: 45,057
Non-trainable params: 0
Total mult-adds (G): 13.27
==========================================================================================
Input size (MB): 5.24
Forward/backward pass size (MB): 10586.43
Params size (MB): 0.18
Estimated Total Size (MB): 10591.85
…
