…
Time taken:  44612.42023849487
{'time_elapsed': [44612.42023849487], 'epoch': [66], 'fold': [1], 'f1_train': [0.6974736981171156], 'auroc_train': [0.7531153579195384], 'auprc_train': [0.5892341653621823], 'f1_test': [0.6255025756077552], 'auroc_test': [0.6490485767034915], 'auprc_test': [0.4561523025162531]}
==========================================================================================
Layer (type:depth-idx)                   Output Shape              Param #
==========================================================================================
PGPredictor                              [1024, 1]                 --
Sequential: 1-1                        [1024, 1]                 --
    Conv1d: 2-1                       [1024, 128, 1262]         2,560
    BatchNorm1d: 2-2                  [1024, 128, 1262]         256
    Tanh: 2-3                         [1024, 128, 1262]         --
    MaxPool1d: 2-4                    [1024, 128, 66]           --
    Dropout: 2-5                      [1024, 128, 66]           --
    Flatten: 2-6                      [1024, 8448]              --
    Linear: 2-7                       [1024, 1]                 8,449
==========================================================================================
Total params: 11,265
Trainable params: 11,265
Non-trainable params: 0
Total mult-adds (G): 3.32
==========================================================================================
Input size (MB): 5.24
Forward/backward pass size (MB): 2646.61
Params size (MB): 0.05
Estimated Total Size (MB): 2651.90
==========================================================================================
