…
Time taken:  47205.06215238571
{'time_elapsed': [47205.06215238571], 'epoch': [72], 'fold': [1], 'f1_train': [0.6676567461166174], 'auroc_train': [0.7299331097445025], 'auprc_train': [0.5578718016882573], 'f1_test': [0.6241888875310895], 'auroc_test': [0.6653566061581604], 'auprc_test': [0.47498579254922957]}
==========================================================================================
Layer (type:depth-idx)                   Output Shape              Param #
==========================================================================================
PGPredictor                              [512, 1]                  --
Sequential: 1-1                        [512, 1]                  --
    Conv1d: 2-1                       [512, 128, 1268]          1,792
    BatchNorm1d: 2-2                  [512, 128, 1268]          256
    Tanh: 2-3                         [512, 128, 1268]          --
    MaxPool1d: 2-4                    [512, 128, 97]            --
    Dropout: 2-5                      [512, 128, 97]            --
    Flatten: 2-6                      [512, 12416]              --
    Linear: 2-7                       [512, 1]                  12,417
==========================================================================================
Total params: 14,465
Trainable params: 14,465
Non-trainable params: 0
Total mult-adds (G): 1.17
==========================================================================================
Input size (MB): 2.62
Forward/backward pass size (MB): 1329.60
Params size (MB): 0.06
Estimated Total Size (MB): 1332.28
==========================================================================================
