…
Time taken:  43244.83026313782
{'time_elapsed': [43244.83026313782], 'epoch': [67], 'fold': [2], 'f1_train': [0.6775890375885855], 'auroc_train': [0.7396079162167564], 'auprc_train': [0.5717140402052898], 'f1_test': [0.6261625662151182], 'auroc_test': [0.665287595847926], 'auprc_test': [0.47704389986572104]}
==========================================================================================
Layer (type:depth-idx)                   Output Shape              Param #
==========================================================================================
PGPredictor                              [1024, 1]                 --
Sequential: 1-1                        [1024, 1]                 --
    Conv1d: 2-1                       [1024, 128, 1268]         1,792
    BatchNorm1d: 2-2                  [1024, 128, 1268]         256
    Tanh: 2-3                         [1024, 128, 1268]         --
    MaxPool1d: 2-4                    [1024, 128, 97]           --
    Dropout: 2-5                      [1024, 128, 97]           --
    Flatten: 2-6                      [1024, 12416]             --
    Linear: 2-7                       [1024, 1]                 12,417
==========================================================================================
Total params: 14,465
Trainable params: 14,465
Non-trainable params: 0
Total mult-adds (G): 2.34
==========================================================================================
Input size (MB): 5.24
Forward/backward pass size (MB): 2659.20
Params size (MB): 0.06
Estimated Total Size (MB): 2664.50
==========================================================================================
