…
Time taken:  86391.58841609955
{'time_elapsed': [86391.58841609955], 'epoch': [57], 'fold': [1], 'f1_train': [0.7084572750632464], 'auroc_train': [0.7905694106373609], 'auprc_train': [0.6379704879084444], 'f1_test': [0.5982068656552479], 'auroc_test': [0.6315021588379726], 'auprc_test': [0.44323551915317566]}
==========================================================================================
Layer (type:depth-idx)                   Output Shape              Param #
==========================================================================================
PGPredictor                              [1024, 1]                 --
├─Sequential: 1-1                        [1024, 1]                 --
│    └─Conv1d: 2-1                       [1024, 256, 1268]         3,584
│    └─BatchNorm1d: 2-2                  [1024, 256, 1268]         512
│    └─Tanh: 2-3                         [1024, 256, 1268]         --
│    └─MaxPool1d: 2-4                    [1024, 256, 97]           --
│    └─Dropout: 2-5                      [1024, 256, 97]           --
│    └─Flatten: 2-6                      [1024, 24832]             --
│    └─Linear: 2-7                       [1024, 1]                 24,833
==========================================================================================
Total params: 28,929
Trainable params: 28,929
Non-trainable params: 0
Total mult-adds (G): 4.68
==========================================================================================
Input size (MB): 5.24
Forward/backward pass size (MB): 5318.39
Params size (MB): 0.12
Estimated Total Size (MB): 5323.74
==========================================================================================
