…
Time taken:  92973.27892589569
{'time_elapsed': [92973.27892589569], 'epoch': [56], 'fold': [0], 'f1_train': [0.6961979190922627], 'auroc_train': [0.7892066190510711], 'auprc_train': [0.6401132079014007], 'f1_test': [0.6084304448279197], 'auroc_test': [0.6557177797313272], 'auprc_test': [0.46640856422365845]}
==========================================================================================
Layer (type:depth-idx)                   Output Shape              Param #
==========================================================================================
PGPredictor                              [512, 1]                  --
Sequential: 1-1                        [512, 1]                  --
    Conv1d: 2-1                       [512, 256, 1268]          3,584
    BatchNorm1d: 2-2                  [512, 256, 1268]          512
    Tanh: 2-3                         [512, 256, 1268]          --
    MaxPool1d: 2-4                    [512, 256, 97]            --
    Dropout: 2-5                      [512, 256, 97]            --
    Flatten: 2-6                      [512, 24832]              --
    Linear: 2-7                       [512, 1]                  24,833
==========================================================================================
Total params: 28,929
Trainable params: 28,929
Non-trainable params: 0
Total mult-adds (G): 2.34
==========================================================================================
Input size (MB): 2.62
Forward/backward pass size (MB): 2659.19
Params size (MB): 0.12
Estimated Total Size (MB): 2661.93
==========================================================================================
