…
Time taken:  46130.9677169323
{'time_elapsed': [46130.9677169323], 'epoch': [63], 'fold': [4], 'f1_train': [0.6759922255114806], 'auroc_train': [0.7539560344033144], 'auprc_train': [0.5906146997473287], 'f1_test': [0.6064084281707688], 'auroc_test': [0.6509384459241869], 'auprc_test': [0.4642013288990641]}
==========================================================================================
Layer (type:depth-idx)                   Output Shape              Param #
==========================================================================================
PGPredictor                              [1024, 1]                 --
├─Sequential: 1-1                        [1024, 1]                 --
│    └─Conv1d: 2-1                       [1024, 128, 1274]         1,024
│    └─BatchNorm1d: 2-2                  [1024, 128, 1274]         256
│    └─Tanh: 2-3                         [1024, 128, 1274]         --
│    └─MaxPool1d: 2-4                    [1024, 128, 182]          --
│    └─Dropout: 2-5                      [1024, 128, 182]          --
│    └─Flatten: 2-6                      [1024, 23296]             --
│    └─Linear: 2-7                       [1024, 1]                 23,297
==========================================================================================
Total params: 24,577
Trainable params: 24,577
Non-trainable params: 0
Total mult-adds (G): 1.36
==========================================================================================
Input size (MB): 5.24
Forward/backward pass size (MB): 2671.78
Params size (MB): 0.10
Estimated Total Size (MB): 2677.12
==========================================================================================
