…
Time taken:  174012.39488887787
{'time_elapsed': [174012.39488887787], 'epoch': [77], 'fold': [4], 'f1_train': [0.703343185761372], 'auroc_train': [0.7770068718354148], 'auprc_train': [0.6237694107031696], 'f1_test': [0.6168955709905285], 'auroc_test': [0.6497562946622724], 'auprc_test': [0.46100593855381267]}
==========================================================================================
Layer (type:depth-idx)                   Output Shape              Param #
==========================================================================================
PGPredictor                              [512, 1]                  --
Sequential: 1-1                        [512, 1]                  --
    Conv1d: 2-1                       [512, 512, 1274]          4,096
    BatchNorm1d: 2-2                  [512, 512, 1274]          1,024
    Tanh: 2-3                         [512, 512, 1274]          --
    MaxPool1d: 2-4                    [512, 512, 182]           --
    Dropout: 2-5                      [512, 512, 182]           --
    Flatten: 2-6                      [512, 93184]              --
    Linear: 2-7                       [512, 1]                  93,185
==========================================================================================
Total params: 98,305
Trainable params: 98,305
Non-trainable params: 0
Total mult-adds (G): 2.72
==========================================================================================
Input size (MB): 2.62
Forward/backward pass size (MB): 5343.55
Params size (MB): 0.39
Estimated Total Size (MB): 5346.56
==========================================================================================
