…
Time taken:  103148.38301920891
{'time_elapsed': [103148.38301920891], 'epoch': [75], 'fold': [1], 'f1_train': [0.6793517419573147], 'auroc_train': [0.75815267107461], 'auprc_train': [0.5964443293188265], 'f1_test': [0.6123010948911257], 'auroc_test': [0.6592367779770625], 'auprc_test': [0.46999872763367]}
==========================================================================================
Layer (type:depth-idx)                   Output Shape              Param #
==========================================================================================
PGPredictor                              [1024, 1]                 --
Sequential: 1-1                        [1024, 1]                 --
    Conv1d: 2-1                       [1024, 256, 1268]         3,584
    BatchNorm1d: 2-2                  [1024, 256, 1268]         512
    Tanh: 2-3                         [1024, 256, 1268]         --
    MaxPool1d: 2-4                    [1024, 256, 97]           --
    Dropout: 2-5                      [1024, 256, 97]           --
    Flatten: 2-6                      [1024, 24832]             --
    Linear: 2-7                       [1024, 1]                 24,833
==========================================================================================
Total params: 28,929
Trainable params: 28,929
Non-trainable params: 0
Total mult-adds (G): 4.68
==========================================================================================
Input size (MB): 5.24
Forward/backward pass size (MB): 5318.39
Params size (MB): 0.12
Estimated Total Size (MB): 5323.74
==========================================================================================
