…
Time taken:  46381.31041622162
{'time_elapsed': [46381.31041622162], 'epoch': [63], 'fold': [2], 'f1_train': [0.6860920775843798], 'auroc_train': [0.7604745591018449], 'auprc_train': [0.5999239665137159], 'f1_test': [0.6194115199748472], 'auroc_test': [0.6606619873177357], 'auprc_test': [0.47386432085140107]}
==========================================================================================
Layer (type:depth-idx)                   Output Shape              Param #
==========================================================================================
PGPredictor                              [512, 1]                  --
Sequential: 1-1                        [512, 1]                  --
    Conv1d: 2-1                       [512, 128, 1274]          1,024
    BatchNorm1d: 2-2                  [512, 128, 1274]          256
    Tanh: 2-3                         [512, 128, 1274]          --
    MaxPool1d: 2-4                    [512, 128, 182]           --
    Dropout: 2-5                      [512, 128, 182]           --
    Flatten: 2-6                      [512, 23296]              --
    Linear: 2-7                       [512, 1]                  23,297
==========================================================================================
Total params: 24,577
Trainable params: 24,577
Non-trainable params: 0
Total mult-adds (M): 680.00
==========================================================================================
Input size (MB): 2.62
Forward/backward pass size (MB): 1335.89
Params size (MB): 0.10
Estimated Total Size (MB): 1338.61
…
