…
Time taken:  92038.2746617794
{'time_elapsed': [92038.2746617794], 'epoch': [56], 'fold': [2], 'f1_train': [0.6917428245119249], 'auroc_train': [0.7826392022961468], 'auprc_train': [0.6359043736759161], 'f1_test': [0.604343174593558], 'auroc_test': [0.6495243689127332], 'auprc_test': [0.4628262153142063]}
==========================================================================================
Layer (type:depth-idx)                   Output Shape              Param #
==========================================================================================
PGPredictor                              [512, 1]                  --
Sequential: 1-1                        [512, 1]                  --
    Conv1d: 2-1                       [512, 256, 1268]          3,584
    BatchNorm1d: 2-2                  [512, 256, 1268]          512
    Tanh: 2-3                         [512, 256, 1268]          --
    MaxPool1d: 2-4                    [512, 256, 97]            --
    Dropout: 2-5                      [512, 256, 97]            --
    Flatten: 2-6                      [512, 24832]              --
    Linear: 2-7                       [512, 1]                  24,833
==========================================================================================
Total params: 28,929
Trainable params: 28,929
Non-trainable params: 0
Total mult-adds (G): 2.34
==========================================================================================
Input size (MB): 2.62
Forward/backward pass size (MB): 2659.19
Params size (MB): 0.12
Estimated Total Size (MB): 2661.93
==========================================================================================
