…
Time taken:  116354.90256047249
{'time_elapsed': [116354.90256047249], 'epoch': [55], 'fold': [4], 'f1_train': [0.7761297890421993], 'auroc_train': [0.8530993761757051], 'auprc_train': [0.7396686608802336], 'f1_test': [0.6099927105862297], 'auroc_test': [0.6227216636997797], 'auprc_test': [0.43375200267347697]}
==========================================================================================
Layer (type:depth-idx)                   Output Shape              Param #
==========================================================================================
PGPredictor                              [1024, 1]                 --
├─Sequential: 1-1                        [1024, 1]                 --
│    └─Conv1d: 2-1                       [1024, 512, 1262]         10,240
│    └─BatchNorm1d: 2-2                  [1024, 512, 1262]         1,024
│    └─Tanh: 2-3                         [1024, 512, 1262]         --
│    └─MaxPool1d: 2-4                    [1024, 512, 66]           --
│    └─Dropout: 2-5                      [1024, 512, 66]           --
│    └─Flatten: 2-6                      [1024, 33792]             --
│    └─Linear: 2-7                       [1024, 1]                 33,793
==========================================================================================
Total params: 45,057
Trainable params: 45,057
Non-trainable params: 0
Total mult-adds (G): 13.27
==========================================================================================
Input size (MB): 5.24
Forward/backward pass size (MB): 10586.43
Params size (MB): 0.18
Estimated Total Size (MB): 10591.85
…
