…
Time taken:  247355.74604034424
{'time_elapsed': [247355.74604034424], 'epoch': [74], 'fold': [2], 'f1_train': [0.6849552069867546], 'auroc_train': [0.7448213718006792], 'auprc_train': [0.5796164974817404], 'f1_test': [0.629418944338148], 'auroc_test': [0.6635596707374198], 'auprc_test': [0.4746978020182123]}
==========================================================================================
Layer (type:depth-idx)                   Output Shape              Param #
==========================================================================================
PGPredictor                              [1024, 1]                 --
Sequential: 1-1                        [1024, 1]                 --
    Conv1d: 2-1                       [1024, 512, 1274]         4,096
    BatchNorm1d: 2-2                  [1024, 512, 1274]         1,024
    Tanh: 2-3                         [1024, 512, 1274]         --
    MaxPool1d: 2-4                    [1024, 512, 182]          --
    Dropout: 2-5                      [1024, 512, 182]          --
    Flatten: 2-6                      [1024, 93184]             --
    Linear: 2-7                       [1024, 1]                 93,185
==========================================================================================
Total params: 98,305
Trainable params: 98,305
Non-trainable params: 0
Total mult-adds (G): 5.44
==========================================================================================
Input size (MB): 5.24
Forward/backward pass size (MB): 10687.09
Params size (MB): 0.39
Estimated Total Size (MB): 10692.73
…
