…
Time taken:  40634.83699917793
{'time_elapsed': [40634.83699917793], 'epoch': [57], 'fold': [1], 'f1_train': [0.6810906079332786], 'auroc_train': [0.7526620307645684], 'auprc_train': [0.5866300758811076], 'f1_test': [0.6114006865860337], 'auroc_test': [0.6476823301460001], 'auprc_test': [0.4586040183221097]}
==========================================================================================
Layer (type:depth-idx)                   Output Shape              Param #
==========================================================================================
PGPredictor                              [512, 1]                  --
Sequential: 1-1                        [512, 1]                  --
    Conv1d: 2-1                       [512, 128, 1262]          2,560
    BatchNorm1d: 2-2                  [512, 128, 1262]          256
    Tanh: 2-3                         [512, 128, 1262]          --
    MaxPool1d: 2-4                    [512, 128, 66]            --
    Dropout: 2-5                      [512, 128, 66]            --
    Flatten: 2-6                      [512, 8448]               --
    Linear: 2-7                       [512, 1]                  8,449
==========================================================================================
Total params: 11,265
Trainable params: 11,265
Non-trainable params: 0
Total mult-adds (G): 1.66
==========================================================================================
Input size (MB): 2.62
Forward/backward pass size (MB): 1323.31
Params size (MB): 0.05
Estimated Total Size (MB): 1325.97
==========================================================================================
