…
Time taken:  190308.94995760918
{'time_elapsed': [190308.94995760918], 'epoch': [60], 'fold': [2], 'f1_train': [0.7778936603031754], 'auroc_train': [0.8581988329981988], 'auprc_train': [0.7447735466141685], 'f1_test': [0.6146440896976176], 'auroc_test': [0.6297266889905748], 'auprc_test': [0.4421447995988287]}
==========================================================================================
Layer (type:depth-idx)                   Output Shape              Param #
==========================================================================================
PGPredictor                              [1024, 1]                 --
├─Sequential: 1-1                        [1024, 1]                 --
│    └─Conv1d: 2-1                       [1024, 512, 1262]         10,240
│    └─BatchNorm1d: 2-2                  [1024, 512, 1262]         1,024
│    └─Tanh: 2-3                         [1024, 512, 1262]         --
│    └─MaxPool1d: 2-4                    [1024, 512, 66]           --
│    └─Dropout: 2-5                      [1024, 512, 66]           --
│    └─Flatten: 2-6                      [1024, 33792]             --
│    └─Linear: 2-7                       [1024, 1]                 33,793
==========================================================================================
Total params: 45,057
Trainable params: 45,057
Non-trainable params: 0
Total mult-adds (G): 13.27
==========================================================================================
Input size (MB): 5.24
Forward/backward pass size (MB): 10586.43
Params size (MB): 0.18
Estimated Total Size (MB): 10591.85
…
