…
Time taken:  54397.668385505676
{'time_elapsed': [54397.668385505676], 'epoch': [67], 'fold': [3], 'f1_train': [0.6871490348303702], 'auroc_train': [0.7634186245307157], 'auprc_train': [0.6036923560866911], 'f1_test': [0.6173294921573614], 'auroc_test': [0.6603223669964107], 'auprc_test': [0.4684033535160748]}
==========================================================================================
Layer (type:depth-idx)                   Output Shape              Param #
==========================================================================================
PGPredictor                              [512, 1]                  --
Sequential: 1-1                        [512, 1]                  --
    Conv1d: 2-1                       [512, 128, 1274]          1,024
    BatchNorm1d: 2-2                  [512, 128, 1274]          256
    Tanh: 2-3                         [512, 128, 1274]          --
    MaxPool1d: 2-4                    [512, 128, 182]           --
    Dropout: 2-5                      [512, 128, 182]           --
    Flatten: 2-6                      [512, 23296]              --
    Linear: 2-7                       [512, 1]                  23,297
==========================================================================================
Total params: 24,577
Trainable params: 24,577
Non-trainable params: 0
Total mult-adds (M): 680.00
==========================================================================================
Input size (MB): 2.62
Forward/backward pass size (MB): 1335.89
Params size (MB): 0.10
Estimated Total Size (MB): 1338.61
…
