…
Time taken:  85372.26805591583
{'time_elapsed': [85372.26805591583], 'epoch': [62], 'fold': [0], 'f1_train': [0.6573161158768739], 'auroc_train': [0.7337947942148734], 'auprc_train': [0.5618729626111492], 'f1_test': [0.6142604723041256], 'auroc_test': [0.6705834246357858], 'auprc_test': [0.4828767368139096]}
==========================================================================================
Layer (type:depth-idx)                   Output Shape              Param #
==========================================================================================
PGPredictor                              [512, 1]                  --
Sequential: 1-1                        [512, 1]                  --
    Conv1d: 2-1                       [512, 256, 1262]          5,120
    BatchNorm1d: 2-2                  [512, 256, 1262]          512
    Tanh: 2-3                         [512, 256, 1262]          --
    MaxPool1d: 2-4                    [512, 256, 66]            --
    Dropout: 2-5                      [512, 256, 66]            --
    Flatten: 2-6                      [512, 16896]              --
    Linear: 2-7                       [512, 1]                  16,897
==========================================================================================
Total params: 22,529
Trainable params: 22,529
Non-trainable params: 0
Total mult-adds (G): 3.32
==========================================================================================
Input size (MB): 2.62
Forward/backward pass size (MB): 2646.61
Params size (MB): 0.09
Estimated Total Size (MB): 2649.32
==========================================================================================
