…
Time taken:  45869.15697431564
{'time_elapsed': [45869.15697431564], 'epoch': [64], 'fold': [4], 'f1_train': [0.6819926227702784], 'auroc_train': [0.7477618183440591], 'auprc_train': [0.5807692676794117], 'f1_test': [0.6076983083105751], 'auroc_test': [0.6394952754702892], 'auprc_test': [0.4519752127219134]}
==========================================================================================
Layer (type:depth-idx)                   Output Shape              Param #
==========================================================================================
PGPredictor                              [1024, 1]                 --
├─Sequential: 1-1                        [1024, 1]                 --
│    └─Conv1d: 2-1                       [1024, 128, 1262]         2,560
│    └─BatchNorm1d: 2-2                  [1024, 128, 1262]         256
│    └─Tanh: 2-3                         [1024, 128, 1262]         --
│    └─MaxPool1d: 2-4                    [1024, 128, 66]           --
│    └─Dropout: 2-5                      [1024, 128, 66]           --
│    └─Flatten: 2-6                      [1024, 8448]              --
│    └─Linear: 2-7                       [1024, 1]                 8,449
==========================================================================================
Total params: 11,265
Trainable params: 11,265
Non-trainable params: 0
Total mult-adds (G): 3.32
==========================================================================================
Input size (MB): 5.24
Forward/backward pass size (MB): 2646.61
Params size (MB): 0.05
Estimated Total Size (MB): 2651.90
==========================================================================================
