…
Time taken:  177622.87639546394
{'time_elapsed': [177622.87639546394], 'epoch': [54], 'fold': [4], 'f1_train': [0.7670720287295608], 'auroc_train': [0.8444999693961772], 'auprc_train': [0.7225640053199506], 'f1_test': [0.6107516892929219], 'auroc_test': [0.6259128931300967], 'auprc_test': [0.4355954226369773]}
==========================================================================================
Layer (type:depth-idx)                   Output Shape              Param #
==========================================================================================
PGPredictor                              [1024, 1]                 --
├─Sequential: 1-1                        [1024, 1]                 --
│    └─Conv1d: 2-1                       [1024, 512, 1268]         7,168
│    └─BatchNorm1d: 2-2                  [1024, 512, 1268]         1,024
│    └─Tanh: 2-3                         [1024, 512, 1268]         --
│    └─MaxPool1d: 2-4                    [1024, 512, 97]           --
│    └─Dropout: 2-5                      [1024, 512, 97]           --
│    └─Flatten: 2-6                      [1024, 49664]             --
│    └─Linear: 2-7                       [1024, 1]                 49,665
==========================================================================================
Total params: 57,857
Trainable params: 57,857
Non-trainable params: 0
Total mult-adds (G): 9.36
==========================================================================================
Input size (MB): 5.24
Forward/backward pass size (MB): 10636.76
Params size (MB): 0.23
Estimated Total Size (MB): 10642.24
…
