…
Time taken:  127323.85543298721
{'time_elapsed': [127323.85543298721], 'epoch': [54], 'fold': [4], 'f1_train': [0.7646459453264713], 'auroc_train': [0.8427850550210558], 'auprc_train': [0.7227818420864961], 'f1_test': [0.6239884913197464], 'auroc_test': [0.6464491706308388], 'auprc_test': [0.4550233306473089]}
==========================================================================================
Layer (type:depth-idx)                   Output Shape              Param #
==========================================================================================
PGPredictor                              [512, 1]                  --
Sequential: 1-1                        [512, 1]                  --
    Conv1d: 2-1                       [512, 512, 1262]          10,240
    BatchNorm1d: 2-2                  [512, 512, 1262]          1,024
    Tanh: 2-3                         [512, 512, 1262]          --
    MaxPool1d: 2-4                    [512, 512, 66]            --
    Dropout: 2-5                      [512, 512, 66]            --
    Flatten: 2-6                      [512, 33792]              --
    Linear: 2-7                       [512, 1]                  33,793
==========================================================================================
Total params: 45,057
Trainable params: 45,057
Non-trainable params: 0
Total mult-adds (G): 6.63
==========================================================================================
Input size (MB): 2.62
Forward/backward pass size (MB): 5293.22
Params size (MB): 0.18
Estimated Total Size (MB): 5296.02
==========================================================================================
