…
Time taken:  42151.321522951126
{'time_elapsed': [42151.321522951126], 'epoch': [61], 'fold': [4], 'f1_train': [0.6761461549163114], 'auroc_train': [0.7552067473053654], 'auprc_train': [0.5902719949056017], 'f1_test': [0.6085043020385075], 'auroc_test': [0.6507796944602489], 'auprc_test': [0.46051350338102537]}
==========================================================================================
Layer (type:depth-idx)                   Output Shape              Param #
==========================================================================================
PGPredictor                              [1024, 1]                 --
├─Sequential: 1-1                        [1024, 1]                 --
│    └─Conv1d: 2-1                       [1024, 128, 1268]         1,792
│    └─BatchNorm1d: 2-2                  [1024, 128, 1268]         256
│    └─Tanh: 2-3                         [1024, 128, 1268]         --
│    └─MaxPool1d: 2-4                    [1024, 128, 97]           --
│    └─Dropout: 2-5                      [1024, 128, 97]           --
│    └─Flatten: 2-6                      [1024, 12416]             --
│    └─Linear: 2-7                       [1024, 1]                 12,417
==========================================================================================
Total params: 14,465
Trainable params: 14,465
Non-trainable params: 0
Total mult-adds (G): 2.34
==========================================================================================
Input size (MB): 5.24
Forward/backward pass size (MB): 2659.20
Params size (MB): 0.06
Estimated Total Size (MB): 2664.50
==========================================================================================
