…
Time taken:  38642.239451646805
{'time_elapsed': [38642.239451646805], 'epoch': [63], 'fold': [2], 'f1_train': [0.6572804016650644], 'auroc_train': [0.7111602029223943], 'auprc_train': [0.5346293291626194], 'f1_test': [0.6296804357709448], 'auroc_test': [0.6671308872397683], 'auprc_test': [0.47859832669618074]}
==========================================================================================
Layer (type:depth-idx)                   Output Shape              Param #
==========================================================================================
PGPredictor                              [512, 1]                  --
Sequential: 1-1                        [512, 1]                  --
    Conv1d: 2-1                       [512, 128, 1274]          1,024
    BatchNorm1d: 2-2                  [512, 128, 1274]          256
    Tanh: 2-3                         [512, 128, 1274]          --
    MaxPool1d: 2-4                    [512, 128, 182]           --
    Dropout: 2-5                      [512, 128, 182]           --
    Flatten: 2-6                      [512, 23296]              --
    Linear: 2-7                       [512, 1]                  23,297
==========================================================================================
Total params: 24,577
Trainable params: 24,577
Non-trainable params: 0
Total mult-adds (M): 680.00
==========================================================================================
Input size (MB): 2.62
Forward/backward pass size (MB): 1335.89
Params size (MB): 0.10
Estimated Total Size (MB): 1338.61
…
