…
Time taken:  41961.83633136749
{'time_elapsed': [41961.83633136749], 'epoch': [66], 'fold': [0], 'f1_train': [0.6563281039495382], 'auroc_train': [0.7134137019140147], 'auprc_train': [0.5358725586588942], 'f1_test': [0.6298694809643549], 'auroc_test': [0.6707181294839066], 'auprc_test': [0.4794266323038771]}
==========================================================================================
Layer (type:depth-idx)                   Output Shape              Param #
==========================================================================================
PGPredictor                              [512, 1]                  --
Sequential: 1-1                        [512, 1]                  --
    Conv1d: 2-1                       [512, 128, 1274]          1,024
    BatchNorm1d: 2-2                  [512, 128, 1274]          256
    Tanh: 2-3                         [512, 128, 1274]          --
    MaxPool1d: 2-4                    [512, 128, 182]           --
    Dropout: 2-5                      [512, 128, 182]           --
    Flatten: 2-6                      [512, 23296]              --
    Linear: 2-7                       [512, 1]                  23,297
==========================================================================================
Total params: 24,577
Trainable params: 24,577
Non-trainable params: 0
Total mult-adds (M): 680.00
==========================================================================================
Input size (MB): 2.62
Forward/backward pass size (MB): 1335.89
Params size (MB): 0.10
Estimated Total Size (MB): 1338.61
…
