…
Time taken:  80807.09017729759
{'time_elapsed': [80807.09017729759], 'epoch': [53], 'fold': [4], 'f1_train': [0.714382433457041], 'auroc_train': [0.7816810095272697], 'auprc_train': [0.6297301630017291], 'f1_test': [0.6181041740062698], 'auroc_test': [0.6440444232383706], 'auprc_test': [0.45515925516557015]}
==========================================================================================
Layer (type:depth-idx)                   Output Shape              Param #
==========================================================================================
PGPredictor                              [512, 1]                  --
Sequential: 1-1                        [512, 1]                  --
    Conv1d: 2-1                       [512, 256, 1268]          3,584
    BatchNorm1d: 2-2                  [512, 256, 1268]          512
    Tanh: 2-3                         [512, 256, 1268]          --
    MaxPool1d: 2-4                    [512, 256, 97]            --
    Dropout: 2-5                      [512, 256, 97]            --
    Flatten: 2-6                      [512, 24832]              --
    Linear: 2-7                       [512, 1]                  24,833
==========================================================================================
Total params: 28,929
Trainable params: 28,929
Non-trainable params: 0
Total mult-adds (G): 2.34
==========================================================================================
Input size (MB): 2.62
Forward/backward pass size (MB): 2659.19
Params size (MB): 0.12
Estimated Total Size (MB): 2661.93
==========================================================================================
