…
Time taken:  93604.6441822052
{'time_elapsed': [93604.6441822052], 'epoch': [60], 'fold': [0], 'f1_train': [0.7094078609729834], 'auroc_train': [0.7773195772513573], 'auprc_train': [0.6263756072467216], 'f1_test': [0.6257445528267471], 'auroc_test': [0.6578593069161411], 'auprc_test': [0.46933279417741025]}
==========================================================================================
Layer (type:depth-idx)                   Output Shape              Param #
==========================================================================================
PGPredictor                              [1024, 1]                 --
├─Sequential: 1-1                        [1024, 1]                 --
│    └─Conv1d: 2-1                       [1024, 256, 1274]         2,048
│    └─BatchNorm1d: 2-2                  [1024, 256, 1274]         512
│    └─Tanh: 2-3                         [1024, 256, 1274]         --
│    └─MaxPool1d: 2-4                    [1024, 256, 182]          --
│    └─Dropout: 2-5                      [1024, 256, 182]          --
│    └─Flatten: 2-6                      [1024, 46592]             --
│    └─Linear: 2-7                       [1024, 1]                 46,593
==========================================================================================
Total params: 49,153
Trainable params: 49,153
Non-trainable params: 0
Total mult-adds (G): 2.72
==========================================================================================
Input size (MB): 5.24
Forward/backward pass size (MB): 5343.55
Params size (MB): 0.20
Estimated Total Size (MB): 5348.99
==========================================================================================
