…
Time taken:  47510.01202106476
{'time_elapsed': [47510.01202106476], 'epoch': [58], 'fold': [4], 'f1_train': [0.6844059084976036], 'auroc_train': [0.7552803993592552], 'auprc_train': [0.5946155325102541], 'f1_test': [0.613828713839906], 'auroc_test': [0.6478025607074276], 'auprc_test': [0.45739720944464085]}
==========================================================================================
Layer (type:depth-idx)                   Output Shape              Param #
==========================================================================================
PGPredictor                              [1024, 1]                 --
├─Sequential: 1-1                        [1024, 1]                 --
│    └─Conv1d: 2-1                       [1024, 128, 1274]         1,024
│    └─BatchNorm1d: 2-2                  [1024, 128, 1274]         256
│    └─Tanh: 2-3                         [1024, 128, 1274]         --
│    └─MaxPool1d: 2-4                    [1024, 128, 182]          --
│    └─Dropout: 2-5                      [1024, 128, 182]          --
│    └─Flatten: 2-6                      [1024, 23296]             --
│    └─Linear: 2-7                       [1024, 1]                 23,297
==========================================================================================
Total params: 24,577
Trainable params: 24,577
Non-trainable params: 0
Total mult-adds (G): 1.36
==========================================================================================
Input size (MB): 5.24
Forward/backward pass size (MB): 2671.78
Params size (MB): 0.10
Estimated Total Size (MB): 2677.12
==========================================================================================
