…
Time taken:  41735.60204911232
{'time_elapsed': [41735.60204911232], 'epoch': [59], 'fold': [2], 'f1_train': [0.6901872037326023], 'auroc_train': [0.7488404387878949], 'auprc_train': [0.5853766286118188], 'f1_test': [0.6193504430032765], 'auroc_test': [0.6455332587194498], 'auprc_test': [0.45346753340073476]}
==========================================================================================
Layer (type:depth-idx)                   Output Shape              Param #
==========================================================================================
PGPredictor                              [1024, 1]                 --
├─Sequential: 1-1                        [1024, 1]                 --
│    └─Conv1d: 2-1                       [1024, 128, 1268]         1,792
│    └─BatchNorm1d: 2-2                  [1024, 128, 1268]         256
│    └─Tanh: 2-3                         [1024, 128, 1268]         --
│    └─MaxPool1d: 2-4                    [1024, 128, 97]           --
│    └─Dropout: 2-5                      [1024, 128, 97]           --
│    └─Flatten: 2-6                      [1024, 12416]             --
│    └─Linear: 2-7                       [1024, 1]                 12,417
==========================================================================================
Total params: 14,465
Trainable params: 14,465
Non-trainable params: 0
Total mult-adds (G): 2.34
==========================================================================================
Input size (MB): 5.24
Forward/backward pass size (MB): 2659.20
Params size (MB): 0.06
Estimated Total Size (MB): 2664.50
==========================================================================================
