…
Time taken:  49755.174785375595
{'time_elapsed': [49755.174785375595], 'epoch': [71], 'fold': [4], 'f1_train': [0.6733285584397312], 'auroc_train': [0.7384158198258146], 'auprc_train': [0.5693911437293505], 'f1_test': [0.6216972454352129], 'auroc_test': [0.6590096927229057], 'auprc_test': [0.4706714881959812]}
==========================================================================================
Layer (type:depth-idx)                   Output Shape              Param #
==========================================================================================
PGPredictor                              [1024, 1]                 --
Sequential: 1-1                        [1024, 1]                 --
    Conv1d: 2-1                       [1024, 128, 1268]         1,792
    BatchNorm1d: 2-2                  [1024, 128, 1268]         256
    Tanh: 2-3                         [1024, 128, 1268]         --
    MaxPool1d: 2-4                    [1024, 128, 97]           --
    Dropout: 2-5                      [1024, 128, 97]           --
    Flatten: 2-6                      [1024, 12416]             --
    Linear: 2-7                       [1024, 1]                 12,417
==========================================================================================
Total params: 14,465
Trainable params: 14,465
Non-trainable params: 0
Total mult-adds (G): 2.34
==========================================================================================
Input size (MB): 5.24
Forward/backward pass size (MB): 2659.20
Params size (MB): 0.06
Estimated Total Size (MB): 2664.50
==========================================================================================
