…
Time taken:  87752.7783613205
{'time_elapsed': [87752.7783613205], 'epoch': [59], 'fold': [3], 'f1_train': [0.7002871743624749], 'auroc_train': [0.7728274169778618], 'auprc_train': [0.6180770639890713], 'f1_test': [0.6137293446465943], 'auroc_test': [0.6441054319534023], 'auprc_test': [0.4565091215984074]}
==========================================================================================
Layer (type:depth-idx)                   Output Shape              Param #
==========================================================================================
PGPredictor                              [1024, 1]                 --
├─Sequential: 1-1                        [1024, 1]                 --
│    └─Conv1d: 2-1                       [1024, 256, 1274]         2,048
│    └─BatchNorm1d: 2-2                  [1024, 256, 1274]         512
│    └─Tanh: 2-3                         [1024, 256, 1274]         --
│    └─MaxPool1d: 2-4                    [1024, 256, 182]          --
│    └─Dropout: 2-5                      [1024, 256, 182]          --
│    └─Flatten: 2-6                      [1024, 46592]             --
│    └─Linear: 2-7                       [1024, 1]                 46,593
==========================================================================================
Total params: 49,153
Trainable params: 49,153
Non-trainable params: 0
Total mult-adds (G): 2.72
==========================================================================================
Input size (MB): 5.24
Forward/backward pass size (MB): 5343.55
Params size (MB): 0.20
Estimated Total Size (MB): 5348.99
==========================================================================================
