…
Time taken:  184854.90803527832
{'time_elapsed': [184854.90803527832], 'epoch': [61], 'fold': [1], 'f1_train': [0.6702511654779758], 'auroc_train': [0.7317278542103289], 'auprc_train': [0.5626803680125407], 'f1_test': [0.6201728538981903], 'auroc_test': [0.6589710072795694], 'auprc_test': [0.4697978801543012]}
==========================================================================================
Layer (type:depth-idx)                   Output Shape              Param #
==========================================================================================
PGPredictor                              [512, 1]                  --
Sequential: 1-1                        [512, 1]                  --
    Conv1d: 2-1                       [512, 512, 1268]          7,168
    BatchNorm1d: 2-2                  [512, 512, 1268]          1,024
    Tanh: 2-3                         [512, 512, 1268]          --
    MaxPool1d: 2-4                    [512, 512, 97]            --
    Dropout: 2-5                      [512, 512, 97]            --
    Flatten: 2-6                      [512, 49664]              --
    Linear: 2-7                       [512, 1]                  49,665
==========================================================================================
Total params: 57,857
Trainable params: 57,857
Non-trainable params: 0
Total mult-adds (G): 4.68
==========================================================================================
Input size (MB): 2.62
Forward/backward pass size (MB): 5318.38
Params size (MB): 0.23
Estimated Total Size (MB): 5321.23
==========================================================================================
