…
Time taken:  92530.49235224724
{'time_elapsed': [92530.49235224724], 'epoch': [63], 'fold': [4], 'f1_train': [0.6529443420182862], 'auroc_train': [0.7193681625877454], 'auprc_train': [0.5457128333052679], 'f1_test': [0.6109608432902428], 'auroc_test': [0.6563900548247161], 'auprc_test': [0.4705097861416495]}
==========================================================================================
Layer (type:depth-idx)                   Output Shape              Param #
==========================================================================================
PGPredictor                              [512, 1]                  --
Sequential: 1-1                        [512, 1]                  --
    Conv1d: 2-1                       [512, 256, 1268]          3,584
    BatchNorm1d: 2-2                  [512, 256, 1268]          512
    Tanh: 2-3                         [512, 256, 1268]          --
    MaxPool1d: 2-4                    [512, 256, 97]            --
    Dropout: 2-5                      [512, 256, 97]            --
    Flatten: 2-6                      [512, 24832]              --
    Linear: 2-7                       [512, 1]                  24,833
==========================================================================================
Total params: 28,929
Trainable params: 28,929
Non-trainable params: 0
Total mult-adds (G): 2.34
==========================================================================================
Input size (MB): 2.62
Forward/backward pass size (MB): 2659.19
Params size (MB): 0.12
Estimated Total Size (MB): 2661.93
==========================================================================================
