…
Time taken:  89404.47602319717
{'time_elapsed': [89404.47602319717], 'epoch': [59], 'fold': [3], 'f1_train': [0.6896391760448285], 'auroc_train': [0.7710437899453539], 'auprc_train': [0.6177067006491436], 'f1_test': [0.6123682062044127], 'auroc_test': [0.6548083011626257], 'auprc_test': [0.46650761184526107]}
==========================================================================================
Layer (type:depth-idx)                   Output Shape              Param #
==========================================================================================
PGPredictor                              [1024, 1]                 --
├─Sequential: 1-1                        [1024, 1]                 --
│    └─Conv1d: 2-1                       [1024, 256, 1274]         2,048
│    └─BatchNorm1d: 2-2                  [1024, 256, 1274]         512
│    └─Tanh: 2-3                         [1024, 256, 1274]         --
│    └─MaxPool1d: 2-4                    [1024, 256, 182]          --
│    └─Dropout: 2-5                      [1024, 256, 182]          --
│    └─Flatten: 2-6                      [1024, 46592]             --
│    └─Linear: 2-7                       [1024, 1]                 46,593
==========================================================================================
Total params: 49,153
Trainable params: 49,153
Non-trainable params: 0
Total mult-adds (G): 2.72
==========================================================================================
Input size (MB): 5.24
Forward/backward pass size (MB): 5343.55
Params size (MB): 0.20
Estimated Total Size (MB): 5348.99
==========================================================================================
