…
Time taken:  90291.71645617485
{'time_elapsed': [90291.71645617485], 'epoch': [58], 'fold': [1], 'f1_train': [0.733465424051637], 'auroc_train': [0.7990431236188057], 'auprc_train': [0.6541743029254199], 'f1_test': [0.6200207115110423], 'auroc_test': [0.6390570817823706], 'auprc_test': [0.45059903911500093]}
==========================================================================================
Layer (type:depth-idx)                   Output Shape              Param #
==========================================================================================
PGPredictor                              [1024, 1]                 --
├─Sequential: 1-1                        [1024, 1]                 --
│    └─Conv1d: 2-1                       [1024, 256, 1262]         5,120
│    └─BatchNorm1d: 2-2                  [1024, 256, 1262]         512
│    └─Tanh: 2-3                         [1024, 256, 1262]         --
│    └─MaxPool1d: 2-4                    [1024, 256, 66]           --
│    └─Dropout: 2-5                      [1024, 256, 66]           --
│    └─Flatten: 2-6                      [1024, 16896]             --
│    └─Linear: 2-7                       [1024, 1]                 16,897
==========================================================================================
Total params: 22,529
Trainable params: 22,529
Non-trainable params: 0
Total mult-adds (G): 6.63
==========================================================================================
Input size (MB): 5.24
Forward/backward pass size (MB): 5293.22
Params size (MB): 0.09
Estimated Total Size (MB): 5298.55
==========================================================================================
