…
Time taken:  118868.64792704582
{'time_elapsed': [118868.64792704582], 'epoch': [77], 'fold': [4], 'f1_train': [0.711066802559331], 'auroc_train': [0.780597840151174], 'auprc_train': [0.6281171007765687], 'f1_test': [0.6237459546989631], 'auroc_test': [0.6538232754597255], 'auprc_test': [0.4636307383308785]}
==========================================================================================
Layer (type:depth-idx)                   Output Shape              Param #
==========================================================================================
PGPredictor                              [512, 1]                  --
Sequential: 1-1                        [512, 1]                  --
    Conv1d: 2-1                       [512, 256, 1274]          2,048
    BatchNorm1d: 2-2                  [512, 256, 1274]          512
    Tanh: 2-3                         [512, 256, 1274]          --
    MaxPool1d: 2-4                    [512, 256, 182]           --
    Dropout: 2-5                      [512, 256, 182]           --
    Flatten: 2-6                      [512, 46592]              --
    Linear: 2-7                       [512, 1]                  46,593
==========================================================================================
Total params: 49,153
Trainable params: 49,153
Non-trainable params: 0
Total mult-adds (G): 1.36
==========================================================================================
Input size (MB): 2.62
Forward/backward pass size (MB): 2671.78
Params size (MB): 0.20
Estimated Total Size (MB): 2674.59
==========================================================================================
