…
Time taken:  43888.5411734581
{'time_elapsed': [43888.5411734581], 'epoch': [56], 'fold': [2], 'f1_train': [0.6770360744904742], 'auroc_train': [0.7522671761048709], 'auprc_train': [0.5887131515500961], 'f1_test': [0.6141462490048094], 'auroc_test': [0.6558235985532033], 'auprc_test': [0.4655148924190667]}
==========================================================================================
Layer (type:depth-idx)                   Output Shape              Param #
==========================================================================================
PGPredictor                              [512, 1]                  --
Sequential: 1-1                        [512, 1]                  --
    Conv1d: 2-1                       [512, 128, 1262]          2,560
    BatchNorm1d: 2-2                  [512, 128, 1262]          256
    Tanh: 2-3                         [512, 128, 1262]          --
    MaxPool1d: 2-4                    [512, 128, 66]            --
    Dropout: 2-5                      [512, 128, 66]            --
    Flatten: 2-6                      [512, 8448]               --
    Linear: 2-7                       [512, 1]                  8,449
==========================================================================================
Total params: 11,265
Trainable params: 11,265
Non-trainable params: 0
Total mult-adds (G): 1.66
==========================================================================================
Input size (MB): 2.62
Forward/backward pass size (MB): 1323.31
Params size (MB): 0.05
Estimated Total Size (MB): 1325.97
==========================================================================================
