…
Time taken:  43475.250302791595
{'time_elapsed': [43475.250302791595], 'epoch': [56], 'fold': [0], 'f1_train': [0.6884148538606784], 'auroc_train': [0.747144740539105], 'auprc_train': [0.5820847179516542], 'f1_test': [0.6267031163794479], 'auroc_test': [0.6577425995890996], 'auprc_test': [0.46583099854277293]}
==========================================================================================
Layer (type:depth-idx)                   Output Shape              Param #
==========================================================================================
PGPredictor                              [512, 1]                  --
Sequential: 1-1                        [512, 1]                  --
    Conv1d: 2-1                       [512, 128, 1268]          1,792
    BatchNorm1d: 2-2                  [512, 128, 1268]          256
    Tanh: 2-3                         [512, 128, 1268]          --
    MaxPool1d: 2-4                    [512, 128, 97]            --
    Dropout: 2-5                      [512, 128, 97]            --
    Flatten: 2-6                      [512, 12416]              --
    Linear: 2-7                       [512, 1]                  12,417
==========================================================================================
Total params: 14,465
Trainable params: 14,465
Non-trainable params: 0
Total mult-adds (G): 1.17
==========================================================================================
Input size (MB): 2.62
Forward/backward pass size (MB): 1329.60
Params size (MB): 0.06
Estimated Total Size (MB): 1332.28
==========================================================================================
