…
Time taken:  193594.4517645836
{'time_elapsed': [193594.4517645836], 'epoch': [69], 'fold': [3], 'f1_train': [0.7056741569160262], 'auroc_train': [0.7696668463660933], 'auprc_train': [0.6156254124117101], 'f1_test': [0.6284171593936009], 'auroc_test': [0.6593103504854984], 'auprc_test': [0.4698055941771864]}
==========================================================================================
Layer (type:depth-idx)                   Output Shape              Param #
==========================================================================================
PGPredictor                              [1024, 1]                 --
Sequential: 1-1                        [1024, 1]                 --
    Conv1d: 2-1                       [1024, 512, 1268]         7,168
    BatchNorm1d: 2-2                  [1024, 512, 1268]         1,024
    Tanh: 2-3                         [1024, 512, 1268]         --
    MaxPool1d: 2-4                    [1024, 512, 97]           --
    Dropout: 2-5                      [1024, 512, 97]           --
    Flatten: 2-6                      [1024, 49664]             --
    Linear: 2-7                       [1024, 1]                 49,665
==========================================================================================
Total params: 57,857
Trainable params: 57,857
Non-trainable params: 0
Total mult-adds (G): 9.36
==========================================================================================
Input size (MB): 5.24
Forward/backward pass size (MB): 10636.76
Params size (MB): 0.23
Estimated Total Size (MB): 10642.24
…
