…
Time taken:  91501.47033286095
{'time_elapsed': [91501.47033286095], 'epoch': [74], 'fold': [2], 'f1_train': [0.6955928646472076], 'auroc_train': [0.7639608619164653], 'auprc_train': [0.605020814450757], 'f1_test': [0.6243415788192831], 'auroc_test': [0.6605343767487629], 'auprc_test': [0.4715642299851083]}
==========================================================================================
Layer (type:depth-idx)                   Output Shape              Param #
==========================================================================================
PGPredictor                              [1024, 1]                 --
Sequential: 1-1                        [1024, 1]                 --
    Conv1d: 2-1                       [1024, 256, 1262]         5,120
    BatchNorm1d: 2-2                  [1024, 256, 1262]         512
    Tanh: 2-3                         [1024, 256, 1262]         --
    MaxPool1d: 2-4                    [1024, 256, 66]           --
    Dropout: 2-5                      [1024, 256, 66]           --
    Flatten: 2-6                      [1024, 16896]             --
    Linear: 2-7                       [1024, 1]                 16,897
==========================================================================================
Total params: 22,529
Trainable params: 22,529
Non-trainable params: 0
Total mult-adds (G): 6.63
==========================================================================================
Input size (MB): 5.24
Forward/backward pass size (MB): 5293.22
Params size (MB): 0.09
Estimated Total Size (MB): 5298.55
==========================================================================================
