…
Time taken:  161421.86090278625
{'time_elapsed': [161421.86090278625], 'epoch': [54], 'fold': [4], 'f1_train': [0.7608834321152866], 'auroc_train': [0.8325226891362913], 'auprc_train': [0.7032456454301641], 'f1_test': [0.6185289873779246], 'auroc_test': [0.6359599424023257], 'auprc_test': [0.4444168725088147]}
==========================================================================================
Layer (type:depth-idx)                   Output Shape              Param #
==========================================================================================
PGPredictor                              [512, 1]                  --
Sequential: 1-1                        [512, 1]                  --
    Conv1d: 2-1                       [512, 512, 1262]          10,240
    BatchNorm1d: 2-2                  [512, 512, 1262]          1,024
    Tanh: 2-3                         [512, 512, 1262]          --
    MaxPool1d: 2-4                    [512, 512, 66]            --
    Dropout: 2-5                      [512, 512, 66]            --
    Flatten: 2-6                      [512, 33792]              --
    Linear: 2-7                       [512, 1]                  33,793
==========================================================================================
Total params: 45,057
Trainable params: 45,057
Non-trainable params: 0
Total mult-adds (G): 6.63
==========================================================================================
Input size (MB): 2.62
Forward/backward pass size (MB): 5293.22
Params size (MB): 0.18
Estimated Total Size (MB): 5296.02
==========================================================================================
